Toy Experiment/results_affine.pt (torch, 125711 bytes, 46 tensors)

encoder.0.weight f4 [8, 2]
00000000: d2b9 0bbe d01a 7e3e 1b90 36bf 4e49 c7be
00000010: 311c babe aaab c93d dc00 9e3d 86dc 263f
00000020: 6d9a 1dbe 6dec c13d 720d a9bd a650 8abe
00000030: d05c 0bbf da75 19bf 7018 24be c523 213e
-0.13645104 0.24814916 -0.7131364 -0.38923115 -0.36349633 0.098471954 0.07715008 0.6518024
-0.1539094 0.09468923 -0.082545176 -0.27014655 -0.54438496 -0.5994545 -0.16024947 0.15736301

encoder.0.bias f4 [8]
00000000: f3f7 c63e ab72 fd3e ea2c 1abf 6dee 43be
00000010: 0f58 b83e 1819 323f 605e 0bbd 1f48 203f
0.38861045 0.49501547 -0.60224783 -0.19133921 0.36004683 0.6956954 -0.03402555 0.6261005

encoder.1.weight f4 [8]
00000000: b4aa 8b3f 1bab 8b3f abc9 903f a1aa 8b3f
00000010: c4aa 8b3f 37aa 683f c9aa 683f 32aa 683f
1.091147 1.0911592 1.1311544 1.0911447 1.0911489 0.9088473 0.908856 0.908847

encoder.1.bias f4 [8]
00000000: aeb2 ba3d c2c1 ba3d f14c 063e cfad ba3d
00000010: ffaf ba3d b9aa babd 689b babd 354e 06be
0.09116112 0.091189876 0.13115288 0.091151826 0.091156 -0.09114594 -0.09111673 -0.13115771

encoder.1.running_mean f4 [8]
00000000: c0c3 6d3e 6de6 803e eeef 50bf 4481 c6be
00000010: a818 803e 2877 403f cc72 b1bd de25 fb3e
0.23219204 0.251758 -0.81616104 -0.38770497 0.2501881 0.7518182 -0.08664474 0.49052328

encoder.1.running_var f4 [8]
00000000: db3a cb3c a2c0 593e ce80 153d 9d77 223e
00000010: 6753 0d3c ad20 f53c e3b5 6f3e e65f 663c
0.024808338 0.2126489 0.03649979 0.15865941 0.008625842 0.029922808 0.23409228 0.01406095

encoder.3.weight f4 [2, 8]
00000000: b8a2 17be 8306 c0bd 8a79 6a3e a092 d6be
00000010: b69d a0be 64f6 61be acb7 89be d378 5b3e
00000020: 0f01 a4be 0e00 82be 539e c1be ed34 d8be
00000030: e556 98be 97dd 593e 8b69 883d 8c41 a43d
-0.14808166 -0.09376242 0.22897926 -0.4190874 -0.31370324 -0.22066647 -0.26897943 0.2143281
-0.32032058 -0.25390667 -0.37816104 -0.4222788 -0.29753795 0.21275936 0.06660756 0.080203146

encoder.3.bias f4 [2]
00000000: 3e3d c6bd 07eb 6fbd
-0.0967965 -0.05857375

encoder.4.weight f4 [2]
00000000: 0d6c 5e3f a76c 5e3f
0.8688362 0.8688454

encoder.4.bias f4 [2]
00000000: 774a 06be 34af babd
-0.13114344 -0.091154486

encoder.4.running_mean f4 [2]
00000000: 6f95 11bf 6251 3abf
-0.5686864 -0.7278043

encoder.4.running_var f4 [2]
00000000: bd40 f83d 42af 8e3f
0.12121723 1.1147234

cls.0.weight f4 [8, 2]
00000000: cb22 163d 3132 a3bf 4526 7b3e 5c36 38bf
00000010: c4da a6be 0f94 543f 8cd1 2ebe 3768 cc3e
00000020: 67a2 543f 432f a03e 7ecd dc3d af11 0ebf
00000030: aad0 633e f8a0 39bf eeb8 003f cda3 67be
0.036654275 -1.2749692 0.24526317 -0.71957946 -0.3258878 0.8303842 -0.17072123 0.3992326
0.83060306 0.31286058 0.10781382 -0.55495733 0.22247568 -0.72511244 0.5028218 -0.22621079

cls.0.bias f4 [8]
00000000: cfc4 08bf 5369 c2be 3e08 d23e d96c 493e
00000010: 080a d2be 9118 653e 218f b73e 10c8 d7bd
-0.53425306 -0.3797098 0.41021913 0.19670428 -0.41023278 0.22372653 0.35851386 -0.10536206

cls.1.weight f4 [8]
00000000: c6e1 fe3f 362a ed3f 367f 2340 f1ed a63f
00000010: 9a5e 893f 6610 0640 21c6 8f3f dd29 253f
1.991265 1.8528507 2.5546393 1.3041364 1.0731995 2.094751 1.1232339 0.64517003

cls.1.bias f4 [8]
00000000: 2db5 bf3f 4a32 993f 9f61 e03e d273 fa3c
00000010: 70f6 bcbe c812 b33f c883 5d3f baba 9bbe
1.4977165 1.1968472 0.4382448 0.030572806 -0.36906767 1.3990107 0.8652921 -0.304159

cls.1.running_mean f4 [8]
00000000: 5e96 cfbe e3db a1be e42f ac3e a882 3f3e
00000010: 8e73 0dbf dfbc 7b3e ba97 b83e 201f 1cbe
-0.4054441 -0.31613073 0.33630288 0.18702185 -0.5525445 0.24583767 0.36053258 -0.15246248

cls.1.running_var f4 [8]
00000000: feef 953f 1215 b43e 5ec9 833e 569e 773d
00000010: 6202 673f 9af1 033e e10e 253e d529 ce3d
1.1713865 0.35172325 0.25739568 0.060453735 0.9023801 0.12885132 0.16118957 0.100665726

cls.3.weight f4 [1, 8]
00000000: 79d8 6cbf 80d2 4cbf b679 b33f 9fd5 203f
00000010: 3b25 013f 0574 a4bf 9929 debe 63e2 59bd
-0.9251781 -0.800087 1.4021518 0.6282596 0.50447434 -1.2847906 -0.43391111 -0.053194415

flow.model.0.unit_jacobian f4 [500, 1]
00000000: 0000 803f 0000 803f 0000 803f 0000 803f
00000010: 0000 803f 0000 803f 0000 803f 0000 803f
00000020: 0000 803f 0000 803f 0000 803f 0000 803f
00000030: 0000 803f 0000 803f 0000 803f 0000 803f
00000040: 0000 803f 0000 803f 0000 803f 0000 803f
00000050: 0000 803f 0000 803f 0000 803f 0000 803f
00000060: 0000 803f 0000 803f 0000 803f 0000 803f
00000070: 0000 803f 0000 803f 0000 803f 0000 803f
00000080: 0000 803f 0000 803f 0000 803f 0000 803f
00000090: 0000 803f 0000 803f 0000 803f 0000 803f
000000a0: 0000 803f 0000 803f 0000 803f 0000 803f
000000b0: 0000 803f 0000 803f 0000 803f 0000 803f
000000c0: 0000 803f 0000 803f 0000 803f 0000 803f
000000d0: 0000 803f 0000 803f 0000 803f 0000 803f
000000e0: 0000 803f 0000 803f 0000 803f 0000 803f
000000f0: 0000 803f 0000 803f 0000 803f 0000 803f
00000100: 0000 803f 0000 803f 0000 803f 0000 803f
00000110: 0000 803f 0000 803f 0000 803f 0000 803f
00000120: 0000 803f 0000 803f 0000 803f 0000 803f
00000130: 0000 803f 0000 803f 0000 803f 0000 803f
00000140: 0000 803f 0000 803f 0000 803f 0000 803f
00000150: 0000 803f 0000 803f 0000 803f 0000 803f
00000160: 0000 803f 0000 803f 0000 803f 0000 803f
00000170: 0000 803f 0000 803f 0000 803f 0000 803f
00000180: 0000 803f 0000 803f 0000 803f 0000 803f
00000190: 0000 803f 0000 803f 0000 803f 0000 803f
000001a0: 0000 803f 0000 803f 0000 803f 0000 803f
000001b0: 0000 803f 0000 803f 0000 803f 0000 803f
000001c0: 0000 803f 0000 803f 0000 803f 0000 803f
000001d0: 0000 803f 0000 803f 0000 803f 0000 803f
000001e0: 0000 803f 0000 803f 0000 803f 0000 803f
000001f0: 0000 803f 0000 803f 0000 803f 0000 803f
00000200: 0000 803f 0000 803f 0000 803f 0000 803f
00000210: 0000 803f 0000 803f 0000 803f 0000 803f
00000220: 0000 803f 0000 803f 0000 803f 0000 803f
00000230: 0000 803f 0000 803f 0000 803f 0000 803f
00000240: 0000 803f 0000 803f 0000 803f 0000 803f
00000250: 0000 803f 0000 803f 0000 803f 0000 803f
00000260: 0000 803f 0000 803f 0000 803f 0000 803f
00000270: 0000 803f 0000 803f 0000 803f 0000 803f
00000280: 0000 803f 0000 803f 0000 803f 0000 803f
00000290: 0000 803f 0000 803f 0000 803f 0000 803f
000002a0: 0000 803f 0000 803f 0000 803f 0000 803f
000002b0: 0000 803f 0000 803f 0000 803f 0000 803f
000002c0: 0000 803f 0000 803f 0000 803f 0000 803f
000002d0: 0000 803f 0000 803f 0000 803f 0000 803f
000002e0: 0000 803f 0000 803f 0000 803f 0000 803f
000002f0: 0000 803f 0000 803f 0000 803f 0000 803f
00000300: 0000 803f 0000 803f 0000 803f 0000 803f
00000310: 0000 803f 0000 803f 0000 803f 0000 803f
00000320: 0000 803f 0000 803f 0000 803f 0000 803f
00000330: 0000 803f 0000 803f 0000 803f 0000 803f
00000340: 0000 803f 0000 803f 0000 803f 0000 803f
00000350: 0000 803f 0000 803f 0000 803f 0000 803f
00000360: 0000 803f 0000 803f 0000 803f 0000 803f
00000370: 0000 803f 0000 803f 0000 803f 0000 803f
00000380: 0000 803f 0000 803f 0000 803f 0000 803f
00000390: 0000 803f 0000 803f 0000 803f 0000 803f
000003a0: 0000 803f 0000 803f 0000 803f 0000 803f
000003b0: 0000 803f 0000 803f 0000 803f 0000 803f
000003c0: 0000 803f 0000 803f 0000 803f 0000 803f
000003d0: 0000 803f 0000 803f 0000 803f 0000 803f
000003e0: 0000 803f 0000 803f 0000 803f 0000 803f
000003f0: 0000 803f 0000 803f 0000 803f 0000 803f
1.0 1.0 1.0 1.0 1.0 1.0 1.0 1.0
1.0 1.0 1.0 1.0 1.0 1.0 1.0 1.0
1.0 1.0 1.0 1.0 1.0 1.0 1.0 1.0
1.0 1.0 1.0 1.0 1.0 1.0 1.0 1.0
1.0 1.0 1.0 1.0 1.0 1.0 1.0 1.0
1.0 1.0 1.0 1.0 1.0 1.0 1.0 1.0
1.0 1.0 1.0 1.0 1.0 1.0 1.0 1.0
1.0 1.0 1.0 1.0 1.0 1.0 1.0 1.0
1.0 1.0 1.0 1.0 1.0 1.0 1.0 1.0
1.0 1.0 1.0 1.0 1.0 1.0 1.0 1.0
1.0 1.0 1.0 1.0 1.0 1.0 1.0 1.0
1.0 1.0 1.0 1.0 1.0 1.0 1.0 1.0
1.0 1.0 1.0 1.0 1.0 1.0 1.0 1.0
1.0 1.0 1.0 1.0 1.0 1.0 1.0 1.0
1.0 1.0 1.0 1.0 1.0 1.0 1.0 1.0
1.0 1.0 1.0 1.0 1.0 1.0 1.0 1.0
1.0 1.0 1.0 1.0 1.0 1.0 1.0 1.0
1.0 1.0 1.0 1.0 1.0 1.0 1.0 1.0
1.0 1.0 1.0 1.0 1.0 1.0 1.0 1.0
1.0 1.0 1.0 1.0 1.0 1.0 1.0 1.0
1.0 1.0 1.0 1.0 1.0 1.0 1.0 1.0
1.0 1.0 1.0 1.0 1.0 1.0 1.0 1.0
1.0 1.0 1.0 1.0 1.0 1.0 1.0 1.0
1.0 1.0 1.0 1.0 1.0 1.0 1.0 1.0
1.0 1.0 1.0 1.0 1.0 1.0 1.0 1.0
1.0 1.0 1.0 1.0 1.0 1.0 1.0 1.0
1.0 1.0 1.0 1.0 1.0 1.0 1.0 1.0
1.0 1.0 1.0 1.0 1.0 1.0 1.0 1.0
1.0 1.0 1.0 1.0 1.0 1.0 1.0 1.0
1.0 1.0 1.0 1.0 1.0 1.0 1.0 1.0
1.0 1.0 1.0 1.0 1.0 1.0 1.0 1.0
1.0 1.0 1.0 1.0 1.0 1.0 1.0 1.0

flow.model.0.affine.params.layers.0.weight f4 [64, 1]
00000000: aa4e 403f ea8f 943e 0018 80bf ca86 3b3e
00000010: 507d 37bf 713e 57bf 5f1d 4c3f a450 2b3f
00000020: 0378 90bf fc80 8e3e 31cc 18bd c0eb 82be
00000030: fcb1 bbbe c78f f33e d2f6 2ebf 5415 713e
00000040: 16cc 183f a8af 153f 984b 013f a077 8fbf
00000050: 957d 04bf 6d7e bc3e efd4 993e 8820 26bf
00000060: 8e25 f8be 0115 843f 82ea 0a3f d291 b0be
00000070: 3088 afbe 8349 52bf 26cc e73d a16c 29bf
00000080: 32e4 23bf 9cb9 3ebe 7c9d 713d 3387 8ebe
00000090: 7191 003f ef72 04bf f19e 7f3f 20dc 0d3f
000000a0: 558b 40bf 1718 aebe 2482 343e c53a 603d
000000b0: d893 bc3e c93f 9a3e 7e0a 00bd d1a9 b6be
000000c0: e995 c33e 2d3b 5ebf 4811 2fbf 4451 c3be
000000d0: bb45 1ebf 5771 84be 943d 30bf 1694 9bbe
000000e0: 7b1c 9c3e 5770 0fbf c3e4 11be 5797 4e3f
000000f0: 9d8f 6fbe c1c4 81bd 0ba6 5ebe 75c5 aa3e
0.7512003 0.29016048 -1.0007324 0.18313137 -0.71675587 -0.84079653 0.79732317 0.6691992
-1.1286625 0.27832782 -0.037304107 -0.25570488 -0.3665923 0.4757063 -0.6834537 0.23543292
0.5968641 0.58471155 0.5050597 -1.1208382 -0.5175412 0.36815205 0.30045268 -0.6489339
-0.48466152 1.031891 0.5426408 -0.34486252 -0.3428359 -0.8214342 0.11318235 -0.6618138
-0.64020073 -0.18625492 0.05898808 -0.27837524 0.50221926 -0.51737875 0.998519 0.5541401
-0.75212604 -0.34002754 0.1762777 0.054743547 0.36831546 0.3012679 -0.031260006 -0.35676435
0.3820031 -0.86809045 -0.68385744 -0.38147938 -0.6182515 -0.2586772 -0.6884396 -0.30386418
0.3049048 -0.5603079 -0.14247422 0.80699676 -0.23394628 -0.06336356 -0.21743028 0.33353773

flow.model.0.affine.params.layers.0.bias f4 [64]
00000000: a870 0b3f acea 843f be3c 0b3f c333 853f
00000010: 1268 27be 4765 44bf f5b1 10bf 43fa 163f
00000020: e001 c8bd 6656 bbbe e199 22bf 6875 83bf
00000030: b8bb 40bf 7fb6 e4bd 201c ea3e 1ea9 d13e
00000040: f88e 5fbf b85a 083f 19fc 30bf 48eb 9abe
00000050: 9aee a0be b448 91be 607f 85bd 9e25 44bf
00000060: d579 3bbf 1bc0 85bd 3824 a0bd 3571 a5be
00000070: 4d32 923e 1815 4fbf 8562 823d 2870 783f
00000080: 9f2b a2be ff97 453f 7cc0 8a3e d5b1 4fbf
00000090: c7a2 0a3f 85a0 c6bc d767 a1be 3d23 2b3f
000000a0: 404c 2dbf da17 843c ea1a f2bd f13c 153f
000000b0: fb99 bd3e e0de b23e 2d26 863e cdea 18be
000000c0: 1f54 9abe 63a1 3bbf 17c0 e63e f8af 293f
000000d0: c4d2 173f da3d 1dbf 6aed 333e f0cc 4bbf
000000e0: 72b1 d6be f6ac fbbe 534d 803e 1a37 01bf
000000f0: 6263 e7bd f20d 49bd b2b0 0d3f f9f0 1fbf
0.54468775 1.0384116 0.5438956 1.0406421 -0.16348293 -0.76717037 -0.5652154 0.5897562
-0.09765983 -0.36589354 -0.6351605 -1.0270205 -0.75286436 -0.11167621 0.45724583 0.4094934
-0.8732753 0.53263426 -0.6913467 -0.3025763 -0.3143204 -0.2837578 -0.065184355 -0.766199
-0.73232776 -0.06530782 -0.07819408 -0.32312933 0.28554 -0.8089156 0.06366447 0.97046137
-0.31673905 0.7718505 0.2709998 -0.81130725 0.5415463 -0.024246464 -0.31524536 0.66850644
-0.67694473 0.016124655 -0.1182154 0.58296114 0.3703154 0.34935665 0.26201 -0.1493332
-0.30142304 -0.7329313 0.45068428 0.6628413 0.5930598 -0.61422503 0.17571035 -0.79609585
-0.41932255 -0.49155396 0.25058994 -0.50474703 -0.11298253 -0.049085565 0.5534774 -0.6247707

flow.model.0.affine.params.layers.1.weight f4 [64, 64]
00000000: 3337 35be c4aa 27be 82e4 5f3e a45a 0bbe
00000010: 0e4f 493e b5a0 0b3e b62f ecbd fc96 bcbd
00000020: 1414 883d e6e2 da3d 903a 803d d6e2 b83d
00000030: 2959 db3d 546c 6abe 966c 863d fd44 203c
00000040: 312d 6ebe 0c11 cdbd 7ca0 f5bb 8e94 0b3e
00000050: a5ee c13d 303a 75be d0c8 8dbd a9e3 0a3b
00000060: b707 643d 3a3f 31be 9098 e0bd 087c bd3d
00000070: f6df 6f3e 94a4 da3d 8cfe 4f3e a399 543e
00000080: c4b2 463c 25bd 0fbd 3cd3 37be e45e 1c3d
00000090: 0fc7 5ebd 579b 073e 9d16 19bd 1e8c 06be
000000a0: 0d18 bb3d ab32 483e 9983 f3bc 6d0b 4dba
000000b0: 2d30 47be ef27 b7bd ab35 e6bd 956c cf3c
000000c0: 45c4 eabd 0830 473e 9ac4 c13d c15e 29be
000000d0: 0dec ad3d 5319 06bd e61f 173e ccf2 fe3c
000000e0: 909e 5bbe 12cf 9c3c 4efe 9dbc fa07 85bd
000000f0: 2096 3f3e 44a9 3bbd 3817 08be 6c51 663d
00000100: 36f8 c0bd 5da7 e8bc 9324 003e 75dd 42be
00000110: 57b0 043d 557f 543c bb5f 83bd d421 4ebe
00000120: 913d a6bc 429f 763e efb5 4c3d 447b ef3d
00000130: 0bf9 2a3e c486 b2bd 82c3 e63b 37c4 6dbe
00000140: db0e 0b3c 1fea e2bd 07b5 4d3c 99b9 493d
00000150: 6cff 2b3e 6e39 f5bd d810 c6bd ee5f 613d
00000160: 5b97 313e 197d 53bd 0bf7 bfbd bb06 d33d
00000170: d0f4 663c a3d1 5e3e e210 1c3d ffc6 113e
00000180: e13c 493d 520f 44be 1b9d debd 729f 873d
00000190: 4e9e d1bd 6bf5 ec3d 2e61 3cbe 9bfa e1bd
000001a0: e9d1 3c3e 0202 103e 9866 ec3d 2f3c 6fbe
000001b0: 1708 1abe eab0 b3bd 9801 35be 5def 0d3e
000001c0: e992 01bc 4dee 863d 8434 bd3d 6be2 a2bd
000001d0: 40be ce3d 63fe 103e 25a6 da3d 1fb3 063d
000001e0: 332a a6bd cfef 5e3e a5b0 97bc c5dd 90bc
000001f0: 1800 dd3d bb07 95bd 0c93 44be 0ff1 e13c
00000200: ebb7 0bbe f72c 4bbd ce17 0a3d f132 86be
00000210: 6fa4 563d a794 073e d0d3 293e 7035 963d
00000220: 02ac c33d de52 b83d 4793 063e ce2d 8e3e
00000230: 70c1 6c3e 3264 29bd 01f1 543d 15f2 0f3c
00000240: 956c 333e 9ddf e6bd ff5c 103e a3c2 0bbd
00000250: d2e7 f93d d189 883c 6a2a c73d afa0 853d
00000260: 5851 553e f411 edbc 861a 8f3d 14f2 41bd
00000270: 3f67 6fbd e032 42bd 0828 02be 4dfc 38be
00000280: 3dc3 f33d 9f65 c4bd b09c 4dbd 9f1c 883e
00000290: b969 1cbe b3e2 a5bd d498 4c3c 442e ffbd
000002a0: a724 ff3d 4ee2 f5bd 2b79 413d 4786 97be
000002b0: 3c38 eebd 04a0 6c3d e713 96bd 104d da3d
000002c0: a17a 083e 5e77 153e 19cb bbbd c337 8fbd
000002d0: bccf 033d b89d 513e 8210 e33d beb2 713e
000002e0: fd89 483e 523f 01bc c289 c1bd e899 8e3d
000002f0: c995 ccbb 8fe1 62be b2f4 64be d306 113d
00000300: 5b2d f0bd 93c5 2f3c f029 063d 8ea4 f6bd
00000310: 85d6 4a3e 81b0 933e 58cf 15bd 4a41 88be
00000320: 683b 4c3e b0fe d03c 84c3 7bbd 6e0b 403e
00000330: 2dc7 6c3e 3c02 d5bd feb6 e63d 710a 76be
00000340: 4b53 35bd 1f93 d3bd b4ed a4bc efe7 c93c
00000350: 6a14 1d3e 03e5 a6bd 0f7c a7bd dbbe 6e3e
00000360: 423e 983e b555 86bd 423d 1dbe a9d2 593e
00000370: f569 c33d fc17 8d3e 201d 59be 76db be3b
00000380: ac32 c53d 5092 55bd a9a8 03bd a2bb dd3c
00000390: 8677 2dbe 2697 4e3e 7cfd 49bd 9a21 9cbe
000003a0: 35b6 263e 6d56 c13d a7a2 03be 0362 bb3c
000003b0: 8e66 aabe 07fd abbe 7ae9 0bbe e509 223e
000003c0: f191 1d3d 7b64 b33d 791d 163e ed3d f8bc
000003d0: c11f 903d 0f27 273e c7d6 3cbd 8560 663e
000003e0: 86a5 2d3d 664e a93e 4619 a13d 74b9 01be
000003f0: d225 683e 2edc bf3d 3f06 8d3d 628a f1bd
-0.17696838 -0.16373736 0.21864513 -0.13608795 0.19659063 0.13635524 -0.11532538 -0.092084855
0.066444546 0.10687809 0.0626117 0.090276405 0.10710365 -0.22892886 0.0656368 0.009782073
-0.23259427 -0.10013017 -0.007495938 0.13630888 0.09469346 -0.23947978 -0.069230676 0.0021192825
0.05567142 -0.17309275 -0.10966599 0.09252173 0.23425278 0.10675922 0.20311946 0.20761733
0.012127582 -0.03509249 -0.17951673 0.038176432 -0.054389056 0.13242851 -0.03737508 -0.13139388
0.09135447 0.19550578 -0.029725837 -0.0007821832 -0.19451971 -0.089431636 -0.11240705 0.02532033
-0.11463217 0.19451916 0.09461327 -0.16540052 0.08492289 -0.032738995 0.14758262 0.031121634
-0.21447206 0.019141708 -0.019286301 -0.06495662 0.18709612 -0.04581572 -0.13290107 0.056229994
-0.094223425 -0.028400118 0.12513952 -0.19029792 0.032394733 0.012969811 -0.064147435 -0.20130092
-0.020293029 0.2408419 0.049978193 0.11693433 0.16696565 -0.08717111 0.0070423493 -0.23219381
0.008487429 -0.11079811 0.012555367 0.049249265 0.16796654 -0.119738445 -0.096711814 0.055023126
0.17342894 -0.051632974 -0.093732916 0.10304018 0.014096454 0.21759658 0.03810204 0.14236067
0.049130324 -0.19146469 -0.10869809 0.06622209 -0.10235272 0.11570247 -0.18396446 -0.11034127
0.1843945 0.14063266 0.11543006 -0.23362802 -0.15042149 -0.08773978 -0.17676389 0.13860841
-0.007908561 0.06588421 0.09238532 -0.07953342 0.10094881 0.14159541 0.10676221 0.032885667
-0.081135176 0.21771167 -0.018516848 -0.017683873 0.107910335 -0.07276865 -0.19196719 0.027580766
-0.13644378 -0.04960343 0.03371411 -0.2621074 0.05240291 0.132403 0.16584706 0.07334411
0.09554292 0.09000181 0.1314212 0.2776932 0.23120666 -0.04135532 0.05198765 0.008785744
0.1752189 -0.112731196 0.14097975 -0.034121167 0.12202419 0.016667278 0.09724887 0.065247886
0.20831811 -0.028939225 0.06987481 -0.047350004 -0.058448073 -0.0474118 -0.12710583 -0.18064995
0.11902473 -0.09589695 -0.050198257 0.26584336 -0.15274705 -0.0809988 0.012487609 -0.12459996
0.12458163 -0.12006055 0.047234695 -0.29594633 -0.116318196 0.05776979 -0.07328015 0.1065923
0.13328029 0.14596316 -0.09169597 -0.069930576 0.032180533 0.20470321 0.11087133 0.23603341
0.19583888 -0.007888632 -0.09450103 0.06962949 -0.0062434417 -0.22156356 -0.22358969 0.0354069
-0.11727401 0.010728258 0.03275484 -0.12043105 0.19808395 0.288456 -0.03657469 -0.26612312
0.19944537 0.02551207 -0.061465755 0.1875436 0.23122855 -0.10400817 0.11265372 -0.2402742
-0.044268887 -0.103307955 -0.020132877 0.024646727 0.15339819 -0.08149149 -0.08177959 0.23314993
0.29735 -0.06559316 -0.15355399 0.21271767 0.09541694 0.2755736 -0.21202517 0.0058245016
0.096288055 -0.052141488 -0.03214327 0.02706701 -0.16940126 0.20174846 -0.049314007 -0.30494386
0.16280444 0.094403125 -0.12855016 0.022873884 -0.33281368 -0.33591482 -0.13663283 0.15824087
0.03846926 0.087593995 0.1465968 -0.030302966 0.070373066 0.16323493 -0.046103265 0.22497757
0.042394184 0.33067626 0.07866149 -0.12668401 0.22670677 0.09368168 0.06885957 -0.117939726

flow.model.0.affine.params.layers.1.bias f4 [64]
00000000: 7012 9bbd 3806 debd 0a2f 8cbe f88c 63bd
00000010: 03c8 403d 8cfa 0cbe 0a8f 23be 26ed 5fbe
00000020: e4e5 1ebd eaf0 883e 7636 4bbe 4329 dbbd
00000030: bd7e d8bc 1fc2 40be ed05 c2bd acc7 08bd
00000040: 7543 debd fd94 9cbd cd8f 26bd c432 54be
00000050: 14dc eb39 9d72 03be 496b 8ebd 0151 f33d
00000060: 742a d7bd c8f3 9ebd 41da 563e 3eef 86bc
00000070: 4e68 58be 0729 abbd ad15 53be 32e5 6ebd
00000080: 8ff2 18bd 71d9 54be 4daf 2ebe b5a5 98bb
00000090: 4f20 0bbc 867a c0bd dae2 ab3d 5b02 e8bd
000000a0: 3b2a 73be 519d d9bd 5cd9 06bd 6f20 66bd
000000b0: 008a 8dbe 73ad 57be 82e1 ea3b d3b8 49bd
000000c0: e373 b33c 8a19 f8bd 39f5 02be 6bab 5abd
000000d0: 076c 88bd 3716 85be 69f8 8dbd d99b c33c
000000e0: 2608 39be e7c6 d0bc 5d1d b2bd 10b6 7bbe
000000f0: 826d 58be 270d dd3d a810 56be 65cb 703c
-0.07571876 -0.1084103 -0.27379638 -0.05555436 0.047065746 -0.13767451 -0.15972534 -0.21867809
-0.03879346 0.26746303 -0.19844994 -0.107012294 -0.026427621 -0.18824051 -0.094737865 -0.033393547
-0.1085271 -0.07645605 -0.040664483 -0.2072249 0.00044986664 -0.1283669 -0.06954057 0.11880685
-0.10506144 -0.07761341 0.20981695 -0.016471501 -0.21133539 -0.08357435 -0.20613737 -0.058324046
-0.037340697 -0.20786072 -0.1705906 -0.0046584257 -0.00849159 -0.093983695 0.08392878 -0.11328574
-0.23746578 -0.10625709 -0.032922134 -0.056183275 -0.27644348 -0.2106226 0.007167996 -0.049248528
0.021905845 -0.12114246 -0.12788858 -0.053386133 -0.066612296 -0.2599351 -0.06932146 0.023878025
-0.18069515 -0.025485469 -0.08697007 -0.2458117 -0.21135524 0.10793524 -0.20904791 0.014696931

flow.model.0.affine.params.layers.3.weight f4 [64, 64]
00000000: 6d93 a5bd 6c48 c63d 882c e9bc b869 8ebc
00000010: 6515 97bd e43c 18bd e486 2ebd 3621 fbbd
00000020: 56db c03d 763d 003c 8c8c 6abe 4866 29bd
00000030: 70a4 4cbe 78d5 4fbd dc51 1cbc bb55 1dbd
00000040: 90e8 1ebc 14ad 5a3d 70e7 183d 5cce 8b3d
00000050: c0b8 cdbd 4c43 1e3d b274 f2bd 2802 40be
00000060: 3781 1bbe 1089 47bc 779f 64be 40e0 4b3b
00000070: 007d a33c ec89 1ebe a011 263d e2b2 df3d
00000080: 08ea aebc 1257 88bd a6c5 e2bd c349 49be
00000090: 2497 8dbd 1441 bdbd 004b 49bd 8940 15bd
000000a0: 5437 203d 2cbd e63d 4368 9a3c ec5f 38bd
000000b0: 4c82 48bd 1821 8c3c 5cc0 51be 463e 8b3d
000000c0: 8edd 02be 305b d6bd 32ee 4bbe c866 b0bd
000000d0: 6cb9 0c3d f63d c43d 12d1 ca3d a303 0fbe
000000e0: fab2 94bd 543e 63bd eae0 aebd 3401 04bd
000000f0: 5434 e7bd dfa6 1dbd 2cf2 f0bd f83e 9fbd
00000100: 7e20 eebb fb0b 66be ca89 193e ecdc 093f
00000110: a223 0d3f d2bf 58ba 4563 ffbd 7474 22bd
00000120: e02d 87bb 41c8 663c c7d9 b9bd afa9 173e
00000130: 692c 353f 9224 a1bd d4e4 00bd 3b63 94bd
00000140: 1f0b e93d 0d62 1ebd 1107 cfbd 95a9 f839
00000150: 943f 0dbd 9b2f 16be 2959 5c3d 205d 2fbd
00000160: de55 86bd 6155 8fbd 3110 1abe 2d59 97bb
00000170: 490a e03e c25d 9bbd 4588 15bd e5a3 4dbe
00000180: c269 543e 416f 273e a2ed a13d cddb 1fbd
00000190: e404 febd e0dc f5bb da9e f73d 10d3 a339
000001a0: d017 39be f259 f1bc 8130 083d d1ef eabd
000001b0: 7f22 ca3d a5c1 133e 3063 eebd cb71 f7bc
000001c0: 0ba4 80be 20b9 1b3e f1af bdbd e62e 78bd
000001d0: 79fd 38bd e7bd d43d 7e64 44be 6d02 28be
000001e0: e3c5 0e3e bd14 cd3e 18d0 a9bd 2778 eabd
000001f0: 61e7 0fbe b644 9cbd 48cc 59be b87e 79bb
00000200: d5d7 09be 4094 07bd 2caf 5b3e d0a3 083e
00000210: 97d2 a4bd 4047 43be 200b fabc e6d5 953d
00000220: 08d4 a0bc f3d7 2c3e c623 02be 0aad b7bc
00000230: 3756 8cbd 3332 edbc d451 6fbe 834e df3a
00000240: aba8 2a3e fd32 393e 24b3 bcbd 8093 1bbd
00000250: 2e61 1cbb addf 05be 07ff 63be dbd3 adbb
00000260: a5f6 15be d778 743d e8b3 30bd 3124 4ebd
00000270: f819 0c3e 9d00 03be 86f6 c43d bb62 b3bb
00000280: 2df0 483e 14f3 3abd 71af 24bd 91f5 3dbe
00000290: f37b c0bd 8476 ddbd 10bb 943d 4ad8 79be
000002a0: 2dbb 9ebb d0d5 37bc 6d24 30bd 4240 dbbd
000002b0: 9384 f63d d337 cdbd 6369 2bbe 4fd5 21be
000002c0: 9622 51be 5e3a 1abe fdba 49be 3b34 efbd
000002d0: b3e1 b0bc 1aa2 d3bd 0718 70bd 042d 5abe
000002e0: 86dd 8b3d 98fe 133e a3e3 c9bd feff 8fbc
000002f0: eab4 f53d 5eaa 2bbe b20f 8c3d 4661 fd3d
00000300: c6a5 e8bd 2686 adbd e410 5bbd d21a 7bbd
00000310: 926a 38be 2022 92bd 3169 f43d ec7d 9d3e
00000320: 6060 20bd 7034 84be 7d9e 95bd f4a4 4e3d
00000330: a807 a9bb 795a f2bc 5346 02be 142f 7fbd
00000340: 08f6 e4bc 0c87 ca3d 738f 2ebd 68a4 993d
00000350: 380c 8e3c 34ec 0e3c 6024 e4bd 0972 e6be
00000360: 23fc 3ebd b08b d03d 6eda 15bf f84c f9bd
00000370: 121a 26be fdd3 aebd 2aef 2cbc d268 0d3c
00000380: f681 d53d 2219 ecbd 388c 7f3d ecc2 9b3d
00000390: 7e0c 73bc 02a7 9fbd e001 833b dc82 b6bb
000003a0: 4949 9c3d 22b3 93bc d278 85bd 44f4 59bd
000003b0: 589b f7bd a4d1 333d da79 2fbf 30f7 75bd
000003c0: 0e5d 06bf f859 c53d 02eb bb3d 943e 23be
000003d0: 8931 0b3e e851 e53d cdfd b23d f986 2dbc
000003e0: f89a cd3d 8263 363d da98 87bd 6bdf 4abd
000003f0: 4c06 ba3c 56ef 3fbf fd3c 3abc 7f07 b23d
-0.0808476 0.09681782 -0.028463617 -0.017384395 -0.073771276 -0.037167445 -0.04260911 -0.12262194
0.09416835 0.007827153 -0.22905177 -0.04135731 -0.19984603 -0.05074069 -0.009541001 -0.038411837
-0.009699002 0.053387716 0.03733009 0.06826469 -0.10045004 0.038638398 -0.11838664 -0.18750823
-0.1518601 -0.012178674 -0.22326456 0.0031109005 0.019957066 -0.154823 0.040544152 0.10922791
-0.02135183 -0.06657232 -0.11072855 -0.19657044 -0.069135934 -0.09240928 -0.04914379 -0.0364385
0.039115265 0.112665504 0.018848544 -0.045013353 -0.048952386 0.017105624 -0.20483536 0.06798987
-0.12779829 -0.104666114 -0.19915083 -0.08613354 0.03435652 0.095821306 0.09903158 -0.13966231
-0.072606996 -0.055479363 -0.08538993 -0.03222771 -0.11289278 -0.03848922 -0.117649406 -0.07775682
-0.007267057 -0.22465508 0.14993969 0.53852725 0.55132496 -0.00082683295 -0.12470106 -0.03966184
-0.004125342 0.01408583 -0.09074741 0.14810823 0.7077089 -0.07868303 -0.031468228 -0.07245489
0.11379074 -0.038667727 -0.1010877 0.00047428595 -0.03448446 -0.14666598 0.053795967 -0.04281342
-0.065593466 -0.069987066 -0.15045239 -0.004618785 0.43757847 -0.07586242 -0.03650691 -0.20082052
0.20743468 0.16351034 0.07906653 -0.039027978 -0.124032766 -0.007503137 0.120908454 0.00031247037
-0.1807549 -0.029461835 0.033249382 -0.114715226 0.09869861 0.14429338 -0.11640012 -0.030205628
-0.25125155 0.15207338 -0.09262074 -0.0605916 -0.045163605 0.103877835 -0.1917896 -0.16407175
0.13942675 0.40054885 -0.08291644 -0.114486985 -0.14053108 -0.07630293 -0.21269333 -0.0038069915
-0.1346124 -0.033100367 0.21453542 0.1334374 -0.08047979 -0.19070148 -0.030522883 0.073161885
-0.019632354 0.16879253 -0.12708959 -0.022421379 -0.06852382 -0.0289546 -0.23371059 0.0017036948
0.16665904 0.18085857 -0.09213856 -0.037982464 -0.0023861635 -0.13073607 -0.22265254 -0.005304796
-0.14644869 0.059685554 -0.043140322 -0.050327484 0.13681781 -0.12793203 0.09617333 -0.005474416
0.1962287 -0.045641974 -0.040206376 -0.18550707 -0.093986414 -0.10813621 0.07262242 -0.24398914
-0.0048440904 -0.0112204105 -0.04300349 -0.107056156 0.12037005 -0.10020413 -0.1673942 -0.15804027
-0.2042335 -0.15061328 -0.19700237 -0.11679884 -0.021591997 -0.10333653 -0.058616664 -0.21306235
0.068293616 0.14452589 -0.098578714 -0.017578121 0.11997397 -0.16764209 0.06838931 0.12372069
-0.11359744 -0.084728524 -0.053482905 -0.061304875 -0.18009403 -0.07135415 0.11934126 0.30760133
-0.03915441 -0.25821257 -0.0730562 0.05045028 -0.0051583834 -0.029584156 -0.12722139 -0.062300757
-0.027949348 0.098890394 -0.042617273 0.07502061 0.01733981 0.008723307 -0.111397505 -0.45008877
-0.046627175 0.10182893 -0.5853642 -0.12172884 -0.16220883 -0.08536527 -0.010555068 0.008630948
0.10425179 -0.11528231 0.062389582 0.07605538 -0.014834521 -0.07795526 0.0039980263 -0.005569799
0.076311655 -0.018029753 -0.06517185 -0.053211465 -0.12090176 0.0439011 -0.68545306 -0.06005019
-0.5248574 0.09636301 0.091756836 -0.1594184 0.13593115 0.11197263 0.08739815 -0.010591262
0.100393236 0.04452849 -0.06620951 -0.049529474 0.02270808 -0.7497457 -0.01136708 0.08692836

flow.model.0.affine.params.layers.3.bias f4 [64]
00000000: 5855 ffbd 73d2 babb ea86 1abe 4ffd 1cbd
00000010: 43bc 89be 1210 1cbe 4ee7 4dbe 1937 6c3e
00000020: a889 31be 8dae b8bd f090 43bd ab5b 83bd
00000030: 0f5f cfbd f8b4 13be 1537 13be bf6e 44bd
00000040: 3470 09be a583 96bd 4a45 1f3e aeaf 333e
00000050: 5e50 563d 9960 32be 1545 3abe f423 043e
00000060: de4d efbd f43c fe3c c40b dcbb 333a 19be
00000070: 95c9 8bbd 9bf6 a23c 098c 08be a770 c33a
00000080: 496e 3bbe f288 1ebe cc26 5bbe e0c4 07bd
00000090: 7b23 cfba c472 993c 198f ff3d 4dfd 3bbe
000000a0: 25e3 203e 4317 4e3d ed56 023c 2aef b8bd
000000b0: 06fd b8bc 9f68 d4bd 9393 c1bd c5fc e6bd
000000c0: 0014 1a3e 8361 3ebe ce4c 003d 7a09 6fbe
000000d0: 7948 19be c3df 27be c775 34be ea10 83bd
000000e0: 9621 3fbd 59df 423e de28 183e cfb8 323e
000000f0: b3ca 34bd 8c6b 603d db7e 13be 799b 85bd
-0.1246745 -0.005701357 -0.15090528 -0.03832751 -0.26901445 -0.15240505 -0.20107767 0.23067893
-0.17337668 -0.09017668 -0.047745645 -0.06413969 -0.10125553 -0.14424503 -0.14376481 -0.04795718
-0.13421708 -0.07349328 0.15553775 0.17547485 0.052322738 -0.17419662 -0.18190415 0.1290434
-0.11684774 0.031034924 -0.0067152698 -0.14963607 -0.06825558 0.019892981 -0.13334669 0.0014910892
-0.18303789 -0.15481928 -0.21401519 -0.03314674 -0.0015803421 0.018731482 0.124784656 -0.18358345
0.15711649 0.050315153 0.007955295 -0.09029992 -0.022581588 -0.103715174 -0.09451976 -0.11278681
0.15046692 -0.18591885 0.031323247 -0.23343459 -0.14969052 -0.16393952 -0.17623053 -0.063997105
-0.04666289 0.19030513 0.1485934 0.17453311 -0.04413862 0.054790065 -0.1440386 -0.06523795

flow.model.0.affine.params.layers.5.weight f4 [2, 64]
00000000: 9fcb dbbc 5281 fcbb dcde f4bd 4dc0 07bc
00000010: b9ff d93c 3944 54bd 9d7b 55bc 7c78 533e
00000020: 78ce fbbc 6665 e73b e16d 69be fc7f 60bd
00000030: bdee 95bd d5d1 5ebd 801d 8cbd 92f0 66bd
00000040: 4b85 50bd 5aba 4fbd 3264 7abe 84e9 82be
00000050: 0539 37bd 1e1d 1abc 6731 1dbe 6c42 883e
00000060: 7bff 1d3e 6c0c e9bc 8d7f cfbd e81b 90bd
00000070: 3bd5 31bd 1a92 46be a0e2 83bd 5d05 3cbe
00000080: 2f39 1bbd 4236 0c3e b8c7 1ebe d29c ee3c
00000090: 2270 e73c 21b4 1fbe 56dd a73d 667f 62bd
000000a0: 6cf4 2bbe 5c2b 9abd 100f db3d c93d 0c3e
000000b0: 11a1 3f3c 20c0 c6bc 91c1 45bd fb99 acbc
000000c0: b9da 423e 1ecc 3cbe 6f8c dfbc 9230 85bd
000000d0: 22bf 5dbd e9e8 19be dcd1 dabb 39f2 57be
000000e0: 62d1 303d 136e 6cbd c97f df3a 2e1b e5bd
000000f0: db91 16be 9a79 73be d1af ecbb 155c a9bc
00000100: 748b 20be aa67 b2bc b155 4a3d 3ec2 5e3e
00000110: ea6f 22bd 4c3e 33bd b4cf 883d a0cb c5bd
00000120: f18f 0bbe f0bd 2d3e e2bd 983c 7cce 66bd
00000130: b090 b9bd 24bd db3d 837b 01bd 3ffe 7bba
00000140: dbd3 cebd 8f0c 4a3e d593 05be 084d c7bd
00000150: 906a 5cbe 086f 89bd 536d 8b3d 4130 e3bd
00000160: 9104 94bc 3db6 f6bd 2032 54bd cafe 7ebc
00000170: 5854 0b3d 5120 00be 7ffb d73c e972 b7bd
00000180: 7b5f 96ba 7c5e 2c3b f678 0f3b 9878 98bd
00000190: 5c30 52bd 5b02 bc3c 1cd0 cc3d ecb3 153c
000001a0: f600 12be 4dd9 2ebe 7a72 7e3e d91f 183d
000001b0: 1fd3 933d baeb acbd 6db6 f83d 5373 013e
000001c0: 1f59 483e 671c bbbd aa99 f23c 6225 a03d
000001d0: 7aa8 313e 9ff9 77bd 94e3 45bc 10c1 303c
000001e0: 786f bfbd 37e8 20be 754e 24be 8ccf 00be
000001f0: 1aac 6d3d 06e6 f9bd bcf6 6dbd 5f0e 0f3e
-0.026830493 -0.007705846 -0.119565696 -0.008285594 0.026611196 -0.051822875 -0.01302996 0.2065143
-0.0307381 0.007061648 -0.22795822 -0.054809555 -0.07320926 -0.05439933 -0.06841564 -0.05638177
-0.050908368 -0.050714828 -0.24452284 -0.25568783 -0.044732112 -0.009406356 -0.15350877 0.26613176
0.1542949 -0.028448306 -0.1013175 -0.07036573 -0.043416243 -0.19391671 -0.0643971 -0.18361421
-0.03789633 0.13692573 -0.15505874 0.029127512 0.028251711 -0.15596057 0.08196513 -0.055297278
-0.16792458 -0.075278014 0.10696232 0.13695444 0.011696116 -0.024261534 -0.048280302 -0.021069517
0.19028749 -0.1843724 -0.027288644 -0.06503405 -0.054137357 -0.15030254 -0.006677849 -0.21088494
0.043168433 -0.057722162 0.0017051633 -0.11186825 -0.14704077 -0.23776856 -0.0072231074 -0.020673791
-0.15678197 -0.021777947 0.049398128 0.21753785 -0.03965751 -0.043760583 0.06680241 -0.09657979
-0.13629128 0.16966987 0.01864523 -0.056349263 -0.090608 0.10729435 -0.03161193 -0.0009612776
-0.10099002 0.19731353 -0.13044675 -0.097314894 -0.21525025 -0.06710631 0.06807961 -0.11093188
-0.018068584 -0.12046478 -0.051805615 -0.015563676 0.034015983 -0.12512328 0.02636504 -0.08957464
-0.0011472547 0.0026301434 0.0021892167 -0.074448764 -0.05131565 0.022950342 0.10000631 0.009137135
-0.14258179 -0.17075081 0.24848357 0.037139747 0.072180025 -0.08443399 0.1214417 0.12641649
0.19565247 -0.09136277 0.029614288 0.0781963 0.17349425 -0.06054079 -0.012078185 0.010788217
-0.09347433 -0.15713583 -0.16045554 -0.12579173 0.058025457 -0.122020766 -0.058096632 0.13970326

flow.model.0.affine.params.layers.5.bias f4 [2]
00000000: 5dbb 19be be91 a7bc
-0.1501288 -0.020455237

flow.model.1.unit_jacobian f4 [500, 1]
00000000: 0000 803f 0000 803f 0000 803f 0000 803f
00000010: 0000 803f 0000 803f 0000 803f 0000 803f
00000020: 0000 803f 0000 803f 0000 803f 0000 803f
00000030: 0000 803f 0000 803f 0000 803f 0000 803f
00000040: 0000 803f 0000 803f 0000 803f 0000 803f
00000050: 0000 803f 0000 803f 0000 803f 0000 803f
00000060: 0000 803f 0000 803f 0000 803f 0000 803f
00000070: 0000 803f 0000 803f 0000 803f 0000 803f
00000080: 0000 803f 0000 803f 0000 803f 0000 803f
00000090: 0000 803f 0000 803f 0000 803f 0000 803f
000000a0: 0000 803f 0000 803f 0000 803f 0000 803f
000000b0: 0000 803f 0000 803f 0000 803f 0000 803f
000000c0: 0000 803f 0000 803f 0000 803f 0000 803f
000000d0: 0000 803f 0000 803f 0000 803f 0000 803f
000000e0: 0000 803f 0000 803f 0000 803f 0000 803f
000000f0: 0000 803f 0000 803f 0000 803f 0000 803f
00000100: 0000 803f 0000 803f 0000 803f 0000 803f
00000110: 0000 803f 0000 803f 0000 803f 0000 803f
00000120: 0000 803f 0000 803f 0000 803f 0000 803f
00000130: 0000 803f 0000 803f 0000 803f 0000 803f
00000140: 0000 803f 0000 803f 0000 803f 0000 803f
00000150: 0000 803f 0000 803f 0000 803f 0000 803f
00000160: 0000 803f 0000 803f 0000 803f 0000 803f
00000170: 0000 803f 0000 803f 0000 803f 0000 803f
00000180: 0000 803f 0000 803f 0000 803f 0000 803f
00000190: 0000 803f 0000 803f 0000 803f 0000 803f
000001a0: 0000 803f 0000 803f 0000 803f 0000 803f
000001b0: 0000 803f 0000 803f 0000 803f 0000 803f
000001c0: 0000 803f 0000 803f 0000 803f 0000 803f
000001d0: 0000 803f 0000 803f 0000 803f 0000 803f
000001e0: 0000 803f 0000 803f 0000 803f 0000 803f
000001f0: 0000 803f 0000 803f 0000 803f 0000 803f
00000200: 0000 803f 0000 803f 0000 803f 0000 803f
00000210: 0000 803f 0000 803f 0000 803f 0000 803f
00000220: 0000 803f 0000 803f 0000 803f 0000 803f
00000230: 0000 803f 0000 803f 0000 803f 0000 803f
00000240: 0000 803f 0000 803f 0000 803f 0000 803f
00000250: 0000 803f 0000 803f 0000 803f 0000 803f
00000260: 0000 803f 0000 803f 0000 803f 0000 803f
00000270: 0000 803f 0000 803f 0000 803f 0000 803f
00000280: 0000 803f 0000 803f 0000 803f 0000 803f
00000290: 0000 803f 0000 803f 0000 803f 0000 803f
000002a0: 0000 803f 0000 803f 0000 803f 0000 803f
000002b0: 0000 803f 0000 803f 0000 803f 0000 803f
000002c0: 0000 803f 0000 803f 0000 803f 0000 803f
000002d0: 0000 803f 0000 803f 0000 803f 0000 803f
000002e0: 0000 803f 0000 803f 0000 803f 0000 803f
000002f0: 0000 803f 0000 803f 0000 803f 0000 803f
00000300: 0000 803f 0000 803f 0000 803f 0000 803f
00000310: 0000 803f 0000 803f 0000 803f 0000 803f
00000320: 0000 803f 0000 803f 0000 803f 0000 803f
00000330: 0000 803f 0000 803f 0000 803f 0000 803f
00000340: 0000 803f 0000 803f 0000 803f 0000 803f
00000350: 0000 803f 0000 803f 0000 803f 0000 803f
00000360: 0000 803f 0000 803f 0000 803f 0000 803f
00000370: 0000 803f 0000 803f 0000 803f 0000 803f
00000380: 0000 803f 0000 803f 0000 803f 0000 803f
00000390: 0000 803f 0000 803f 0000 803f 0000 803f
000003a0: 0000 803f 0000 803f 0000 803f 0000 803f
000003b0: 0000 803f 0000 803f 0000 803f 0000 803f
000003c0: 0000 803f 0000 803f 0000 803f 0000 803f
000003d0: 0000 803f 0000 803f 0000 803f 0000 803f
000003e0: 0000 803f 0000 803f 0000 803f 0000 803f
000003f0: 0000 803f 0000 803f 0000 803f 0000 803f
1.0 1.0 1.0 1.0 1.0 1.0 1.0 1.0
1.0 1.0 1.0 1.0 1.0 1.0 1.0 1.0
1.0 1.0 1.0 1.0 1.0 1.0 1.0 1.0
1.0 1.0 1.0 1.0 1.0 1.0 1.0 1.0
1.0 1.0 1.0 1.0 1.0 1.0 1.0 1.0
1.0 1.0 1.0 1.0 1.0 1.0 1.0 1.0
1.0 1.0 1.0 1.0 1.0 1.0 1.0 1.0
1.0 1.0 1.0 1.0 1.0 1.0 1.0 1.0
1.0 1.0 1.0 1.0 1.0 1.0 1.0 1.0
1.0 1.0 1.0 1.0 1.0 1.0 1.0 1.0
1.0 1.0 1.0 1.0 1.0 1.0 1.0 1.0
1.0 1.0 1.0 1.0 1.0 1.0 1.0 1.0
1.0 1.0 1.0 1.0 1.0 1.0 1.0 1.0
1.0 1.0 1.0 1.0 1.0 1.0 1.0 1.0
1.0 1.0 1.0 1.0 1.0 1.0 1.0 1.0
1.0 1.0 1.0 1.0 1.0 1.0 1.0 1.0
1.0 1.0 1.0 1.0 1.0 1.0 1.0 1.0
1.0 1.0 1.0 1.0 1.0 1.0 1.0 1.0
1.0 1.0 1.0 1.0 1.0 1.0 1.0 1.0
1.0 1.0 1.0 1.0 1.0 1.0 1.0 1.0
1.0 1.0 1.0 1.0 1.0 1.0 1.0 1.0
1.0 1.0 1.0 1.0 1.0 1.0 1.0 1.0
1.0 1.0 1.0 1.0 1.0 1.0 1.0 1.0
1.0 1.0 1.0 1.0 1.0 1.0 1.0 1.0
1.0 1.0 1.0 1.0 1.0 1.0 1.0 1.0
1.0 1.0 1.0 1.0 1.0 1.0 1.0 1.0
1.0 1.0 1.0 1.0 1.0 1.0 1.0 1.0
1.0 1.0 1.0 1.0 1.0 1.0 1.0 1.0
1.0 1.0 1.0 1.0 1.0 1.0 1.0 1.0
1.0 1.0 1.0 1.0 1.0 1.0 1.0 1.0
1.0 1.0 1.0 1.0 1.0 1.0 1.0 1.0
1.0 1.0 1.0 1.0 1.0 1.0 1.0 1.0

flow.model.1.affine.params.layers.0.weight f4 [64, 1]
00000000: 8928 393e 959d 053e f306 973e b1ba 26bf
00000010: 1894 6dbc 11db 643f 316c 473f 8ef6 f13e
00000020: 7601 17bc af5e 6d3e 9dc4 473f 5ec0 873e
00000030: 8ec1 d63e 28d4 d43e 6f65 9d3e 61b1 ad3e
00000040: 8aed 09bf 59af 49bf 7180 8abf 0151 313f
00000050: caa9 d9be 13a0 60bf 9e3e 603e c4c8 cfbd
00000060: 36e0 3e3e 190f 2ebe bcff 2e3f 496c 5bbf
00000070: 8df0 64bf bd29 453f 6f6b 06bf f594 1d3e
00000080: b93f e93e 081e d33c f61e 00bf 2052 babc
00000090: fc44 10bf fd49 6f3f 729c bd3c 6590 213f
000000a0: b16b 563f d142 ab3e 4c19 863e fea1 f23e
000000b0: 428c 3abf a56f 583f 509e abbd 0a82 2e3f
000000c0: 0c81 21be 4bf8 0d3f b8b3 253f b995 ca3d
000000d0: 7580 80bd 52ac 8d3e f084 5dbf cba0 3bbc
000000e0: 1a9f e5bd 5567 5bbf 937f 333d 2c6f cf3d
000000f0: 5c13 88bf 7f1a 303f 474f f33e 1645 653f
0.18081869 0.13048394 0.2949749 -0.6512862 -0.01450064 0.8939677 0.7789946 0.4725842
-0.009216657 0.2318065 0.78034383 0.26513952 0.41944546 0.41568112 0.3074145 0.33924392
-0.5387808 -0.78783184 -1.0820447 0.6926423 -0.4251235 -0.87744254 0.21898887 -0.10145715
0.18640217 -0.16997947 0.6835897 -0.85712105 -0.8942955 0.7701681 -0.5250768 0.15388854
0.4555643 0.025771156 -0.5004724 -0.022744238 -0.5635526 0.9347227 0.023145888 0.63110954
0.83758074 0.33449414 0.26191175 0.47389215 -0.72870266 0.84545356 -0.08379805 0.68167174
-0.15771884 0.5545699 0.64727354 0.098918386 -0.06274501 0.27670532 -0.8653097 -0.01145191
-0.11211987 -0.8570455 0.043822836 0.10128626 -1.0630908 0.6879043 0.4752142 0.8955854

flow.model.1.affine.params.layers.0.bias f4 [64]
00000000: 20ec 98be 571e 1ebf deeb 043f a90d 4f3f
00000010: c1bd fbbe 6a38 e9be f402 6b3d 5a58 423f
00000020: 1968 c0bc a9a0 53bf c4ab 90be c957 f6be
00000030: d7ab 293f d193 52bf 34c3 273f 9940 783e
00000040: 6551 f53a 7a7f f5bd 3928 ec3e c049 28bf
00000050: 821d 97be 8a8c 4a3f e24d 97be 6f4e 453e
00000060: 5397 383f c870 31bf e1fa 973d f073 f33d
00000070: d453 c5be 631b 2d3f 6df9 183f 6970 20be
00000080: 3560 86bc 1f1e 083f ac7d 4cbe 8a30 f33e
00000090: 1570 13bf b4b6 30bf 8758 093f 0e0e 0d3f
000000a0: 17ac 2fbf 13eb 9fbe 43d1 aa3e f1e4 e23e
000000b0: 4033 013f bdbe 4a3f 3e2d a7be 92b6 f93d
000000c0: 8156 3a3f 8883 30bf a27a 043f fab9 253e
000000d0: 501b 0a3e da44 663f 3783 91be 89a5 13be
000000e0: 59a8 1cbf eef6 353f 8eca 23bf 3f5d 433f
000000f0: 60b6 53bf cb56 e23e 342b 17bf e166 3f3f
-0.2986765 -0.61765045 0.51922405 0.8088022 -0.49168208 -0.45550853 0.057375863 0.75916064
-0.023487138 -0.8266702 -0.28256047 -0.4811385 0.6627783 -0.822568 0.6553223 0.24243392
0.0018716274 -0.11987205 0.46124437 -0.65737534 -0.295147 0.79120696 -0.29551607 0.19268201
0.721059 -0.69312716 0.07420898 0.11887348 -0.38540518 0.67619914 0.59755594 -0.15667881
-0.016403297 0.5317096 -0.19969815 0.4749797 -0.575929 -0.6902878 0.53650707 0.5509957
-0.68621963 -0.31234035 0.3336278 0.44315293 0.50468826 0.79197294 -0.32651705 0.12193026
0.72788244 -0.689507 0.5174962 0.16184226 0.13486981 0.8994881 -0.2842042 -0.14418615
-0.6119438 0.7107991 -0.6398095 0.7631416 -0.8270016 0.44206843 -0.590503 0.74766356

flow.model.1.affine.params.layers.1.weight f4 [64, 64]
00000000: ced9 0c3c 6be9 58be 85ec c23d dc6b 6dbe
00000010: cd68 4abc 84ce 353e d9e6 813d ae85 163d
00000020: 919e 30be 536e e63d e2b1 993d 5b2a 283e
00000030: ab1e 8f3d 9892 2c3e 098d 623e 209c 2e3d
00000040: cb5b 6abe 8d6c 80be adc6 dcbd deed 6a3e
00000050: fc11 58be 42bb 17be 29fd 2d3e 3136 0cbd
00000060: a990 4c3e 7ec1 babd 6ea3 1c3e 9210 fabd
00000070: 616b b5bc bafc 0a3e 8e8f a9bd d616 fa3d
00000080: 68e0 6b3e 460c ef3b 951f 2fbe 3fe1 393c
00000090: 68b4 d0bd 1366 d23d 3b05 e93c 2e7f 113d
000000a0: 6700 2b3e 2f87 663e 816e 733e c940 5e3e
000000b0: ded4 6dbe 26dc 703e b174 45bc a09f 0c3e
000000c0: 9ec0 2f3c 29e5 273d 729d a83c dafa 1a3e
000000d0: 81b3 e8bc 327e 583e 41ad 44be 5708 3ebe
000000e0: a52d d0bd 242f 4bbe 9282 12be 9563 2b3e
000000f0: 1d53 35be 9e47 343e 4169 e83d c335 7c3e
00000100: e777 6fbe 5162 493e 0bae e0bb 5268 9d3c
00000110: e7d8 f63d 0876 dbbd fdd8 04bd 544f 51ba
00000120: fc82 c43c 661a 4fbe 6a65 3abe cb8e 25bd
00000130: b08d 48be 29fd 55be ecc2 af3c 950a dbbc
00000140: c533 353e af9f 4b3e 58ad 92bc 9060 fabd
00000150: 0d1a a53d 84be 533e aa78 2abe 7a8c a93d
00000160: acf1 a5bc f004 203e dee1 30be 0ebd 8ebc
00000170: dd02 343d bffa 51bd 910d 803e 6083 0ebd
00000180: d63a 9abc 5eca 57bd ea3a 733d 0aef e4bd
00000190: bc01 493e 8728 84bd a588 87bd 9c7e 93bc
000001a0: 22fd 89ba 5345 63bd 1785 d4bd 02f5 15be
000001b0: e610 793c 7854 1dbe e683 453e 8d09 093c
000001c0: 8304 21be f291 d2bc d6d2 fcbd 0d60 fbbd
000001d0: bcf9 053e 6563 45be 9be8 8c3c 833c 953d
000001e0: 3675 543d c6f8 1d3e 7348 7c3d cc6a 4abe
000001f0: 3fcc 90bc b40a f23c 6d7d 0ebd 12c1 5cbe
00000200: ee4e 6fbe 9614 483c d298 b43c 21fd 223e
00000210: 0b20 073e d606 a7bc 1c52 8fbd 59f9 04bb
00000220: db78 1bbc b3de 06bd 1056 0bbd 5773 4bbd
00000230: 7cdc 37bc 31b3 ecbd 4226 1abe d229 00be
00000240: 1c1c 2bbb ea6d bc3d c32d 1f3e 7d07 8bbd
00000250: 16d6 b13d 91c4 0d3e f411 52be b8fd 123c
00000260: 6213 4dbe f898 5c3e e4af 51be 8225 1a3e
00000270: 4b59 393e 7da1 01be c257 923d 7ee5 3c3c
00000280: a9f7 45be 5603 5dbe 3327 953d e776 dbbd
00000290: 35ce 233d e3b6 a6bd 67e3 c9bc 87dd c6bc
000002a0: ed39 60bd 226e 3cbb 9703 19be a095 a9bd
000002b0: 4041 083e 0eb6 50bd c3ad 3d3d 03a1 293c
000002c0: c028 3fbe d011 1abe 8320 58be 080e 9cbd
000002d0: ae66 c3bb 4d45 10bb 5956 f43b a22e fe3d
000002e0: bcff 4e3e 48ce 513e 0bd8 073e 8b61 3abd
000002f0: 4c35 e83d 79c5 9cbc 7e78 ccbd db4e 3dbe
00000300: 2865 4e3e 8ead 66be 1a65 813e 0093 acbd
00000310: ec2b 97bd 1ada 093e bbcc 3c3e 2886 5d3e
00000320: 6a19 7fbe 7c2d 263e 0f12 b63d b90d afbc
00000330: 9262 fd3c f3c5 113e a2ec 693e 2810 533c
00000340: 735d c2bd 2548 a5bd 3740 7cbe 1f9c 223e
00000350: de1d 45be d49b e4bd 4fa9 323d 2ae6 f1bc
00000360: 4258 863c 7dc9 86bd 3550 ac3d fc99 c4bd
00000370: c7f7 f2bd 348b 713c 0130 1abe 1eb3 0b3e
00000380: 783a 0a3e f917 8b3d 0478 74bd ffe4 913d
00000390: c837 4abe 2849 3e3e 0821 f13d fe4a 2e3e
000003a0: 0dc7 553e 0ce4 a73d daad 2a3e 2061 6c3e
000003b0: dfeb e3bd 3d6d 753e fd66 9dbd 5548 643e
000003c0: 55fb 693e 2154 2a3e 4f0b 293e 0482 463e
000003d0: 60c5 5fbd b7f4 0e3e 3204 e1bd c463 37be
000003e0: a8a6 0abe 0476 89bd 9451 10be 3553 ba3d
000003f0: dd48 cdbd d027 023e b121 113e 8daa d53d
0.008596851 -0.21182792 0.09517769 -0.23185676 -0.012354088 0.1775456 0.06342859 0.03674858
-0.17247988 0.112515114 0.075046316 0.16422407 0.06988271 0.16852796 0.22124113 0.04262936
-0.22886579 -0.25082818 -0.10780082 0.22942302 -0.2110061 -0.14817527 0.16991104 -0.03423137
0.19977058 -0.09118937 0.15296718 -0.12210192 -0.022145929 0.1357297 -0.08279334 0.12211387
0.23034823 0.0072951643 -0.17101891 0.011345207 -0.1019066 0.10273375 0.028444877 0.03552168
0.16699372 0.22512506 0.23772623 0.21704401 -0.23225734 0.2352148 -0.012051747 0.13732767
0.010727076 0.04099003 0.020582888 0.15134755 -0.028405907 0.2114189 -0.19206716 -0.18557869
-0.10164956 -0.19842201 -0.14307621 0.16737206 -0.17707486 0.17605445 0.113482006 0.24629883
-0.23385583 0.19666411 -0.006856685 0.019214783 0.120530896 -0.10715872 -0.0324335 -0.0007984538
0.02398824 -0.20224914 -0.18202749 -0.04041938 -0.195853 -0.20897354 0.02145525 -0.026738444
0.1769553 0.19885133 -0.017904922 -0.12225449 0.080616094 0.20678145 -0.16647592 0.08278747
-0.02025684 0.15626884 -0.17273661 -0.017424133 0.043948043 -0.05126452 0.2501035 -0.034793258
-0.018826883 -0.052683227 0.059382357 -0.111784056 0.19629568 -0.064530425 -0.0661786 -0.018004708
-0.001052771 -0.055486035 -0.103769474 -0.14644244 0.015201783 -0.15364254 0.19288597 0.0083640935
-0.15724377 -0.025704358 -0.12344901 -0.122741796 0.13083547 -0.19276197 0.017200759 0.07286932
0.051869594 0.15426931 0.06159253 -0.19767302 -0.017675517 0.02954612 -0.034787584 -0.21558025
-0.23369953 0.012211939 0.022045527 0.15916874 0.13195817 -0.020389002 -0.06998083 -0.0020290224
-0.009489263 -0.032927226 -0.034017622 -0.049670544 -0.011222001 -0.115576155 -0.15053657 -0.12515953
-0.0026109284 0.09200652 0.155448 -0.06788538 0.08683412 0.13844515 -0.20514661 0.008971624
-0.20026925 0.21542728 -0.20477253 0.1505337 0.18100469 -0.12659259 0.07145645 0.011529325
-0.19332756 -0.21583304 0.07282867 -0.10716038 0.039991576 -0.081403516 -0.024644567 -0.024275554
-0.054742742 -0.0028752168 -0.14942776 -0.08280492 0.13306141 -0.05095487 0.04630829 0.01035333
-0.18667889 -0.15045857 -0.21106152 -0.07619864 -0.005963168 -0.0022013963 0.0074565825 0.12411238
0.20214742 0.20488846 0.13266008 -0.04550318 0.113382906 -0.019137131 -0.099839196 -0.18487112
0.20155776 -0.22527143 0.25272447 -0.084264755 -0.07381424 0.13462105 0.18437473 0.21633208
-0.24912038 0.16228288 0.08890163 -0.021368848 0.030930791 0.14235668 0.22844175 0.01288227
-0.0949048 -0.08070401 -0.24633871 0.15879868 -0.19249675 -0.11162534 0.043618497 -0.029528696
0.016399506 -0.065813996 0.08413736 -0.09599683 -0.11863666 0.014742661 -0.15057375 0.13642547
0.13498867 0.06791682 -0.05968477 0.07123756 -0.19747841 0.18582594 0.11773878 0.17020795
0.20876713 0.08197793 0.16667882 0.23083925 -0.11128973 0.23967452 -0.07685659 0.22293217
0.22849782 0.16633655 0.1650822 0.19385535 -0.05463159 0.13960539 -0.10987128 -0.17909151
-0.13540137 -0.06711963 -0.1409362 0.09097902 -0.10023663 0.127105 0.14173009 0.104329206

flow.model.1.affine.params.layers.1.bias f4 [64]
00000000: 5818 583e 1130 82bd d681 02bd b653 2d3e
00000010: 706a 04be ff68 cf3c e0b8 87bd 383a bbbd
00000020: 2741 65bc 5708 5bbe fa83 e93a 7cdc 3dbc
00000030: 7410 303e e46e 31be 9129 a8be cfc8 993d
00000040: 77b7 bebc f4d8 a3be 642d 9ebe 941d 16be
00000050: cf99 41be 05f3 0c3e 6de5 aabc 9892 1fbd
00000060: ce27 433c e5b1 98bc a4ec c33c 1a72 65be
00000070: bcf7 f7bd bfa4 8ebc c978 81be e284 2f3e
00000080: 0f04 b6bd 8218 67bc 210f a3be 1486 8abd
00000090: af23 133e 6fad 42be 7cc9 a9be fcec c3be
000000a0: c539 1bbd 6798 21be e668 cabc a27d f63c
000000b0: ea2c c7bd 9363 adbe 46e1 583e b534 e7bd
000000c0: b293 3d3d 9cd4 b73d f901 7abd ebd1 1b3e
000000d0: 6f07 943c d449 79be af89 fc3d c9d6 6abe
000000e0: 030c 983c b970 0ebd af22 d8bd dbce 81be
000000f0: 87f3 2dbe 8d4c 58be ef2b 90bd ecb4 79be
0.21103036 -0.06356824 -0.031862102 0.16926464 -0.12931228 0.02531862 -0.06627059 -0.09141964
-0.013992584 -0.213899 0.0017815821 -0.011588212 0.17193776 -0.17327458 -0.32844213 0.07509004
-0.023280842 -0.3200146 -0.30894005 -0.1465972 -0.1890633 0.1376458 -0.020861352 -0.038958162
0.011911346 -0.018639514 0.02391655 -0.22406808 -0.121077985 -0.017412541 -0.25287464 0.17140535
-0.08887493 -0.014104964 -0.3184748 -0.067638546 0.14369081 -0.19011472 -0.33161533 -0.38266742
-0.03789689 -0.15780793 -0.024708223 0.030089203 -0.097253636 -0.33865032 0.21179685 -0.1128935
0.04628343 0.08976099 -0.061037038 0.15216796 0.01806995 -0.2434457 0.123309486 -0.22933497
0.018560415 -0.03477547 -0.1055349 -0.2535313 -0.1698743 -0.21122952 -0.0703963 -0.24385422
