Toy Experiment/results_cdf.pt (torch, 43726 bytes, 26 tensors)

encoder.0.weight f4 [8, 2]
000000 42 4a 1d 3e 5d 84 b2 3e 85 71 c7 be c8 4b 39 bf
       0.15360358 0.3486661 -0.38953796 -0.7238126
000010 66 10 d8 be 2b ec 02 bd 66 46 64 3d e8 3b 1d 3f
       -0.4220001 -0.03196351 0.0557312 0.61419535
000020 a1 68 a8 bc 9a b3 a2 3e e7 94 b8 be 2e 26 be 3d
       -0.020557703 0.3177765 -0.36051103 0.09284626
000030 aa 7d 01 bf aa 6b 1f bf 90 9c 89 3d ee 29 a8 be
       -0.50582373 -0.6227366 0.06719315 -0.3284449

encoder.0.bias f4 [8]
000000 81 31 90 3e 7d de da 3e 90 c9 02 bf 90 30 bd be
       0.28162768 0.4274787 -0.5108881 -0.36951113
000010 2c c8 45 3e ef 11 27 3f 1f 14 3c be c4 07 ee 3e
       0.19314641 0.6526174 -0.1836705 0.464903

encoder.1.weight f4 [8]
000000 08 ad 96 3f a6 be 85 3f b7 9a 5c 3f 30 f4 97 3f
       1.1771555 1.0448806 0.86173576 1.1871395
000010 c4 85 94 3f 55 02 68 3f 65 24 5b 3f e3 0b 77 3f
       1.1603322 0.9062856 0.8560241 0.9650251

encoder.1.bias f4 [8]
000000 75 7f 17 3f 49 32 d9 bd 68 92 84 bd f0 85 e8 3e
       0.5917886 -0.10605294 -0.06473237 0.45414686
000010 04 10 cc 3e 33 c0 51 3d 68 b2 b5 bd c1 e4 0b be
       0.3985597 0.051208686 -0.08871919 -0.13661481

encoder.1.running_mean f4 [8]
000000 8a b3 93 3d f9 1a 22 3f a0 86 63 bf ca 51 6a bf
       0.07211979 0.63322407 -0.88877296 -0.9153105
000010 5a c0 02 be 20 1b 6b 3e 09 7a 30 be f6 5b 2d 3f
       -0.12768689 0.22959566 -0.17234053 0.67718446

encoder.1.running_var f4 [8]
000000 f5 f8 f2 3d 45 67 cb 3e b0 4d d4 3d 57 88 c1 3e
       0.11863891 0.39727226 0.1036638 0.37799332
000010 b8 ae e4 3d c8 c7 d1 3d 7e 68 a3 3e fd 57 d2 3d
       0.111661375 0.102431834 0.3191566 0.10270689

encoder.3.weight f4 [2, 8]
000000 2e 42 60 be 81 fb 38 3e 76 d5 ea 3d 3c 9e f5 be
       -0.21900246 0.18064691 0.11466496 -0.47972286
000010 79 ec c0 be 63 d7 e0 bd 3e d1 05 3d fe 36 74 3e
       -0.37680414 -0.10978582 0.032670252 0.23849103
000020 38 68 bf be 54 04 28 3e 51 27 73 be 35 e7 e0 be
       -0.373842 0.16407901 -0.23745467 -0.43926397
000030 4c fd 6e be ef 2a 5d 3e ba 8b 6a 3e 96 d3 63 3e
       -0.23338813 0.21598409 0.22904864 0.22248682

encoder.3.bias f4 [2]
000000 80 13 54 bc e4 71 df be
       -0.012944102 -0.4364158

encoder.4.weight f4 [2]
000000 1d 00 3b 3f 17 f2 68 3f
       0.7304705 0.909944

encoder.4.bias f4 [2]
000000 3d ce 8f be 58 b9 74 3d
       -0.28087035 0.05974707

encoder.4.running_mean f4 [2]
000000 54 30 0e bf 2b 0e 6a bf
       -0.5554249 -0.9142787

encoder.4.running_var f4 [2]
000000 0c 54 5d 3f 93 19 62 3f
       0.8645637 0.88320273

cls.0.weight f4 [8, 2]
000000 76 d9 24 bf 4c 01 b7 bf 8f 4a 87 bf 4b 89 5d bf
       -0.6439432 -1.4297271 -1.0569628 -0.8653762
000010 60 12 57 3f fb 26 a0 3f f9 dc 2b 3e 05 d5 d9 3e
       0.84012413 1.2511896 0.16783513 0.42545334
000020 35 c6 12 3f e8 c0 72 3e ff 0f c3 3e 1d 24 a2 be
       0.5733369 0.237064 0.38098142 -0.31668177
000030 37 0f dd 3e bc fd 6d be db 91 b3 3e 1d f1 8c be
       0.4317567 -0.23241323 0.35072216 -0.27527705

cls.0.bias f4 [8]
000000 3f 51 a4 3e d0 35 44 3e 13 36 91 3f 64 aa 67 3e
       0.32093236 0.19161153 1.1344627 0.22623593
000010 fd ab 56 bf 88 5d 7b be 64 fb a8 3d 57 25 b9 be
       -0.83856183 -0.24547398 0.08251074 -0.361613

cls.2.weight f4 [1, 8]
000000 d0 23 53 bf f7 84 38 bf 95 4c 8b 3f 65 19 b3 3e
       -0.8247652 -0.7207789 1.0882746 0.34980312
000010 44 ea 34 bc ed 20 28 bd 61 5b 1f 3d dd 0d 5e 3d
       -0.011042181 -0.041047025 0.038905505 0.05421244

flow.flow_dim1.mus f4 [3]
000000 12 52 1a bf ad 33 19 3e bf 07 29 bf
       -0.6028148 0.14961119 -0.66027445

flow.flow_dim1.log_sigmas f4 [3]
000000 52 6d 5b be b0 cc 03 bf b8 69 43 be
       -0.21428421 -0.51484203 -0.19083297

flow.flow_dim1.weight_logits f4 [3]
000000 5f 3b d2 3e b9 5b cc 3f 35 8a cb 3e
       0.41060922 1.5965492 0.3975388

flow.flow_dim2.cdf.layers.0.weight f4 [64, 1]
000000 c2 51 6c bf 4f 4f 8e 3e 03 65 80 bd b3 86 e0 bd
       -0.9231225 0.27794883 -0.062692665 -0.10963192
000010 f0 8f c6 be 7a 85 c5 3e 64 7a 20 bf e7 4d 69 3e
       -0.3878169 0.38578397 -0.62686753 0.22783624
000020 f3 38 06 3f 85 86 29 3f 75 66 85 3e e4 39 70 bf
       0.5243065 0.66220886 0.2605473 -0.93838334
000030 44 98 09 bf a9 3f e2 3e c1 fa 49 3e 95 51 38 bf
       -0.53747964 0.44189194 0.19724561 -0.71999484
000040 88 8a fa be 79 84 63 3f fd 05 13 3f ab c2 d7 be
       -0.48933816 0.8887401 0.5743101 -0.42140707
000050 05 72 f6 bd 83 64 54 bf ab b9 dc 3b af 0a 17 bf
       -0.12033466 -0.8296587 0.0067360005 -0.59000677
000060 df 1c 25 bf a3 98 bb bd 2b b4 ba 3d 7c 5d 9b be
       -0.6449718 -0.091599725 0.091163956 -0.3034476
000070 eb b4 07 3f 10 a8 0d bf 4c ee 56 3f a4 a6 1e 3f
       0.53010434 -0.5533457 0.8395736 0.61973023
000080 72 51 4d bf e5 69 93 be bd bb 64 bc 3d ac c9 3d
       -0.802024 -0.2879173 -0.013960776 0.09847305
000090 88 84 8d 3e 83 73 85 3e 68 3d 35 3e 30 53 db be
       0.27640176 0.2606469 0.17699206 -0.42836905
0000a0 57 84 6b 3e 57 7b 5a bf 80 ca 0a bf c0 5a 6f be
       0.22999702 -0.8534445 -0.5421524 -0.23374462
0000b0 46 e8 c9 be ef 10 76 be 8c 99 33 bf 2d cb 89 bd
       -0.39435023 -0.24029897 -0.7015617 -0.06728206
0000c0 1c 63 58 3e a5 67 18 bf 19 f0 d5 bd ad 7d 3b 3f
       0.21131557 -0.5953315 -0.104461856 0.7323864
0000d0 b1 62 19 be 6e 5e 14 3b db d7 05 be 84 d8 7d 3e
       -0.14979054 0.0022639292 -0.13070624 0.24789625
0000e0 6e c3 29 3f 21 25 5b 3f e4 dd 13 3f f6 4f 4b 3f
       0.6631383 0.8560353 0.57760453 0.79418886
0000f0 d4 99 0b be a2 fc 59 bf aa dc dc be 58 af 36 3f
       -0.136329 -0.8515111 -0.43137103 0.71361303

flow.flow_dim2.cdf.layers.0.bias f4 [64]
000000 f1 69 04 3d 1b fd c9 be 22 45 1a bf cb 64 3b bf
       0.032327596 -0.39450917 -0.6026174 -0.7320067
000010 ce ac 3e bf 36 9c 18 be cd 78 ce 3e ec ba c4 3e
       -0.7448243 -0.1490334 0.4032654 0.3842386
000020 3e c0 32 bf 63 96 fe 3e 0e d9 17 bf 08 25 16 be
       -0.6982459 0.4972411 -0.59315574 -0.14662564
000030 4f e7 9d be 49 ae 60 be 28 f6 93 bd 0d 8f 47 bf
       -0.30840537 -0.21941485 -0.07224685 -0.77952653
000040 30 b4 47 bf 8c e5 0e be 41 c0 49 bd ba eb c3 be
       -0.7800932 -0.13954753 -0.049255613 -0.38265783
000050 f2 bb e1 3e 96 53 3d bf ff cf 36 3d d0 97 22 3f
       0.44088703 -0.73955667 0.044631954 0.635129
000060 10 94 8e be 62 f2 3f 3f 4a a4 6d 3e 2f 93 3e bf
       -0.27847338 0.7497922 0.23207203 -0.74443334
000070 08 f4 13 3f 23 fd ca bc 5e f1 d0 be df c1 37 3f
       0.5779424 -0.024778908 -0.4080915 0.717802
000080 72 65 3b bf 4e e7 dd 3c 4b 57 a8 bd 00 65 0e 3f
       -0.7320167 0.027087834 -0.08219775 0.55622864
000090 1b b5 8f 3e c0 16 77 3e 01 d5 83 3e 60 81 29 be
       0.2806786 0.24129772 0.25748447 -0.16553259
0000a0 96 9e ad bd 5b a4 30 bf 70 e1 1d 3f eb 2b 2e 3f
       -0.084775135 -0.69000787 0.61672115 0.68035764
0000b0 1f e6 c0 3e fc af 0e bf f3 16 0b 3e 96 e9 06 bf
       0.37675568 -0.5573728 0.13582973 -0.52700174
0000c0 35 9d dc be a4 db fc be 03 a3 28 3e 50 eb f9 be
       -0.4308869 -0.49386322 0.16468434 -0.48812342
0000d0 1b 64 b0 bd 73 ad 55 bd 49 08 35 3f 9b 10 19 bf
       -0.086128436 -0.052167367 0.7071577 -0.5979096
0000e0 4c b1 0f bf 0d 46 1a bf 51 59 1a 3f e7 d2 93 be
       -0.5612991 -0.6026314 0.60292536 -0.28871843
0000f0 0c db 35 3f df 04 bd 3e 37 be 47 3d 2d 3f 99 bb
       0.71037364 0.3691778 0.048765387 -0.0046767206

flow.flow_dim2.cdf.layers.1.weight f4 [64, 64]
000000 95 74 9c 3d ee da ee 3c be df a2 3c 6d 39 3c 3d
       0.07639424 0.029157128 0.01988208 0.045953203
000010 29 4b 94 3d be 0a 4c be f3 89 3a 3d 3e 2f 3a 3d
       0.07240898 -0.19925973 0.045541715 0.04545521
000020 4e fb e8 bd 3d 4f 97 bd 57 a4 02 3e d6 ba 15 3e
       -0.113760576 -0.073881604 0.12758003 0.14622054
000030 0d fd 88 3d ad 0c 58 be ce 81 36 bd 38 d5 ec bc
       0.066888906 -0.21098585 -0.044557385 -0.028910264
000040 69 59 b4 3c 2e bd 12 be 4a 1d f3 bd 67 96 6a 3d
       0.02201529 -0.14329979 -0.11870821 0.05727234
000050 7e 1a 03 3e 29 25 a6 3d 3b a2 0b 3e 83 0c 48 3e
       0.12803075 0.081125565 0.13636105 0.19536023
000060 44 83 77 bc 38 73 88 3c 42 9c 09 be d0 bd 2d 3b
       -0.01510698 0.016656503 -0.13438514 0.0026510842
000070 85 3b aa bc 59 20 10 3e 5c 6b 3e bc fd 64 cc bd
       -0.020780334 0.1407484 -0.011622276 -0.099801995
000080 bb 9e 82 3d 11 3e 25 3e 3b 18 b2 bd 9c 2d 2a 3d
       0.06377932 0.16136958 -0.08696028 0.041547403
000090 e0 b3 0f be 6a 44 51 bd bb 34 5b bd 1b ed 91 bb
       -0.1403346 -0.051090635 -0.053517085 -0.004453314
0000a0 42 28 ba bd 7b 42 2e 3e b8 23 9b 3d ef 73 c7 bd
       -0.0908971 0.17017548 0.07575172 -0.097389095
0000b0 6d 16 94 3d 62 7d 8d bd bc ab 21 3e b0 07 16 bc
       0.0723084 -0.069086805 0.15788168 -0.009157106
0000c0 c7 12 86 bd 26 78 20 bc 5e 61 36 3d c6 0d 2f bd
       -0.0654655 -0.009794271 0.04452645 -0.042737745
0000d0 c4 dd 14 3e d2 58 64 3c da 81 8d bd 00 70 3f bc
       0.14537722 0.013937192 -0.06909533 -0.011684418
0000e0 a6 7f 9b bd 25 26 8d bb 4e 8a c5 bc 1f d8 27 be
       -0.075927064 -0.0043075257 -0.0241138 -0.16391037
0000f0 a1 46 c4 bd 8e e0 5c bc 94 2d 01 3e 38 51 2d be
       -0.09583784 -0.013481272 0.12615043 -0.16925514
000100 b8 7f dc 3b 36 40 69 3e 1e 8f 17 3d 2c e8 d4 3d
       0.0067290924 0.22778401 0.03700172 0.10395846
000110 ad af 1d 3e 7f a4 f8 3d 8a 22 4f be 9f 7a 60 be
       0.15399046 0.1214075 -0.2022802 -0.21921776
000120 4c 0a 5f 3e d1 57 c8 bd 75 34 63 3e bf 34 9c 3d
       0.21781272 -0.09782375 0.2218798 0.07627248
000130 8e b7 1e 3e d9 3e 16 be 27 96 e6 3d 48 3b 2c 3d
       0.15499708 -0.14672412 0.11259108 0.042048723
000140 17 4e 24 3e 73 14 a1 bd fc 4c f7 bd c0 73 b8 3d
       0.16045414 -0.078652285 -0.120752305 0.090064526
000150 c6 e8 47 be 8c 88 51 3e 98 8e cd 3c 46 26 89 bd
       -0.1952239 0.20462245 0.025092408 -0.06696753
000160 90 f2 9b 3d 36 c5 36 be 8f 08 c4 bd 44 19 5a 3d
       0.076146245 -0.17848668 -0.09571945 0.05324675
000170 b7 0b b7 bd db 25 12 3e dc ef 57 be 29 68 c7 bd
       -0.08937781 0.14272253 -0.21087593 -0.09736664
000180 cf 88 2f 3e b6 8d 2b 3e b2 c7 d1 3d 6b f2 61 be
       0.17142032 0.16753277 0.10243167 -0.22065131
000190 0e be 0c be cc 1d 99 bd f1 b6 27 be 2b 99 29 3e
       -0.13744375 -0.074763864 -0.1637838 0.16562335
0001a0 0d c6 0e bd 7f b8 58 3d 9c 7c ef bd d2 2b 88 bd
       -0.034856845 0.052910324 -0.11693689 -0.06648983
0001b0 24 f5 dd bd e2 b4 03 3e 39 fe 08 3e 41 19 a3 3c
       -0.108377725 0.1286197 0.13378228 0.019909503
0001c0 11 12 03 3e 9b a6 51 3e 5e 51 b5 bb ba 3c 44 3e
       0.1279986 0.20473711 -0.0055333814 0.1916379
0001d0 e9 21 0a 3e 6b c2 74 bd 4d 48 37 be 62 0f 6f 3c
       0.13489498 -0.059755724 -0.17898674 0.01459107
0001e0 d9 09 2f 3c 2d ae 78 3e 38 0c 1f bd 6b 79 51 be
       0.0106835 0.24285193 -0.038830012 -0.20456474
0001f0 cb de 8d bd e6 a6 59 3e d6 f1 78 3e 3c 64 11 bc
       -0.0692726 0.21255073 0.24311003 -0.008873995
000200 9b 67 72 3d ce fb c1 3d 02 7f 18 3e d1 2e 96 3e
       0.059180837 0.09471856 0.148922 0.29332593
000210 98 ac 8f 3e 37 23 4b bc c9 33 f1 3c 59 dd a2 bc
       0.28061366 -0.012398533 0.029443638 -0.019880937
000220 45 41 3d 3e e9 99 c2 bd 46 5b 2b 3e 80 a8 83 bd
       0.1848193 -0.09502012 0.16734037 -0.06428623
000230 63 9f cb 3d f7 ff 36 3d cb f6 e2 3d 3a c0 61 3d
       0.0994251 0.0446777 0.11082228 0.055114962
000240 c5 a1 0f 3e 43 be fa 3a e9 60 d5 3d 28 6a 78 bd
       0.14026554 0.0019130189 0.10418875 -0.060648113
000250 5c a2 f2 bd 40 24 84 bd c7 6f c2 bd e5 16 51 be
       -0.11847374 -0.06452227 -0.09493976 -0.2041889
000260 dc d0 bd 3d ca 4e d9 bd c6 57 ab bd e0 cb 9a 3e
       0.092683524 -0.10610731 -0.08366351 0.3023367
000270 32 db 0d be 6e 17 e5 bd 65 70 48 3d 58 cc ed bd
       -0.13853148 -0.111861095 0.048935313 -0.11611241
000280 97 50 df 3d 1f 60 13 be eb 82 8d 3d 31 cb a0 be
       0.10904043 -0.14392136 0.06909736 -0.31405023
000290 32 eb de bd 36 ee 88 3d fb 41 bf bd af 75 ad 3d
       -0.10884704 0.0668606 -0.09338757 0.08469712
0002a0 15 4b 3c 3e ef 5f 01 3e a4 36 0b be 3e 02 b7 bd
       0.18388017 0.12634252 -0.13595062 -0.089359745
0002b0 44 e3 bd 3b 2a 16 7c 3e 14 3a 9e 3d 64 f8 85 3e
       0.0057949144 0.2461783 0.07725921 0.2616607
0002c0 27 d4 57 3e ab 2d ce bc 61 ac 8b bd f1 0f c0 3d
       0.21077023 -0.02516826 -0.06819988 0.093780406
0002d0 a3 e8 b7 bc 1f 29 0d 3e 3c eb 77 be a2 07 41 3d
       -0.022449797 0.13785218 -0.24210829 0.04712642
0002e0 97 ad 2f 3e 4e ef 2d 3e 8e 1c 37 bd e2 6e 3b bb
       0.17156063 0.16985819 -0.044704966 -0.0028600027
0002f0 c4 3e 97 bd a8 3b 44 3c b3 a0 1e bd ac 3e eb bc
       -0.073850185 0.011977114 -0.038727473 -0.028716408
000300 f6 c4 82 3d 84 56 08 3e 16 27 31 3d 3c 12 82 3e
       0.063852236 0.13314253 0.043250166 0.25404537
000310 00 7f 78 3e de 3c bc 3c 10 f0 3c bb 3c 7f 5d be
       0.24267197 0.022978242 -0.0028829612 -0.21630567
000320 85 84 72 3d 50 27 12 3d ec 76 ab 3d a6 d4 03 be
       0.05920841 0.035682023 0.08372292 -0.12874088
000330 e1 9a 2f bc aa cd f7 3c 79 21 4b 3d ed 5d 0d 3e
       -0.010718078 0.030249435 0.04959247 0.13805361
000340 8a 31 86 3e 23 b4 89 3d d3 d7 cb bc 6e d9 e3 3d
       0.2620967 0.067238115 -0.024883186 0.11125456
000350 3d 72 82 bc 7b 33 20 3e 67 96 7c 3d 40 c9 c6 bd
       -0.015923614 0.15644638 0.061666872 -0.09706354
000360 f0 1b c6 bd 58 f8 3a be 46 c4 c6 bd 74 cb 6d 3d
       -0.096732974 -0.18258798 -0.09705405 0.058055356
000370 3c 19 a0 bd 22 72 78 3d c7 d3 97 3d e1 55 53 be
       -0.07817313 0.06065572 0.0741344 -0.20638229
000380 fe 19 6e 3d 94 20 28 bd 1e 78 fa bb 28 fa 97 bd
       0.058130257 -0.041046694 -0.0076437136 -0.074207604
000390 5f 7e 51 be d1 fb 80 be 86 c7 70 be 3f 6a 08 bd
       -0.20458363 -0.2519212 -0.23513612 -0.03330445
0003a0 80 29 19 3e ba 1f 1f bd 64 69 fd 3c 7b 46 08 be
       0.14957237 -0.038848616 0.030934043 -0.13308136
0003b0 36 b5 20 bd fb f1 1e 3e 6f f3 2b be 50 f2 79 3e
       -0.039235316 0.15521996 -0.16792081 0.24408841
0003c0 09 9d 18 3e 6e c0 5c 3e 8d c7 c2 bc 75 4d 28 bc
       0.14903654 0.21557781 -0.023776794 -0.010272373
0003d0 ac 99 b5 3d 9d 3b 15 be ba a4 d4 bc 53 b6 86 bc
       0.08867201 -0.14573522 -0.025957454 -0.01644436
0003e0 5f e0 1a 3d 44 30 5c bd e9 79 28 be 46 35 bc 3d
       0.037811633 -0.053756967 -0.16452755 0.091898486
0003f0 b0 c1 67 be c9 f9 ce bc db f2 a7 3b 35 d3 92 3d
       -0.2263248 -0.025265591 0.005125386 0.07169191

flow.flow_dim2.cdf.layers.1.bias f4 [64]
000000 7b 26 a5 bd 3c c5 de bc 96 85 94 be 67 a3 ef bd
       -0.0806398 -0.027193658 -0.29008168 -0.117010884
000010 dd 56 2a bd 5f a2 88 be 27 b5 2b be bd a6 e0 3d
       -0.041586746 -0.2668638 -0.16768323 0.10969303
000020 49 b6 94 bd fa 6d 47 bd f4 22 10 3d f7 27 36 bd
       -0.07261331 -0.048688866 0.035189584 -0.044471707
000030 2a ec 2b bd c1 88 25 be eb ab 82 bd 96 64 b9 bd
       -0.04197327 -0.16165449 -0.06380447 -0.09052388
000040 92 e0 27 be b7 88 34 bc 37 76 26 3e 4d d9 a8 bc
       -0.1639426 -0.0110189235 0.16256033 -0.02061143
000050 fa cf 7d be 92 5e 25 be a8 fe 4d be c2 a0 77 bd
       -0.24786368 -0.16149357 -0.20116675 -0.060456045
000060 39 a7 9d bd 65 91 4a be 17 1c 1b be d5 ce ee bc
       -0.07697911 -0.19782026 -0.15147434 -0.02915136
000070 b4 7c 61 3d fb bb 4c be 17 1c 7e ba 1a 20 f7 bd
       0.055050567 -0.19993584 -0.0009693517 -0.1206667
000080 9d 90 23 be 78 68 8f bd f9 c0 56 bc 49 26 36 3d
       -0.15973134 -0.07002348 -0.013107532 0.044470105
000090 ee 0b 50 be 96 6a b9 bd 10 01 ac bd cc d2 c2 bd
       -0.20317051 -0.09053533 -0.0839864 -0.095128626
0000a0 22 dd 3c be 82 30 9f 3d ec 74 16 bd 00 6d 62 bd
       -0.1844373 0.07772924 -0.0367326 -0.05527973
0000b0 94 6b 6c bd 36 68 74 be 79 f6 28 be 60 a4 ab 3d
       -0.057719782 -0.23867878 -0.16500272 0.083809614
0000c0 6c 86 71 3c 11 00 31 be 88 5c 08 be aa 48 83 be
       0.014741521 -0.17285182 -0.13316548 -0.25641376
0000d0 a4 3f a4 bd e6 ca 21 be 18 d3 7d be 6a 79 4b 3c
       -0.08019951 -0.15800056 -0.24787557 0.012419084
0000e0 ad 56 c0 bd f1 fc f9 3d 1e b1 17 be a0 ec 9c 3a
       -0.09391532 0.12206448 -0.14813659 0.0011972375
0000f0 12 ff e4 3d 79 29 7f be 66 08 0a be 5f bf e4 bd
       0.11181463 -0.24918164 -0.13479766 -0.11169314

flow.flow_dim2.cdf.layers.3.weight f4 [64, 64]
000000 ea ac b9 3d be bd 6c 3e a8 6a 0c be 5a 8c 75 3d
       0.09066184 0.23119256 -0.13712561 0.059948303
000010 12 f7 63 bd 03 1d ba bd eb 64 4c 3e 9e 47 6e 3c
       -0.055655546 -0.09087565 0.19960372 0.014543442
000020 f4 29 46 3c cf ff 90 3d 33 14 4c 3d b8 eb 03 3e
       0.012094963 0.070800416 0.04982395 0.12882888
000030 d4 f3 14 be d5 89 20 3e 54 e3 83 bd 21 c4 12 3d
       -0.14546138 0.15677579 -0.06439844 0.035831574
000040 af cf f7 bd b5 44 88 bc 59 bf 70 bd 1a 18 e8 3d
       -0.121001594 -0.016634325 -0.058776233 0.11332722
000050 00 7d a3 3c 0d 7b c8 bd bb 8c 81 3d a4 cf 68 3e
       0.019957066 -0.09789095 0.0632567 0.22735459
000060 41 76 c5 3d 41 56 3d 3e 58 d3 21 3d be 64 c9 3d
       0.09641696 0.18489935 0.039508194 0.09833668
000070 9f 6b 67 bd 22 5e aa bb 80 95 fc bd 16 37 18 3e
       -0.05649912 -0.00519921 -0.12333202 0.14864764
000080 cc 68 b5 3c 85 cf 77 3e ec 6a e5 3d 04 d6 a7 3c
       0.022144698 0.24200256 0.11202034 0.020487793
000090 d3 af 8d 3d 18 21 8c 3c 26 d9 cb bd 77 59 3e 3e
       0.069183014 0.017105624 -0.09953527 0.18588816
0000a0 9a 40 ee bd c9 00 03 bd 7a 46 c1 bd e5 e0 00 3e
       -0.116334155 -0.03198317 -0.094372705 0.1258579
0000b0 cc 0a 3e 3e 1c 4b 10 3e 91 27 6f 3e 98 56 12 3a
       0.18558806 0.14091152 0.23354937 0.00055823615
0000c0 8f 51 ac bd d7 ba 3b be 4f 52 7d 3c e5 e9 af 3d
       -0.084139936 -0.18332992 0.015461518 0.08589534
0000d0 54 34 e7 bd e7 a8 62 3e 4d a5 55 3c b2 59 38 3e
       -0.11289278 0.22134744 0.013039899 0.18002966
0000e0 38 8f 4e 3e db 04 6b bd e7 54 ea 3d cb 8e 1b 3e
       0.20171821 -0.057377677 0.11441975 0.1519119
0000f0 93 26 49 3e fe b2 1c bd 51 23 cf 3d 6f b4 e8 3d
       0.19643621 -0.038256638 0.10114158 0.1136254
000100 c8 01 ab bd 83 f7 a2 3d 45 31 f1 bd cc 3b 05 3c
       -0.08349949 0.07957365 -0.117769755 0.0081319325
000110 47 d7 86 bd 9b 4a f0 bd 53 94 6f bd 2d a4 24 be
       -0.0658403 -0.1173298 -0.058491062 -0.16078253
000120 4a d7 0a be 12 42 e2 bd e0 15 97 bd 34 af 82 be
       -0.13558689 -0.11047758 -0.07377219 -0.25524294
000130 1d ac 0b be ea ed c6 3d 66 29 3d be 73 e4 8e bd
       -0.13639875 0.09713347 -0.18472824 -0.06977167
000140 00 ae bd bd 3c e0 f2 bb f9 5d 3e be 6a 36 d2 bd
       -0.092617035 -0.0074119847 -0.18590535 -0.10264285
000150 43 15 3e bd b7 9f 8e 3d 1b 12 0e be 24 81 08 3c
       -0.046406996 0.06964057 -0.13874094 0.008331571
000160 ed 10 91 3d 1c 50 b1 bd d1 84 04 bd 68 6f 20 bd
       0.070833065 -0.08657858 -0.032353226 -0.039168745
000170 c8 76 9c bd ea 0b 78 be aa 30 03 3e 2c c2 96 bd
       -0.07639843 -0.24223295 0.12811533 -0.07361254
000180 42 56 67 be 08 12 41 bd b5 81 9b bd c3 d8 08 bd
       -0.22591498 -0.047136337 -0.07593099 -0.033409845
000190 27 d3 5c be 28 7e c6 3c d0 ce ce bc a8 df 8c bc
       -0.21564923 0.024230078 -0.0252451 -0.017196491
0001a0 3d fa 88 bd be 42 bb bd 80 2a c0 ba b9 49 fb bd
       -0.06688354 -0.091435894 -0.0014661103 -0.12269921
0001b0 e5 ff 5e 3c be 9b 02 be e3 86 09 be 8f 4d d7 bd
       0.013610815 -0.12754723 -0.13430361 -0.1051284
0001c0 4f 0e 7d be f1 f4 a0 3d 62 b9 e0 3d 50 38 90 bc
       -0.2471249 0.07859219 0.10972859 -0.017604977
0001d0 40 13 4a bd a8 ac 81 bd 1b 7e 97 be 50 ef 64 bc
       -0.049334764 -0.0633176 -0.29588398 -0.013973072
0001e0 aa 2b d4 3d ae b5 56 bd aa ee a4 bd fe 78 e8 bd
       0.10359891 -0.052419357 -0.08053334 -0.113512024
0001f0 2a 18 f4 bd e5 f5 09 be c9 f7 d2 3d 40 10 b3 bd
       -0.119186714 -0.13472708 0.103011675 -0.08743334
000200 32 30 cf bd b2 3e 8e bd f6 87 d8 3d f8 45 7d 3e
       -0.101166144 -0.06945552 0.105728075 0.24733722
000210 b6 2e 88 bd db 7f dd bc a9 4d 94 3b 3a c1 03 3e
       -0.066495344 -0.027038505 0.0045258594 0.12866679
000220 c2 9c 92 bd 6e 1c 6b bd 21 7e b0 bd fa 48 39 3b
       -0.071588054 -0.05740016 -0.08617807 0.0028272257
000230 49 51 ac 3c 0d ac f4 bd af 48 5f be b8 5c 5e bb
       0.021034854 -0.119468786 -0.2180507 -0.0033929776
000240 80 51 bb 3d a2 7c b1 3d db 40 ba bd 69 4f 46 bd
       0.09146404 0.0866635 -0.090944014 -0.048415575
000250 15 13 0a 3e 28 d3 a3 bd c1 80 11 be 3f d2 67 bb
       0.13483842 -0.07999259 -0.14209272 -0.003537312
000260 7a d8 18 bd f2 1a 33 bd 35 93 1d bd 1c 8d 3b be
       -0.037315823 -0.04372687 -0.038470466 -0.18315548
000270 73 8e b7 3c b9 cf 43 be f6 b1 62 3e 78 22 79 be
       0.022406792 -0.19122209 0.22138199 -0.24329555
000280 85 67 0d be ee 0f 52 be aa 9b 9d bb 13 70 e9 bc
       -0.13809021 -0.20513889 -0.0048098164 -0.028495824
000290 2d 73 f1 bd 40 df a2 3c 5c c4 41 bd 5d 76 1f be
       -0.11789546 0.019881845 -0.047306404 -0.15572496
0002a0 74 5f 7d 3d 36 a7 74 be b2 86 9d bd ef 4a eb bd
       0.06185861 -0.23891911 -0.07691707 -0.11488902
0002b0 26 f5 82 3e 33 ce 62 be 7b 47 68 bd 03 09 12 be
       0.25577658 -0.22148971 -0.056708794 -0.1426125
0002c0 ac ee 3a be fa ba c3 3c 3f 40 10 bc bb 5e 80 bc
       -0.18255109 0.023892868 -0.00880438 -0.015670171
0002d0 00 20 44 b8 7c f3 7d 3d 3b c2 2d be 87 a4 e4 bd
       -4.6759844e-05 0.061999783 -0.16968624 -0.111641936
0002e0 88 fc 58 be 09 d5 c1 bd b8 05 29 be 74 ff ec bd
       -0.21190083 -0.09464461 -0.16506088 -0.11572161
0002f0 02 95 21 be a5 98 6b bc 3e 88 6c 3e 67 44 da 3d
       -0.15779498 -0.014379655 0.23098847 0.10657578
000300 ac 60 5b be cc a1 db bd 47 73 d4 bd 5c c9 29 bd
       -0.21423596 -0.1072422 -0.1037355 -0.041451797
000310 3d a3 af bd ec 84 14 be 04 dc b5 bb 0a ab 4f be
       -0.08576057 -0.1450383 -0.0055499095 -0.2028009
000320 25 6e 5e bd 65 01 84 bd 81 e2 5f be cb 64 fd 3d
       -0.05430426 -0.064455785 -0.21863748 0.1237274
000330 ec e6 40 be c2 05 af 3d c8 3e 10 be 8c bd fc 3d
       -0.1883809 0.0854602 -0.14086449 0.12340841
000340 9b a3 d8 bc 12 30 b1 bd f4 9b 5e bc 3e 14 d2 bd
       -0.0264452 -0.08651747 -0.013586987 -0.10257767
000350 e0 0e cc bd 51 0b b1 bd 64 77 32 be 04 32 fb bd
       -0.09963775 -0.086447366 -0.17428356 -0.12265399
000360 08 58 5a 3e 74 c9 a2 bb 70 87 06 3d 3b bc 60 3e
       0.21322644 -0.0049678627 0.032844007 0.21946804
000370 00 68 3c be de f0 d0 bd 68 ec c8 bd 26 ce bd b9
       -0.18399048 -0.10202192 -0.09810716 -0.00036202482
000380 61 cd 81 3d a2 dd ee 3d 36 d1 5d be 74 12 73 be
       0.06338001 0.11663367 -0.21661839 -0.23737508
000390 58 9b f7 bd a4 d1 33 3d 30 8a c1 bd c3 7d 46 3d
       -0.12090176 0.0439011 -0.09450185 0.04845978
0003a0 8b b8 d7 3b d3 4b 3a 3e 6a 9e e3 3d 1b 58 fd 3c
       0.0065832785 0.18192987 0.111141995 0.030925801
0003b0 56 20 fb bc 06 4b c7 3d 06 42 1f bd 1e 53 2d be
       -0.030655067 0.097311065 -0.038881324 -0.16926238
0003c0 37 92 c4 bd af c2 bc 3d 98 42 3a be 88 ee 86 bd
       -0.09598201 0.092168204 -0.18189466 -0.06588465
0003d0 80 10 1a 3b 79 8d 90 3d b7 31 0e be 4b 5b 64 3e
       0.002350837 0.07058234 -0.13886152 0.2230045
0003e0 70 60 6e 3d d5 3d 2b 3e 1c 60 f2 bc 56 53 94 bc
       0.05819744 0.16722806 -0.029586844 -0.018106144
0003f0 81 01 08 3e b3 bb fe bd 45 fe 9d bd 67 a4 18 bc
       0.13281824 -0.124381445 -0.07714514 -0.00931654

flow.flow_dim2.cdf.layers.3.bias f4 [64]
000000 6e 20 87 3d 97 51 79 3c 44 0b 80 bd 8c cf b9 3d
       0.06597982 0.015217206 -0.06252149 0.090727895
000010 9b 27 ba 3d 1c 64 08 be 57 e3 2e be f1 8f 99 bd
       0.090895854 -0.13319439 -0.17078911 -0.07498158
000020 b2 e0 40 be a4 d4 3e 3d 2e 61 0b 3d 81 3c 43 3d
       -0.18835714 0.04658951 0.034028225 0.047665123
000030 8e a0 3e be 76 00 70 bd 34 97 fb bd 6c 50 06 bd
       -0.18615934 -0.05859419 -0.12284699 -0.03279154
000040 54 6f 85 bd 1c 25 90 3d ed 92 54 bc 8c 9f ff 3c
       -0.06515375 0.07038328 -0.012974483 0.031204008
000050 04 82 04 bd e8 fc 41 be b9 37 24 be 86 49 3c bd
       -0.032350555 -0.18944132 -0.16036882 -0.045968555
000060 e6 16 07 be ee 96 1c be 01 fc 6b be 6d 3f d3 3d
       -0.13192329 -0.1529195 -0.2304535 0.10314832
000070 7f 4d ea 3d 4f e6 07 bc ec 7c f7 bd 4b a4 43 be
       0.114405625 -0.008294656 -0.12084374 -0.19105642
000080 24 59 02 bd dd d9 6d be 2e b7 3d be d6 b3 53 be
       -0.031823292 -0.2322764 -0.18526909 -0.2067407
000090 9d c1 fb bd 45 ac c6 bd 4d 40 bd bd c6 b3 a5 bd
       -0.12292788 -0.097008266 -0.0924078 -0.0809093
0000a0 d0 59 40 bd 79 22 33 be a0 42 00 3e 3a d7 4c be
       -0.046960652 -0.17493619 0.12525415 -0.20003977
0000b0 08 a3 18 be 80 53 5a be d0 7e 86 be e0 b8 c7 bc
       -0.14905941 -0.21320915 -0.26268625 -0.024380147
0000c0 94 7c 81 bd b9 c0 ec bc bb 06 2c bd 8d 51 bc bb
       -0.063225895 -0.028900491 -0.041998606 -0.0057470263
0000d0 7a b9 23 bd 13 f0 9a 3d 2f 90 5d be bd 37 00 be
       -0.039971806 0.07565322 -0.21637033 -0.12521262
0000e0 ba 76 64 bd 23 28 2a 3d da c1 3e be 2c f3 bb bc
       -0.05577729 0.041542184 -0.18628636 -0.022943102
0000f0 2f 02 9a 3d 15 96 7e 3b f7 87 f4 bd 9b 0b e2 bd
       0.07519948 0.003884678 -0.11939996 -0.1103737

flow.flow_dim2.cdf.layers.5.weight f4 [3, 64]
000000 fc 33 75 3d ff ee 35 bd 29 4e a3 bd 49 14 21 3e
       0.05986403 -0.044417378 -0.07973892 0.15730394
000010 88 ca 89 3c 52 8d 31 bd de 06 63 bd 3f cb 31 bd
       0.016820207 -0.043347664 -0.05542647 -0.04340672
000020 20 33 de 3d a4 12 8e 3d c3 fc 24 be 83 54 39 bd
       0.10849595 0.06937149 -0.16112046 -0.045246612
000030 1a e5 b2 bc 88 22 40 3e 1c 9e f5 bd c5 a1 26 3c
       -0.02183776 0.18763173 -0.119930476 0.010170405
000040 7e 3d cb bd 39 e3 e2 3d 7b aa db 3b a0 87 dc 3a
       -0.09923838 0.110784955 0.0067036725 0.0016825087
000050 1e 87 93 bb 68 8d 7c 3c f3 83 52 bd d3 0d d2 3c
       -0.004502191 0.015414573 -0.051395368 0.025641358
000060 29 92 b9 3c b0 4f 0a 3e 32 9a 07 be 2f 57 50 3e
       0.022652702 0.13506961 -0.13242415 0.20345758
000070 5c 2c 1c 3e 09 9f 5a 3d fe b6 39 bd 10 65 08 3e
       0.15251297 0.053374324 -0.04534053 0.13319802
000080 53 74 26 be ec fd 97 bd 58 7e 7a bc 83 84 ee ba
       -0.16255312 -0.07421479 -0.015288912 -0.001819745
000090 20 42 57 bc 0e 61 2f 3c bb 9d 3d bd e7 1a 3b bd
       -0.013138324 0.010704292 -0.046293 -0.045679953
0000a0 ee 41 4b bd 36 d3 ad 3d fe 7f ca 3d 57 5a a0 bd
       -0.049623422 0.08487551 0.09887694 -0.07829731
0000b0 99 53 e5 3d 81 3b e9 3d 73 2e 9c 3c a4 4c c3 bd
       0.111975856 0.113883026 0.019065117 -0.095361024
0000c0 56 eb fb 3c b3 23 61 bd 0f 17 89 bc 76 d7 dc bd
       0.030751865 -0.054965686 -0.016734628 -0.107832834
0000d0 ca 09 f5 bd 68 a2 29 be 9d 7f 15 3d 00 9c 01 3d
       -0.11964758 -0.1656586 0.036498655 0.031642914
0000e0 36 5f 0a be 01 f8 71 bc 99 3e aa 3d 11 4c 3e bd
       -0.13512883 -0.014768601 0.08312721 -0.04645926
0000f0 cc f4 68 bd e5 13 82 bd 0d 74 7f bc 36 b5 b7 3d
       -0.05687408 -0.06351451 -0.0155916335 0.0897011
000100 66 db ce bb 28 02 0c 3e 44 3f 5a 3d e1 49 dd 3b
       -0.0063127754 0.13672698 0.05328299 0.006753192
000110 b3 fa 8f 3d 80 1d c5 3d 46 2e 70 bd 84 1c e5 bc
       0.07030239 0.09624767 -0.05863788 -0.027967699
000120 75 62 e1 bd 26 2f 9e 3d 9a 08 8a 3d f5 da 6a 3d
       -0.11005107 0.077238366 0.06739922 0.05733772
000130 e2 72 2d 3d 25 19 68 3d 22 61 ab 3c dc 1a 84 3d
       0.04234589 0.056664605 0.02092034 0.064504355
000140 6d 37 0f bd 26 41 b1 3d 02 66 a1 bd e9 bb 64 be
       -0.034964968 0.08655004 -0.078807846 -0.22337307
000150 22 c3 37 3d d0 ae e5 bd 6c c2 70 3e 98 ef 60 3d
       0.044863828 -0.112149835 0.23511666 0.054915994
000160 3b 4f 2a 3e dc 0c 8c 3b 49 02 03 bc e0 c3 45 3b
       0.16631787 0.004273994 -0.00799615 0.0030176565
000170 2e c7 ad 3c 68 8f 85 bb 2a 2b 33 3d c4 5b 24 3b
       0.02121314 -0.0040759332 0.043742336 0.002507911
000180 2e dd 11 3d ae 9a 90 bd 0e 9b ec bd 45 d8 fe 3b
       0.035611324 -0.07060753 -0.11553012 0.007777246
000190 41 c1 e7 3c 29 a6 a6 3d 69 66 f4 3d e4 37 bf 3d
       0.028290393 0.08137161 0.11933596 0.09336832
0001a0 1a 01 79 3d 1e ca a3 bd be 2d 87 3c 4a 67 3c 3d
       0.060792066 -0.07997535 0.016501304 0.04599694
0001b0 e2 6e 7e 3c 4c 34 e5 bd 7a 1a 3e 3e f0 de e4 3d
       0.015529366 -0.111916155 0.18564788 0.111753345
0001c0 5f 19 63 3d 19 a4 80 3d 87 58 20 3d a4 9a 5d 3d
       0.055444118 0.06281299 0.039146926 0.054102555
0001d0 06 51 f8 3c 44 ad 27 bd 09 2c fe 3d 9a 7d 8b 3d
       0.030312072 -0.040936723 0.12410743 0.06811066
0001e0 72 76 cc 3c 82 c1 1e 3e ce 3a 42 3c 86 8f aa 3d
       0.024958823 0.15503505 0.01185484 0.08328156
0001f0 7b bd 92 be da cd 4b 3c a7 46 48 3d 1a 11 bb bc
       -0.28660187 0.012439216 0.048895504 -0.022835303
000200 84 db a5 3d b2 4e 90 3d b0 b0 8f bc e0 9d 4e 3c
       0.0809851 0.0704626 -0.017540306 0.0126108825
000210 66 2d a6 3d e0 4a b2 3c 52 f9 8c 3d 22 b6 81 3d
       0.08114128 0.021764219 0.068834916 0.06333567
000220 38 8e 60 3d ec dc 70 3d 88 81 ab bd e6 ff e0 bd
       0.05482313 0.058804438 -0.083743155 -0.10986309
000230 3e ab fd bd 2c 9e c8 3d 18 66 8e bd 86 48 c9 bd
       -0.123861775 0.09795794 -0.069530666 -0.09828286
000240 c0 ea 82 3c 10 33 c5 bc 28 8e 22 3d f4 b5 05 bd
       0.015981078 -0.0240722 0.039686352 -0.032644227
000250 3e 59 c6 3d 1e b8 f2 bd c0 47 fc bd 1a 7f dc 3d
       0.0968499 -0.11851524 -0.12318373 0.1076643
000260 3c 2d 5e bd 38 f1 fa 3c 00 96 3a 3d 70 b7 a0 3c
       -0.054242358 0.0306326 0.045553207 0.01961872
000270 d0 b3 a1 bd 40 15 5e 3c aa 9b a7 bd d2 f2 d7 3d
       -0.07895625 0.013554871 -0.081839874 0.10544361
000280 d0 16 9e 3c b6 e9 b8 3d ae d7 b4 3d 68 f1 59 3d
       0.019297987 0.09028952 0.088302 0.05320874
000290 24 d7 34 3d c2 5e 90 3d 4c 35 a3 bd 52 2b c1 3d
       0.044150487 0.070493236 -0.0796915 0.09432091
0002a0 88 20 dc bc 3e d9 c5 3d 80 1d 09 bc 7c 43 6d 3d
       -0.02687098 0.09660576 -0.00836885 0.057925686
0002b0 10 0a bd 3d 88 8d c2 3c e0 8a c6 bc 44 d5 50 3d
       0.09230435 0.023749128 -0.024236143 0.050984636
0002c0 44 19 ff bd f0 27 52 bc 30 7a d0 bc c6 0d c4 bd
       -0.12455991 -0.012826905 -0.025448889 -0.095729396
0002d0 60 e1 c1 bb 80 26 ee 3c 58 d7 f8 bd 10 ad d1 3d
       -0.0059167594 0.029071093 -0.121504486 0.10238087
0002e0 ee fc 90 3d 48 92 fc 3d 8c 12 5c bd 8a 72 b5 bd
       0.070794925 0.123325884 -0.053728625 -0.08859737
0002f0 d6 41 9c 3d d8 a0 f0 3d e2 35 95 bd e6 2f 96 bd
       0.07629745 0.117494285 -0.07285668 -0.07333355

flow.flow_dim2.cdf.layers.5.bias f4 [3]
000000 90 35 97 b9 82 0e f3 3d d8 58 9e bc
       -0.00028840872 0.118680015 -0.019329473
