Toy Experiment/results_affine.pt (torch, 124766 bytes, 42 tensors)

encoder.0.weight f4 [8, 2]
0	0x3e00e7a4	0.12588364
1	0x3e9386d6	0.2881381
2	0xbf2c5421	-0.6731587
3	0xbedbc160	-0.4292097
4	0xbeba1faf	-0.36352298
5	0x3dc999e8	0.098438084
6	0x3deff592	0.11716761
7	0x3ef05e96	0.46947163
8	0xbe1d9fa2	-0.15392926
9	0x3dc477b8	0.09593147
10	0xbdfaeb46	-0.12251906
11	0xbe6bb1cd	-0.23017044
12	0xbf159851	-0.5843554
13	0xbf0f3a37	-0.55948204
14	0xbec3ec7c	-0.3826636
15	0xbd851662	-0.0649841

encoder.0.bias f4 [8]
0	0x3ec7ee88	0.39049172
1	0x3f08e78b	0.53478307
2	0xbf13b74d	-0.5770157
3	0xbed56a39	-0.41682604
4	0x3eba0ad6	0.36336392
5	0x3efa7c2f	0.4892287
6	0xbd12d96d	-0.035851885
7	0x3edb9a56	0.42891186

encoder.1.weight f4 [8]
0	0x3f8babb7	1.0911778
1	0x3f8babb6	1.0911777
2	0x3f8babb5	1.0911776
3	0x3f8babb6	1.0911777
4	0x3f8babb6	1.0911777
5	0x3f68a892	0.9088222
6	0x3f68a891	0.9088221
7	0x3f68a893	0.90882224

encoder.1.bias f4 [8]
0	0x3dbabb7e	0.091177925
1	0xbdbabbe5	-0.09117869
2	0xbe06536d	-0.13117762
3	0x3dbabb77	0.09117787
4	0x3dbabb78	0.09117788
5	0xbe065342	-0.13117698
6	0xbdbabbae	-0.09117828
7	0xbe06536f	-0.13117765

encoder.1.running_mean f4 [8]
0	0x3eb2a041	0.3488789
1	0x3eb74075	0.35791364
2	0xbf4a8a8e	-0.7911767
3	0xbf0722fc	-0.52787757
4	0x3e81a1ec	0.2531885
5	0x3f02fcb6	0.51166856
6	0xbdfa5835	-0.122238554
7	0x3e873205	0.2640535

encoder.1.running_var f4 [8]
0	0x3d1756c8	0.036947995
1	0x3e57583f	0.21029757
2	0x3d152f42	0.03642202
3	0x3db2e262	0.08734585
4	0x3c0cd6c9	0.008596131
5	0x3ccf120b	0.025277158
6	0x3e6b0803	0.22952275
7	0x3d2f8aa4	0.042856827

encoder.3.weight f4 [2, 8]
0	0xbe17b889	-0.14816488
1	0xbdc008d9	-0.093766876
2	0x3e417dd4	0.18895656
3	0xbed69c00	-0.41915894
4	0xbeb51f07	-0.35375234
5	0xbe61fb47	-0.22068511
6	0xbe89b96b	-0.26899275
7	0x3e3279cc	0.17429274
8	0xbea4041d	-0.32034388
9	0xbe82031b	-0.25392994
10	0xbead2682	-0.33818442
11	0xbed837fb	-0.4223021
12	0xbe9859ef	-0.29756114
13	0x3e59d77b	0.21273606
14	0x3d885d48	0.06658417
15	0x3da4354e	0.080179796

encoder.3.bias f4 [2]
0	0x3e11c7b2	0.14236334
1	0xbd634fa6	-0.05549588

encoder.4.weight f4 [2]
0	0x3f5e6b21	0.86882216
1	0x3f5e6b22	0.8688222

encoder.4.bias f4 [2]
0	0xbe065370	-0.13117766
1	0xbdbabb72	-0.091177836

encoder.4.running_mean f4 [2]
0	0xbecaa9c4	-0.39582646
1	0xbf2bcc49	-0.6710859

encoder.4.running_var f4 [2]
0	0x3e571b82	0.21006587
1	0x3f3cec31	0.737979

cls.0.weight f4 [8, 2]
0	0xbe095982	-0.13413051
1	0xc00b90d0	-2.1807137
2	0xbefff230	-0.49989462
3	0xbfa5af9a	-1.2944214
4	0x3eb10bfd	0.3457946
5	0x402d9595	2.7122548
6	0x3b3f07dc	0.0029148972
7	0x3fa76db5	1.3080355
8	0x3eea9f54	0.45824683
9	0x3e9247a7	0.2857029
10	0x3f9cc63d	1.2247998
11	0xc02fe227	-2.7481782
12	0x3f838b21	1.0276834
13	0xc01594da	-2.3372102
14	0x3ee4675b	0.44610104
15	0xbe5dab34	-0.2164734

cls.0.bias f4 [8]
0	0x3faf8c6e	1.3714731
1	0x3fa7ed9e	1.311939
2	0x3f887e83	1.0663608
3	0x3ed67e30	0.41893148
4	0xbf63631a	-0.8882309
5	0x3fabd27a	1.3423607
6	0x3f9917bd	1.1960369
7	0xbed14f71	-0.4088092

cls.2.weight f4 [1, 8]
0	0xbfc832fa	-1.5640557
1	0xbf7c3d4f	-0.9853105
2	0x3fea9b88	1.8328714
3	0x3fb39701	1.4030458
4	0xbeeb46c6	-0.45952433
5	0xc044c83d	-3.0747216
6	0xbfc87020	-1.5659218
7	0xbc4a8697	-0.01236119

flow.model.0.unit_jacobian f4 [500, 1]
0	0x3f800000	1.0
1	0x3f800000	1.0
2	0x3f800000	1.0
3	0x3f800000	1.0
4	0x3f800000	1.0
5	0x3f800000	1.0
6	0x3f800000	1.0
7	0x3f800000	1.0
8	0x3f800000	1.0
9	0x3f800000	1.0
10	0x3f800000	1.0
11	0x3f800000	1.0
12	0x3f800000	1.0
13	0x3f800000	1.0
14	0x3f800000	1.0
15	0x3f800000	1.0
16	0x3f800000	1.0
17	0x3f800000	1.0
18	0x3f800000	1.0
19	0x3f800000	1.0
20	0x3f800000	1.0
21	0x3f800000	1.0
22	0x3f800000	1.0
23	0x3f800000	1.0
24	0x3f800000	1.0
25	0x3f800000	1.0
26	0x3f800000	1.0
27	0x3f800000	1.0
28	0x3f800000	1.0
29	0x3f800000	1.0
30	0x3f800000	1.0
31	0x3f800000	1.0
32	0x3f800000	1.0
33	0x3f800000	1.0
34	0x3f800000	1.0
35	0x3f800000	1.0
36	0x3f800000	1.0
37	0x3f800000	1.0
38	0x3f800000	1.0
39	0x3f800000	1.0
40	0x3f800000	1.0
41	0x3f800000	1.0
42	0x3f800000	1.0
43	0x3f800000	1.0
44	0x3f800000	1.0
45	0x3f800000	1.0
46	0x3f800000	1.0
47	0x3f800000	1.0
48	0x3f800000	1.0
49	0x3f800000	1.0
50	0x3f800000	1.0
51	0x3f800000	1.0
52	0x3f800000	1.0
53	0x3f800000	1.0
54	0x3f800000	1.0
55	0x3f800000	1.0
56	0x3f800000	1.0
57	0x3f800000	1.0
58	0x3f800000	1.0
59	0x3f800000	1.0
60	0x3f800000	1.0
61	0x3f800000	1.0
62	0x3f800000	1.0
63	0x3f800000	1.0
64	0x3f800000	1.0
65	0x3f800000	1.0
66	0x3f800000	1.0
67	0x3f800000	1.0
68	0x3f800000	1.0
69	0x3f800000	1.0
70	0x3f800000	1.0
71	0x3f800000	1.0
72	0x3f800000	1.0
73	0x3f800000	1.0
74	0x3f800000	1.0
75	0x3f800000	1.0
76	0x3f800000	1.0
77	0x3f800000	1.0
78	0x3f800000	1.0
79	0x3f800000	1.0
80	0x3f800000	1.0
81	0x3f800000	1.0
82	0x3f800000	1.0
83	0x3f800000	1.0
84	0x3f800000	1.0
85	0x3f800000	1.0
86	0x3f800000	1.0
87	0x3f800000	1.0
88	0x3f800000	1.0
89	0x3f800000	1.0
90	0x3f800000	1.0
91	0x3f800000	1.0
92	0x3f800000	1.0
93	0x3f800000	1.0
94	0x3f800000	1.0
95	0x3f800000	1.0
96	0x3f800000	1.0
97	0x3f800000	1.0
98	0x3f800000	1.0
99	0x3f800000	1.0
100	0x3f800000	1.0
101	0x3f800000	1.0
102	0x3f800000	1.0
103	0x3f800000	1.0
104	0x3f800000	1.0
105	0x3f800000	1.0
106	0x3f800000	1.0
107	0x3f800000	1.0
108	0x3f800000	1.0
109	0x3f800000	1.0
110	0x3f800000	1.0
111	0x3f800000	1.0
112	0x3f800000	1.0
113	0x3f800000	1.0
114	0x3f800000	1.0
115	0x3f800000	1.0
116	0x3f800000	1.0
117	0x3f800000	1.0
118	0x3f800000	1.0
119	0x3f800000	1.0
120	0x3f800000	1.0
121	0x3f800000	1.0
122	0x3f800000	1.0
123	0x3f800000	1.0
124	0x3f800000	1.0
125	0x3f800000	1.0
126	0x3f800000	1.0
127	0x3f800000	1.0
128	0x3f800000	1.0
129	0x3f800000	1.0
130	0x3f800000	1.0
131	0x3f800000	1.0
132	0x3f800000	1.0
133	0x3f800000	1.0
134	0x3f800000	1.0
135	0x3f800000	1.0
136	0x3f800000	1.0
137	0x3f800000	1.0
138	0x3f800000	1.0
139	0x3f800000	1.0
140	0x3f800000	1.0
141	0x3f800000	1.0
142	0x3f800000	1.0
143	0x3f800000	1.0
144	0x3f800000	1.0
145	0x3f800000	1.0
146	0x3f800000	1.0
147	0x3f800000	1.0
148	0x3f800000	1.0
149	0x3f800000	1.0
150	0x3f800000	1.0
151	0x3f800000	1.0
152	0x3f800000	1.0
153	0x3f800000	1.0
154	0x3f800000	1.0
155	0x3f800000	1.0
156	0x3f800000	1.0
157	0x3f800000	1.0
158	0x3f800000	1.0
159	0x3f800000	1.0
160	0x3f800000	1.0
161	0x3f800000	1.0
162	0x3f800000	1.0
163	0x3f800000	1.0
164	0x3f800000	1.0
165	0x3f800000	1.0
166	0x3f800000	1.0
167	0x3f800000	1.0
168	0x3f800000	1.0
169	0x3f800000	1.0
170	0x3f800000	1.0
171	0x3f800000	1.0
172	0x3f800000	1.0
173	0x3f800000	1.0
174	0x3f800000	1.0
175	0x3f800000	1.0
176	0x3f800000	1.0
177	0x3f800000	1.0
178	0x3f800000	1.0
179	0x3f800000	1.0
180	0x3f800000	1.0
181	0x3f800000	1.0
182	0x3f800000	1.0
183	0x3f800000	1.0
184	0x3f800000	1.0
185	0x3f800000	1.0
186	0x3f800000	1.0
187	0x3f800000	1.0
188	0x3f800000	1.0
189	0x3f800000	1.0
190	0x3f800000	1.0
191	0x3f800000	1.0
192	0x3f800000	1.0
193	0x3f800000	1.0
194	0x3f800000	1.0
195	0x3f800000	1.0
196	0x3f800000	1.0
197	0x3f800000	1.0
198	0x3f800000	1.0
199	0x3f800000	1.0
200	0x3f800000	1.0
201	0x3f800000	1.0
202	0x3f800000	1.0
203	0x3f800000	1.0
204	0x3f800000	1.0
205	0x3f800000	1.0
206	0x3f800000	1.0
207	0x3f800000	1.0
208	0x3f800000	1.0
209	0x3f800000	1.0
210	0x3f800000	1.0
211	0x3f800000	1.0
212	0x3f800000	1.0
213	0x3f800000	1.0
214	0x3f800000	1.0
215	0x3f800000	1.0
216	0x3f800000	1.0
217	0x3f800000	1.0
218	0x3f800000	1.0
219	0x3f800000	1.0
220	0x3f800000	1.0
221	0x3f800000	1.0
222	0x3f800000	1.0
223	0x3f800000	1.0
224	0x3f800000	1.0
225	0x3f800000	1.0
226	0x3f800000	1.0
227	0x3f800000	1.0
228	0x3f800000	1.0
229	0x3f800000	1.0
230	0x3f800000	1.0
231	0x3f800000	1.0
232	0x3f800000	1.0
233	0x3f800000	1.0
234	0x3f800000	1.0
235	0x3f800000	1.0
236	0x3f800000	1.0
237	0x3f800000	1.0
238	0x3f800000	1.0
239	0x3f800000	1.0
240	0x3f800000	1.0
241	0x3f800000	1.0
242	0x3f800000	1.0
243	0x3f800000	1.0
244	0x3f800000	1.0
245	0x3f800000	1.0
246	0x3f800000	1.0
247	0x3f800000	1.0
248	0x3f800000	1.0
249	0x3f800000	1.0
250	0x3f800000	1.0
251	0x3f800000	1.0
252	0x3f800000	1.0
253	0x3f800000	1.0
254	0x3f800000	1.0
255	0x3f800000	1.0

flow.model.0.affine.params.layers.0.weight f4 [64, 1]
0	0x3f404d4c	0.75117946
1	0x3e94941d	0.2901925
2	0xbf8018e9	-1.0007602
3	0x3e3b9148	0.18317139
4	0xbf377f32	-0.7167846
5	0xbf573d1a	-0.8407761
6	0x3f4c1cca	0.7973143
7	0x3f2b4f6a	0.6691805
8	0xbf90795e	-1.1287038
9	0x3e8e83e0	0.27834988
10	0xbd18b54f	-0.037282284
11	0xbe82f03e	-0.25573915
12	0xbebbb03e	-0.366579
13	0x3ef3936e	0.47573417
14	0xbf2ef8a7	-0.68348163
15	0x3e711097	0.23541485
16	0x3f18cdba	0.59688914
17	0x3f15ae7f	0.58469385
18	0x3f014d7c	0.50508857
19	0xbf8f78ae	-1.1208704
20	0xbf047c2e	-0.51751983
21	0x3ebc7ca1	0.36813834
22	0x3e99d871	0.30047944
23	0xbf261f32	-0.6489135
24	0xbef822ed	-0.48464146
25	0x3f841635	1.0319277
26	0x3f0aea77	0.54264015
27	0xbeb08fb0	-0.34484625
28	0xbeaf8bb5	-0.34286276
29	0xbf52489c	-0.82142043
30	0x3de7d73d	0.1132035
31	0xbf297100	-0.6618805
32	0xbf23e2c5	-0.640179
33	0xbe3ebf5b	-0.18627684
34	0x3d718700	0.058966637
35	0xbe8e8444	-0.27835286
36	0x3f00901f	0.5021991
37	0xbf0471c2	-0.5173608
38	0x3f7fa0dd	0.9985483
39	0x3f0ddb01	0.554123
40	0xbf4089f2	-0.7521049
41	0xbeae1ca9	-0.3400624
42	0x3e3487f9	0.17629994
43	0x3d6024c2	0.054722555
44	0x3ebc9892	0.36835152
45	0x3e9a3d59	0.3012493
46	0xbd001dea	-0.03127853
47	0xbeb6a826	-0.35675162
48	0x3ec396cf	0.38200995
49	0xbf5e39e3	-0.8680708
50	0xbf2f1314	-0.68388486
51	0xbec3528b	-0.38148913
52	0xbf1e47c7	-0.61828274
53	0xbe846e73	-0.25865516
54	0xbf303e52	-0.68845093
55	0xbe9b97de	-0.30389303
56	0x3e9c206f	0.30493495
57	0xbf0f6f03	-0.56028765
58	0xbe11ead2	-0.14249733
59	0x3f4e9975	0.80702907
60	0xbe6f97d4	-0.23397762
61	0xbd81d09c	-0.06338617
62	0xbe5eaa36	-0.21744618
63	0x3eaac838	0.3335588

flow.model.0.affine.params.layers.0.bias f4 [64]
0	0x3f0b6eeb	0.5446612
1	0x3f84eb14	1.038424
2	0x3f0b3b97	0.543878
3	0x3f8533d5	1.0406443
4	0xbe276c66	-0.16349944
5	0xbf446389	-0.7671438
6	0xbf10b4a9	-0.56525666
7	0x3f16f858	0.5897269
8	0xbdc80238	-0.09766048
9	0xbebb532a	-0.36586887
10	0xbf229837	-0.6351351
11	0xbf8375b8	-1.02703
12	0xbf40b962	-0.7528287
13	0xbde4ad5e	-0.1116588
14	0x3eea19cd	0.4572281
15	0x3ed1a53d	0.4094638
16	0xbf5f8d92	-0.87325394
17	0x3f0858bd	0.53260404
18	0xbf30fb03	-0.69133013
19	0xbe9aecd4	-0.3025881
20	0xbea0eb40	-0.31429482
21	0xbe914d55	-0.28379312
22	0xbd857567	-0.06516533
23	0xbf4423e0	-0.7661724
24	0xbf3b780a	-0.7323004
25	0xbd85bcc8	-0.06530148
26	0xbda03f98	-0.078246295
27	0xbea56d08	-0.32309747
28	0x3e922fd8	0.28552127
29	0xbf4f12ca	-0.80888045
30	0x3d82702b	0.063690506
31	0x3f787914	0.9705975
32	0xbea22856	-0.316714
33	0x3f45965a	0.77182543
34	0x3e8abd23	0.27097425
35	0xbf4fb03d	-0.81128293
36	0x3f0aa0fd	0.541519
37	0xbcc66108	-0.02421619
38	0xbea165c2	-0.31522948
39	0x3f2b2137	0.66847557
40	0xbf2d4a8f	-0.6769189
41	0x3c840582	0.016115908
42	0xbdf20dfe	-0.11819075
43	0x3f153b3b	0.58293504
44	0x3ebd9ae7	0.37032244
45	0x3eb2db17	0.34932777
46	0x3e86225b	0.26198086
47	0xbe18e136	-0.14929661
48	0xbe9a5c0a	-0.30148345
49	0xbf3b9f8e	-0.73290336
50	0x3ee6bdb6	0.45066613
51	0x3f29ad5d	0.66280156
52	0x3f17d1e2	0.5930463
53	0xbf1d3c3b	-0.6142003
54	0x3e33feef	0.17577718
55	0xbf4bce02	-0.7961122
56	0xbed6af87	-0.41930792
57	0xbefba978	-0.49152732
58	0x3e804a41	0.2505665
59	0xbf013652	-0.5047351
60	0xbde76a5c	-0.11299583
61	0xbd492769	-0.04910985
62	0x3f0dae8f	0.5534448
63	0xbf1fef47	-0.62474483

flow.model.0.affine.params.layers.1.weight f4 [64, 64]
0	0xbe353d59	-0.17699184
1	0xbe27b0d3	-0.16376047
2	0x3e5fead7	0.21866928
3	0xbe0b60a8	-0.1361109
4	0x3e495544	0.19661433
5	0x3e0ba6db	0.13637869
6	0xbdec3c50	-0.11534941
7	0xbdbca357	-0.09210842
8	0x3d88209a	0.06646843
9	0x3ddada14	0.10686126
10	0x3d8046af	0.06263482
11	0x3db8eeff	0.0902996
12	0x3ddb656b	0.10712703
13	0xbe6a72a6	-0.22895297
14	0x3d86796c	0.06566128
15	0x3c1fe2b1	0.009758637
16	0xbe6e3431	-0.23262097
17	0xbdcd1d62	-0.1001537
18	0xbbf682c9	-0.007522915
19	0x3e0b9ac3	0.13633256
20	0x3dc1fb09	0.09471709
21	0xbe75406b	-0.23950355
22	0xbd8dd5b4	-0.06925526
23	0x3b0c6e2d	0.0021427975
24	0x3d64204d	0.055694867
25	0xbe314578	-0.17311656
26	0xbde0a504	-0.10968974
27	0x3dbd885a	0.092545226
28	0x3e6fe6b3	0.23427849
29	0x3ddab0e4	0.106782705
30	0x3e5003fc	0.2031402
31	0x3e54a005	0.20764168
32	0x3c4715f6	0.012151232
33	0xbd0fd4a0	-0.035114884
34	0xbe37d94e	-0.17953989
35	0x3d1c7758	0.038199753
36	0xbd5edfba	-0.05441258
37	0x3e07a185	0.13245209
38	0xbd192fe2	-0.03739918
39	0xbe06923f	-0.13141726
40	0x3dbb2465	0.09137801
41	0x3e483902	0.19552997
42	0xbcf35efa	-0.029708374
43	0xba531e0e	-0.000805349
44	0xbe473656	-0.19454321
45	0xbdb73442	-0.08945514
46	0xbde641c2	-0.11243011
47	0x3ccf9e1d	0.025343949
48	0xbdead0d1	-0.1146561
49	0x3e47362d	0.1945426
50	0x3dc1d171	0.09463776
51	0xbe295be2	-0.16538957
52	0x3dadf928	0.084947884
53	0xbd0600d3	-0.03271563
54	0x3e17261b	0.1476063
55	0x3cff23ba	0.031144965
56	0x3bfe4b31	0.0077604284
57	0x3c9d0079	0.019165264
58	0xbc9e2ce4	-0.019308515
59	0xbd8514c3	-0.064981006
60	0x3e3f9c66	0.18712005
61	0xbd3bc183	-0.045838844
62	0xbe081ce6	-0.13292274
63	0x3d666326	0.0562469
64	0xbdc104b1	-0.09424723
65	0xbce8d7cb	-0.02842321
66	0x3e002b1d	0.12516446
67	0xbe42e368	-0.19032061
68	0x3d04c9d8	0.032419056
69	0x3c54e2e2	0.012993546
70	0xbd836ca8	-0.06417209
71	0xbe4e2802	-0.2013245
72	0xbca60a84	-0.020268686
73	0x3e7690d3	0.24078684
74	0x3d4ccde7	0.05000105
75	0x3def8754	0.11695734
76	0x3e2aff28	0.16698897
77	0xbdb293e4	-0.08719614
78	0x3be79a0a	0.0070679234
79	0xbe6dca55	-0.23221715
80	0x3c0a9051	0.008457259
81	0xbde2f68c	-0.11082181
82	0x3c4d3591	0.012524978
83	0x3d49d2fd	0.04927348
84	0x3e2c05a3	0.16799025
85	0xbdf5463e	-0.11976288
86	0xbdc61e52	-0.09673752
87	0x3d6178b6	0.05504676
88	0x3e319d7e	0.17345235
89	0xbd5396c9	-0.05165747
90	0xbdc003b6	-0.09375708
91	0x3dd31323	0.103063844
92	0x3c676af0	0.014124617
93	0x3e5ed7ce	0.2176201
94	0x3d1c242e	0.03812044
95	0x3e11cda9	0.1423861
96	0x3d4955ee	0.049154215
97	0xbe4414e3	-0.19148593
98	0xbddea946	-0.1087213
99	0x3d87aba3	0.06624534
100	0xbdd1aab5	-0.10237638
101	0x3ded0207	0.11572652
102	0xbe3c67a7	-0.18398915
103	0xbde206ff	-0.11036491
104	0x3e3cd818	0.18441808
105	0x3e10088b	0.14065759
106	0x3dec6cd2	0.11544193
107	0xbe6f4226	-0.23365077
108	0xbe1a0e50	-0.15044522
109	0xbdb3bd4c	-0.0877634
110	0xbe35078a	-0.17678657
111	0x3e0df592	0.13863209
112	0xbc01f99c	-0.007933047
113	0x3d86fac3	0.06590798
114	0x3dbd41e5	0.09241084
115	0xbda2cbc1	-0.07949019
116	0x3dcecc27	0.10097533
117	0x3e11047a	0.14161864
118	0x3ddab2e1	0.1067865
119	0x3d06cb89	0.03290895
120	0x3e106287	0.14100085
121	0x3e5ef5fe	0.21773526
122	0xbc97dce6	-0.01853795
123	0xbc9112f5	-0.017709235
124	0x3ddd0d0e	0.107935056
125	0xbd9513b7	-0.07279151
126	0xbe449852	-0.1919873
127	0x3ce2079c	0.027591519
128	0xbc864632	-0.016390894
129	0xbbbd32ae	-0.0057738638
130	0xbbaecb5c	-0.005334301
131	0xbe5e1770	-0.21688628
132	0xbd26d130	-0.04072684
133	0x3b5c5b04	0.0033623585
134	0x3e591130	0.21197963
135	0x3e4d3dde	0.20043132
136	0x3be96eab	0.0071237884
137	0x3dc8cc3b	0.09804579
138	0x3daea016	0.08526628
139	0x3e6eb53a	0.2331132
140	0x3e4c5506	0.19954309
141	0x3c489a15	0.012243767
142	0x3d1d1ec9	0.038359437
143	0x3e186744	0.14883143
144	0x3e499c4f	0.19688533
145	0x3c529a2d	0.012854141
146	0x3e280e7b	0.16411774
147	0xbe08ff2a	-0.13378587
148	0x3bcfc3c9	0.006340478
149	0x3d99097e	0.074725136
150	0x3e0a1ca2	0.13487485
151	0xbd8d1b3a	-0.06889959
152	0x3e394266	0.18091735
153	0x3d3fed8f	0.046857413
154	0x3e1c0788	0.15237248
155	0xbe371d6c	-0.17882317
156	0xbdb5ff3b	-0.08886572
157	0xbe33d610	-0.17562127
158	0xbd17b257	-0.037035313
159	0xbe6d9d4a	-0.23204532
160	0x3bf51a26	0.007479924
161	0xbd7b6157	-0.061372127
162	0xbc33d2d6	-0.01097556
163	0x3e6b2298	0.22962415
164	0xbca71466	-0.020395469
165	0xbe350288	-0.17676747
166	0x3d8b277b	0.0679464
167	0x3c238b74	0.009981979
168	0xbb8c1e41	-0.0042760675
169	0xbe3aa9a7	-0.1822878
170	0xbd22fffe	-0.039794914
171	0xbe7fde25	-0.24987085
172	0x3c98fb25	0.018674443
173	0x3e46f89a	0.19430771
174	0xbccf409c	-0.025299363
175	0xbb141c74	-0.0022599967
176	0x3e4a4acf	0.197551
177	0x3ca4cf77	0.020118458
178	0xbddbe12c	-0.107363075
179	0xbd964daf	-0.07339036
180	0xbc9873f6	-0.018609982
181	0x3e2ecbfe	0.17070004
182	0x3d0adaf8	0.03390023
183	0x3e481c33	0.19542007
184	0x3e51da80	0.20493507
185	0xbe0a3573	-0.13496952
186	0xbd875c17	-0.066093616
187	0x3dc0cc94	0.0941402
188	0xbdf262a0	-0.118352175
189	0xbe0de8b7	-0.13858305
190	0xbe4b4ae4	-0.19852787
191	0x3d03cb3d	0.032176245
192	0x3d64a43f	0.0558207
193	0xbd8c3494	-0.06845966
194	0xbdba8a50	-0.09108412
195	0xbe5b67a6	-0.21426257
196	0x3da98b9a	0.0827858
197	0x3dd7f394	0.10544506
198	0x3dab590f	0.08366596
199	0xbdad7183	-0.08468916
200	0x3da6342d	0.081154205
201	0x3e16f5f9	0.14742269
202	0x3d2ffac8	0.042963773
203	0x3e8b6402	0.27224737
204	0x3da4f37b	0.08054253
205	0x3cbd020a	0.023072261
206	0xbc366466	-0.011132335
207	0xbda8ee88	-0.08248621
208	0x3d9b9225	0.07596234
209	0x3da20881	0.07911778
210	0x3dce0d7e	0.10061167
211	0xbdafb4ab	-0.085793816
212	0xbc4fbcc1	-0.01267928
213	0x3d154060	0.036438346
214	0x3d4295a4	0.04750599
215	0x3d3434ce	0.04399567
216	0x3dfba657	0.12287586
217	0x3d6d57cb	0.057945054
218	0xbd329e93	-0.04360826
219	0x3cedd436	0.029031854
220	0xbceaf589	-0.028681533
221	0x3db86b9f	0.09004902
222	0xbd66c661	-0.056341533
223	0xbde65754	-0.11247125
224	0xbd7c14d2	-0.061543293
225	0xbe2b077e	-0.16702077
226	0xbdfc3e36	-0.12316553
227	0x3db08a67	0.08620148
228	0x3c97e94a	0.018543858
229	0x3dd04ba6	0.10170679
230	0x3d9a5b70	0.075369716
231	0xbded9b1b	-0.1160185
232	0xbca10455	-0.019655386
233	0xbd1140ca	-0.03546218
234	0xbac0eecf	-0.0014719608
235	0xbda2a1ec	-0.079410404
236	0xbe136b22	-0.14396337
237	0xbe16fae8	-0.1474415
238	0xbe7fbbb8	-0.24973953
239	0x3b92e512	0.0044828737
240	0x3e205172	0.15656069
241	0xbdbcb4bf	-0.09214162
242	0x3cba6fd3	0.0227584
243	0xbe198c1f	-0.14994858
244	0xbd5508f1	-0.05201048
245	0x3c1c6032	0.009544419
246	0xbe26371f	-0.16231965
247	0x3e80c9ed	0.25154057
248	0x3e27caad	0.16385908
249	0x3e190ee8	0.14947093
250	0xbd2e417e	-0.042542927
251	0xbb3f0f0b	-0.0029153253
252	0x3dc951bc	0.09830043
253	0xbd91f3c4	-0.07126573
254	0xbd4875c2	-0.048940428
255	0x3ab57cfe	0.0013846455

flow.model.0.affine.params.layers.1.bias f4 [64]
0	0xbd9b1e66	-0.075741574
1	0xbdde11e4	-0.10843256
2	0xbe6c4e1f	-0.23076676
3	0xbe25df44	-0.1619845
4	0xbe226890	-0.158602
5	0xbe0051f3	-0.12531261
6	0xbe2394fd	-0.15974803
7	0x3c594d40	0.013263047
8	0xbd1ee5e4	-0.03879346
9	0xbd502a15	-0.050821383
10	0xbe4b3c7b	-0.1984729
11	0xbddb3445	-0.10703329
12	0xbc7d487f	-0.015459179
13	0xbe40c813	-0.18826322
14	0xbdc211e8	-0.094760716
15	0xbd08dfd5	-0.033416588
16	0x3dc237f1	0.09483326
17	0xbd9ca0ce	-0.076478586
18	0xbd267f72	-0.040648885
19	0x3c3c6ecb	0.0115010245
20	0xbc081d4f	-0.008307769
21	0xbe037890	-0.1283896
22	0xbbb432a6	-0.005499202
23	0x3df35d57	0.118830375
24	0xbdd7363c	-0.10508391
25	0xbd9eff40	-0.07763529
26	0x3e56e062	0.20984033
27	0xbc8f27dc	-0.017475061
28	0xbe77a65b	-0.24184553
29	0xbdab34d5	-0.08359686
30	0xbe453c60	-0.19261312
31	0xbd6efcf8	-0.05834672
32	0x3d3e4ba2	0.046458848
33	0xbe54def3	-0.20788173
34	0xbe0488cd	-0.1294281
35	0xbb996026	-0.0046806512
36	0xbc0b8093	-0.008514541
37	0xbdc07a86	-0.093983695
38	0x3dabe2da	0.08392878
39	0xbde80dfc	-0.11330792
40	0xbe732fad	-0.23748656
41	0xbdd9a708	-0.10627562
42	0xbd06f18a	-0.032945193
43	0xbd66388e	-0.05620628
44	0xbe9183fa	-0.28421003
45	0xbe57b2f4	-0.21064359
46	0x3beba6af	0.007191501
47	0xbd50886b	-0.05091135
48	0x3cb3a53c	0.021929376
49	0xbdf8248f	-0.12116348
50	0xbe02fafb	-0.12791054
51	0xbe132dde	-0.14372966
52	0xbd887745	-0.06663374
53	0xbe8003f5	-0.2500302
54	0xbd8e0481	-0.06934453
55	0x3cc36cae	0.023855533
56	0xbe21984f	-0.15780757
57	0xbdecbbef	-0.11559283
58	0xbdb2295a	-0.086992934
59	0xbe7bbbca	-0.24583355
60	0xbe58732d	-0.21137686
61	0x3ddd196a	0.10795863
62	0xbe56167a	-0.20907012
63	0x3c706b2b	0.014673988

flow.model.0.affine.params.layers.3.weight f4 [64, 64]
0	0xbe56e57b	-0.20985977
1	0x3dc6486c	0.09681782
2	0xbce92c88	-0.028463617
3	0xbc8e69b8	-0.017384395
4	0x3d01264c	0.031530663
5	0xbd183ce4	-0.037167445
6	0xbd2e86e4	-0.04260911
7	0xbdfb2136	-0.12262194
8	0x3dc0db56	0.09416835
9	0x3de7affc	0.11312863
10	0xbeb74498	-0.3579452
11	0xbd296648	-0.04135731
12	0xbdc1a2a4	-0.09454849
13	0xbd4fd578	-0.05074069
14	0xbe0dc9b5	-0.13846476
15	0xbe2b5a57	-0.1673368
16	0xbc1ee890	-0.009699002
17	0x3d5aad14	0.053387716
18	0x3d18e770	0.03733009
19	0xbe2a25f9	-0.16616048
20	0xbdcdb8c0	-0.10045004
21	0x3d1e434c	0.038638398
22	0xbdf274b2	-0.11838664
23	0xbda85cc4	-0.08220819
24	0xbe8fc222	-0.280778
25	0xbc478910	-0.012178674
26	0xbeb45dbe	-0.3522777
27	0x3b4be040	0.0031109005
28	0x3ca37d00	0.019957066
29	0xbe914fa6	-0.2838108
30	0x3d2611a0	0.040544152
31	0x3ddfb2e2	0.10922791
32	0xbcaeea08	-0.02135183
33	0xbd885712	-0.06657232
34	0xbde2c5a6	-0.11072855
35	0xbea6b0eb	-0.32556853
36	0xbe9b2b2d	-0.30306378
37	0xbdbd4114	-0.09240928
38	0xbd494b00	-0.04914379
39	0xbe296aee	-0.16544697
40	0x3d203754	0.039115265
41	0x3de6bd2c	0.112665504
42	0xbde1706a	-0.110077694
43	0xbd385fec	-0.045013353
44	0xbd48824c	-0.048952386
45	0x3c8c2118	0.017105624
46	0xbdcbd926	-0.09953527
47	0x3d8b3e46	0.06798987
48	0xbe83056e	-0.2559008
49	0xbdd65b30	-0.104666114
50	0xbea831d3	-0.32850513
51	0xbdb066c8	-0.08613354
52	0x3d0cb96c	0.03435652
53	0x3dc43df6	0.095821306
54	0xbe099b52	-0.13438156
55	0xbe897c39	-0.26852587
56	0xbd94b2fa	-0.072606996
57	0xbd633e54	-0.055479363
58	0xbdaee0ea	-0.08538993
59	0xbd040134	-0.03222771
60	0xbde73454	-0.11289278
61	0xbe2b6187	-0.16736422
62	0xbdf0f22c	-0.117649406
63	0xbe9f917b	-0.3116568
64	0xbbeee4c4	-0.0072904546
65	0xbe661215	-0.22467835
66	0x3e198f4b	0.14996068
67	0x3df0869b	0.11744424
68	0xbc048d4a	-0.008090327
69	0xbdba4d73	-0.090968035
70	0xbdff6f86	-0.12472443
71	0x3d924998	0.07142943
72	0xbb872de0	-0.004125342
73	0xbd21a214	-0.03946121
74	0xbdb9e60d	-0.09077082
75	0x3e17af32	0.14812925
76	0x3dcbc8f5	0.09950439
77	0xbda130d3	-0.078706406
78	0xbd00fd5b	-0.03149162
79	0xbd946f80	-0.072478294
80	0x3dad6460	0.08466411
81	0xbd1e7a94	-0.03869112
82	0xbdcf1352	-0.10111107
83	0xbd346df7	-0.044050183
84	0x3b840e4e	0.0040300256
85	0xbe1635b5	-0.14668925
86	0xbd7a883c	-0.06116508
87	0xbd2f75a4	-0.0428368
88	0xbd866222	-0.06561686
89	0xbd8f61a7	-0.070010476
90	0xbe1a164d	-0.1504757
91	0x3d3d6267	0.046236422
92	0x3d287cc4	0.04113461
93	0xbd9b6a04	-0.0758858
94	0xbd224361	-0.03961504
95	0xbe4daa00	-0.20084381
96	0x3de408e3	0.111345075
97	0x3e2774c1	0.16353132
98	0x3e38abf3	0.18034343
99	0xbd1ff454	-0.03905137
100	0xbdfe1127	-0.12405615
101	0xbbf5dce0	-0.007503137
102	0x3df79eda	0.120908454
103	0x39979137	0.00028909158
104	0xbe391dec	-0.1807782
105	0xbcf18afa	-0.029485215
106	0x3d0817fb	0.033225995
107	0xbdeafc11	-0.11473859
108	0xbc8ac9d4	-0.016941942
109	0x3e13c726	0.14431438
110	0xbdee6f73	-0.11642351
111	0xbcf79df4	-0.030226685
112	0xbe80a718	-0.25127482
113	0x3e1bbea1	0.15209438
114	0xbdbdbc34	-0.092644125
115	0xbd2f6201	-0.042818073
116	0xbd391601	-0.045187
117	0x3ddf77cd	0.10911522
118	0xbe446a99	-0.19181289
119	0xbe280888	-0.16409504
120	0x3dfdb9b3	0.12388935
121	0xbd9f9884	-0.07792762
122	0xbda9dc5a	-0.08293982
123	0xbdea8469	-0.114510365
124	0xbe0fed7c	-0.14055437
125	0xbd9c50fa	-0.076326326
126	0xbe59d263	-0.21271662
127	0xbb7b0735	-0.0038303856
128	0xbdc45e63	-0.09588315
129	0xbd07aa56	-0.03312143
130	0x3e5bb4ad	0.21455641
131	0x3c180156	0.009277662
132	0xbd2e1a84	-0.042505756
133	0x3c67d6c7	0.014150328
134	0xbd3d4ac9	-0.0462139
135	0x3d95d5e6	0.073161885
136	0xbca0d408	-0.019632354
137	0x3d04efc3	0.032455217
138	0xbe14920a	-0.14508834
139	0xbcb7d93f	-0.022442458
140	0xbd23e76d	-0.040015627
141	0xbdad7037	-0.08468669
142	0xbe81f7d6	-0.25384396
143	0x3be55728	0.006998915
144	0x3e2aae2c	0.16668004
145	0x3d9f95b1	0.07792223
146	0xbdbcbe25	-0.09215955
147	0xbda81ec4	-0.08208993
148	0x3dc8f9a5	0.09813241
149	0xbe37b8fe	-0.17941663
150	0xbe640488	-0.22267354
151	0xbbae848b	-0.005325859
152	0xbe11d8dd	-0.14242883
153	0xbd1bdb82	-0.038051136
154	0xbd14f9bf	-0.03637099
155	0x3c985bd1	0.018598469
156	0x3d617ca8	0.055050522
157	0xbdafb2c7	-0.08579021
158	0x3bc3930e	0.005968458
159	0xbc8dacca	-0.017294306
160	0x3d8c1a8f	0.06841003
161	0xbd3b092c	-0.045663044
162	0xbc05dbf6	-0.008170119
163	0xbe1d8218	-0.15381658
164	0xbdccd2cc	-0.10001144
165	0xbddd7684	-0.10813621
166	0x3d94bb10	0.07262242
167	0xbe804d59	-0.25059012
168	0xbcb56419	-0.022142457
169	0xbc37907e	-0.011203883
170	0xbce0ceab	-0.027442297
171	0xbddb4b46	-0.10707717
172	0x3c900aa7	0.017583204
173	0xbdcd42d7	-0.10022514
174	0xbe2b6ee5	-0.16741522
175	0xbe21dad0	-0.15806127
176	0xbe512817	-0.2042545
177	0xbe1a3fdf	-0.15063427
178	0xbe2af6cf	-0.16695713
179	0xbdb88942	-0.09010555
180	0xbcb10d72	-0.021612857
181	0xbe571f09	-0.21007933
182	0xbdbd2bb5	-0.09236852
183	0xbe6d4821	-0.23172046
184	0xbd5f8562	-0.054570563
185	0x3d86268c	0.06550321
186	0xbdc9eeab	-0.098599754
187	0xbc902c2a	-0.017599184
188	0x3df5bfeb	0.11999496
189	0xbe2bafde	-0.16766307
190	0x3af98d05	0.001903922
191	0xbccaa363	-0.024736112
192	0x3dce94c7	0.10086971
193	0x3da58948	0.08082825
194	0xbddb7c21	-0.10717035
195	0x3e0b584c	0.13607901
196	0xbdace328	-0.08441764
197	0xbd922220	-0.07135415
198	0x3e972335	0.29519048
199	0x3dec930e	0.11551486
200	0xbd206060	-0.03915441
201	0x3d555515	0.052083094
202	0x3e388bf5	0.1802214
203	0x3d4ea4f4	0.05045028
204	0x3eb07f59	0.3447216
205	0x3e2e3a95	0.17014535
206	0x3da89496	0.082314655
207	0x3e3dba72	0.18528154
208	0x3c26b275	0.010174383
209	0x3e94f07c	0.29089725
210	0x3e0b3c45	0.1359721
211	0x3e92efcc	0.28698575
212	0x3ddd86b1	0.10816706
213	0x3e3a00db	0.18164389
214	0xbc4d82d9	-0.012543404
215	0x3e41e66e	0.18935558
216	0x3e4b120e	0.19831106
217	0x3e922d4b	0.2855018
218	0x3d92f96b	0.07176479
219	0xbe65a10a	-0.22424713
220	0x3c16caf3	0.00920366
221	0x3e0d7872	0.13815477
222	0x3dde3d4c	0.10851535
223	0x3e46f477	0.19429193
224	0x3e952440	0.2912922
225	0xbdec1922	-0.11528231
226	0xbd246111	-0.040131632
227	0x3eb6e8aa	0.35724384
228	0x3e3f2dea	0.18669859
229	0xbd9fa702	-0.07795526
230	0x3b8301e0	0.0039980263
231	0x3ea15335	0.31508794
232	0x3e84c468	0.25931096
233	0x3e262803	0.16226201
234	0x3e2842f4	0.1643179
235	0x3e492444	0.1964274
236	0xbc6b5c35	-0.014365246
237	0x3d33d1a4	0.0439011
238	0xbce87ec0	-0.028380752
239	0xbd75f730	-0.06005019
240	0x3d847a03	0.064685844
241	0x3dc559f8	0.09636301
242	0x3e9b7226	0.30360526
243	0xbe126fc5	-0.14300449
244	0x3ea3714e	0.31922382
245	0x3e8375b3	0.25675735
246	0x3e949653	0.29020938
247	0x3e5aa6d1	0.21352698
248	0xbb0b90cf	-0.002129603
249	0x3e2af218	0.16693914
250	0x3e0f0bd0	0.1396935
251	0x3dfa045f	0.12207865
252	0x3e50bcaa	0.2038447
253	0x3d50d167	0.05098095
254	0x3e26ef28	0.16302168
255	0x3e926704	0.2859422

flow.model.0.affine.params.layers.3.bias f4 [64]
0	0xbe81e97a	-0.2537344
1	0xbbbb96bc	-0.005724756
2	0xbe1546e4	-0.14577824
3	0xbb8f0e93	-0.004365751
4	0xbe4b9c42	-0.19883826
5	0x3c0d63a4	0.008629713
6	0xbe4decd2	-0.20109871
7	0x3d503bf2	0.05083842
8	0xbd898018	-0.06713885
9	0xbdb794cd	-0.08963928
10	0xbd43a972	-0.047769018
11	0xbd6e6ad1	-0.058207337
12	0xbdcf6b53	-0.10127892
13	0xbe13ba78	-0.14426601
14	0xbe133d30	-0.1437881
15	0xbd448744	-0.04798056
16	0xbe8e247e	-0.27762216
17	0xbd968eac	-0.07351431
18	0x3e1f4b5c	0.15556091
19	0xbd3ff575	-0.046864945
20	0x3d5668e5	0.05234613
21	0xbe2a60ce	-0.1663849
22	0xbe426476	-0.18983635
23	0x3e2dbd7e	0.16966817
24	0xbe01681b	-0.1263737
25	0x3e81b953	0.25336704
26	0xbbdcd01c	-0.0067386758
27	0xbe19404e	-0.14965937
28	0xbc507f1c	-0.012725618
29	0x3ca32821	0.019916596
30	0xbe089223	-0.13336997
31	0x3ac05f2f	0.0014676804
32	0xbe3b7464	-0.18306118
33	0xbe1e8e73	-0.15484028
34	0xbdb48ecf	-0.08816301
35	0xbd07dd66	-0.033170126
36	0xbad23408	-0.0016037235
37	0x3c9941b7	0.018708093
38	0xbe20b0a3	-0.15692382
39	0xbe3c0367	-0.18360673
40	0x3e20e949	0.15713991
41	0x3d4e2fcb	0.050338548
42	0x3dae6ba9	0.08516628
43	0xbdf0cdd2	-0.11758007
44	0xbcb9293a	-0.022602666
45	0xbdd474e6	-0.10373859
46	0xbdc19f01	-0.09454156
47	0xbde707cb	-0.11280783
48	0x3e20c5fb	0.15700524
49	0xbe3e679e	-0.18594214
50	0x3d003447	0.031299856
51	0xbe6f0efa	-0.23345557
52	0xbc85fcb0	-0.016355842
53	0xbe27e5df	-0.16396283
54	0xbe347be1	-0.17625381
55	0xbd831d2b	-0.06402048
56	0xbdc2830e	-0.09497653
57	0x3e42e577	0.19032846
58	0x3e182ef9	0.14861669
59	0x3e32bef7	0.1745566
60	0xbd59379e	-0.053031556
61	0x3d608350	0.05481273
62	0xbe1384f6	-0.1440619
63	0xbd85b38c	-0.065283865

flow.model.0.affine.params.layers.5.weight f4 [2, 64]
0	0xbdb1239e	-0.086493716
1	0xbbfd45a3	-0.0077292486
2	0x3d196d66	0.037457846
3	0x3e2ddf18	0.16979635
4	0xbe055948	-0.1302234
5	0xbe125201	-0.14289095
6	0xbc55d3eb	-0.013051013
7	0x3d97489c	0.07386896
8	0x3d9a9ec6	0.07549815
9	0xbab3a03a	-0.0013704367
10	0xbe6973fa	-0.22798148
11	0xbd5a620e	-0.05331617
12	0xbd95fafe	-0.073232636
13	0xbd5ee7ee	-0.054420404
14	0xbd8c29c0	-0.06843901
15	0xbd670918	-0.056405157
16	0xbe228ad8	-0.15873277
17	0xbd4fd06e	-0.050735883
18	0xbe7a6b03	-0.24454884
19	0xbe82ec46	-0.25570887
20	0xbd37540d	-0.04475789
21	0x3ca24f2f	0.019813148
22	0xbd9390d9	-0.07205362
23	0x3e569746	0.20956144
24	0x3e35dd85	0.17760284
25	0xbce93d81	-0.02847171
26	0xbdcf8bcd	-0.10134087
27	0xbd90282d	-0.07038913
28	0x3d46a987	0.048501518
29	0xbe469929	-0.19394363
30	0xbd83eee2	-0.06442048
31	0xbe3c0b77	-0.18363748
32	0xbd1b51b6	-0.037919722
33	0x3e0c3bc2	0.13694671
34	0xbda550c8	-0.080720484
35	0x3cee6bb9	0.0291041
36	0x3ce73f15	0.028228322
37	0xbe1fba3b	-0.15598385
38	0x3e371bc8	0.17881691
39	0xbd6297eb	-0.05532066
40	0xbe2bfb23	-0.1679502
41	0xbd9a395c	-0.07530472
42	0x3e41ddb6	0.18932232
43	0x3e0a05ba	0.13478747
44	0x3c3ff966	0.011717176
45	0xbcc6f131	-0.02428493
46	0x3e3214f3	0.17390804
47	0xbcacc631	-0.021090599
48	0x3e137d45	0.14403255
49	0xbe3cd239	-0.18439569
50	0xbcdfbd7e	-0.027312037
51	0xbd853b99	-0.06505508
52	0x3d8c7682	0.06858541
53	0xbe19ef05	-0.15032585
54	0xbbdb961f	-0.0067012454
55	0xbe57f853	-0.21090822
56	0x3dca7306	0.0988522
57	0xbd6c8720	-0.057746053
58	0x3ae8c632	0.0017759262
59	0xbde52993	-0.1118957
60	0x3ddaa5f7	0.106761865
61	0xbe737fde	-0.23779246
62	0xbbed73fc	-0.0072464924
63	0xbca8de7c	-0.020613901
64	0x3dd46fb0	0.10372865
65	0xbcb298b7	-0.021801336
66	0x3dcbca3a	0.09950681
67	0x3eeb28c6	0.45929545
68	0x3dddd962	0.10832478
69	0x3ebb4630	0.36576986
70	0x3d88daba	0.06682344
71	0x3d0e2f59	0.034713123
72	0xbcf64348	-0.03006138
73	0x3e36a901	0.17837907
74	0x3c988ccc	0.018621825
75	0xbd191e52	-0.03738243
76	0xbdb99cf1	-0.09063137
77	0x3ddbc82a	0.10731538
78	0xbd019409	-0.031635318
79	0xba811043	-0.0009846765
80	0xbd81c62e	-0.06336628
81	0x3e4a1213	0.19733457
82	0xbe0599f2	-0.13047007
83	0xbdc7594b	-0.09733828
84	0xbe5c70aa	-0.21527353
85	0xbcea5d4e	-0.028608944
86	0x3ddd4ff5	0.10806266
87	0xbe36ee7e	-0.17864415
88	0xbd34b74b	-0.044120114
89	0xbdf6c280	-0.12048817
90	0xbd544aa6	-0.051829003
91	0xbc7f60f8	-0.015587084
92	0x3db9d13b	0.09073111
93	0xbe00266f	-0.12514661
94	0x3cd7ca76	0.026341658
95	0xbdb77f2b	-0.08959802
96	0xba99708c	-0.0011706515
97	0x3b2b0055	0.0026092727
98	0x3e98085c	0.29693878
99	0xbd9884da	-0.074472144
100	0xbd5248e3	-0.05133904
101	0x3cbbd14e	0.022926953
102	0xbb679549	-0.0035336784
103	0x3c1551c6	0.009113735
104	0xbe120713	-0.14260511
105	0xbe2edf68	-0.1707741
106	0x3e338ae7	0.17533456
107	0x3d86d756	0.06584041
108	0x3d93de27	0.072201066
109	0xbdacf7fe	-0.08445738
110	0xbdce97d2	-0.10087551
111	0x3e0178d5	0.1264375
112	0xbcd5bacb	-0.026090046
113	0xbdbb28ab	-0.09138616
114	0x3cf26899	0.029590892
115	0x3da03066	0.07821731
116	0x3d8cd5dc	0.06876728
117	0xbd781226	-0.060564183
118	0xbc4645be	-0.012101589
119	0x3c305ee4	0.010764811
120	0xbd6bf88e	-0.057610087
121	0xbe20ee51	-0.1571591
122	0xbe24548f	-0.16047882
123	0xbe00d5a7	-0.12581502
124	0x3d0f0c21	0.034923676
125	0xbdf9f249	-0.12204415
126	0xbd6e0f43	-0.058120023
127	0x3e0f2b02	0.1398125

flow.model.0.affine.params.layers.5.bias f4 [2]
0	0xbe19c14b	-0.15015142
1	0xbca7c2c7	-0.02047862

flow.model.1.unit_jacobian f4 [500, 1]
0	0x3f800000	1.0
1	0x3f800000	1.0
2	0x3f800000	1.0
3	0x3f800000	1.0
4	0x3f800000	1.0
5	0x3f800000	1.0
6	0x3f800000	1.0
7	0x3f800000	1.0
8	0x3f800000	1.0
9	0x3f800000	1.0
10	0x3f800000	1.0
11	0x3f800000	1.0
12	0x3f800000	1.0
13	0x3f800000	1.0
14	0x3f800000	1.0
15	0x3f800000	1.0
16	0x3f800000	1.0
17	0x3f800000	1.0
18	0x3f800000	1.0
19	0x3f800000	1.0
20	0x3f800000	1.0
21	0x3f800000	1.0
22	0x3f800000	1.0
23	0x3f800000	1.0
24	0x3f800000	1.0
25	0x3f800000	1.0
26	0x3f800000	1.0
27	0x3f800000	1.0
28	0x3f800000	1.0
29	0x3f800000	1.0
30	0x3f800000	1.0
31	0x3f800000	1.0
32	0x3f800000	1.0
33	0x3f800000	1.0
34	0x3f800000	1.0
35	0x3f800000	1.0
36	0x3f800000	1.0
37	0x3f800000	1.0
38	0x3f800000	1.0
39	0x3f800000	1.0
40	0x3f800000	1.0
41	0x3f800000	1.0
42	0x3f800000	1.0
43	0x3f800000	1.0
44	0x3f800000	1.0
45	0x3f800000	1.0
46	0x3f800000	1.0
47	0x3f800000	1.0
48	0x3f800000	1.0
49	0x3f800000	1.0
50	0x3f800000	1.0
51	0x3f800000	1.0
52	0x3f800000	1.0
53	0x3f800000	1.0
54	0x3f800000	1.0
55	0x3f800000	1.0
56	0x3f800000	1.0
57	0x3f800000	1.0
58	0x3f800000	1.0
59	0x3f800000	1.0
60	0x3f800000	1.0
61	0x3f800000	1.0
62	0x3f800000	1.0
63	0x3f800000	1.0
64	0x3f800000	1.0
65	0x3f800000	1.0
66	0x3f800000	1.0
67	0x3f800000	1.0
68	0x3f800000	1.0
69	0x3f800000	1.0
70	0x3f800000	1.0
71	0x3f800000	1.0
72	0x3f800000	1.0
73	0x3f800000	1.0
74	0x3f800000	1.0
75	0x3f800000	1.0
76	0x3f800000	1.0
77	0x3f800000	1.0
78	0x3f800000	1.0
79	0x3f800000	1.0
80	0x3f800000	1.0
81	0x3f800000	1.0
82	0x3f800000	1.0
83	0x3f800000	1.0
84	0x3f800000	1.0
85	0x3f800000	1.0
86	0x3f800000	1.0
87	0x3f800000	1.0
88	0x3f800000	1.0
89	0x3f800000	1.0
90	0x3f800000	1.0
91	0x3f800000	1.0
92	0x3f800000	1.0
93	0x3f800000	1.0
94	0x3f800000	1.0
95	0x3f800000	1.0
96	0x3f800000	1.0
97	0x3f800000	1.0
98	0x3f800000	1.0
99	0x3f800000	1.0
100	0x3f800000	1.0
101	0x3f800000	1.0
102	0x3f800000	1.0
103	0x3f800000	1.0
104	0x3f800000	1.0
105	0x3f800000	1.0
106	0x3f800000	1.0
107	0x3f800000	1.0
108	0x3f800000	1.0
109	0x3f800000	1.0
110	0x3f800000	1.0
111	0x3f800000	1.0
112	0x3f800000	1.0
113	0x3f800000	1.0
114	0x3f800000	1.0
115	0x3f800000	1.0
116	0x3f800000	1.0
117	0x3f800000	1.0
118	0x3f800000	1.0
119	0x3f800000	1.0
120	0x3f800000	1.0
121	0x3f800000	1.0
122	0x3f800000	1.0
123	0x3f800000	1.0
124	0x3f800000	1.0
125	0x3f800000	1.0
126	0x3f800000	1.0
127	0x3f800000	1.0
128	0x3f800000	1.0
129	0x3f800000	1.0
130	0x3f800000	1.0
131	0x3f800000	1.0
132	0x3f800000	1.0
133	0x3f800000	1.0
134	0x3f800000	1.0
135	0x3f800000	1.0
136	0x3f800000	1.0
137	0x3f800000	1.0
138	0x3f800000	1.0
139	0x3f800000	1.0
140	0x3f800000	1.0
141	0x3f800000	1.0
142	0x3f800000	1.0
143	0x3f800000	1.0
144	0x3f800000	1.0
145	0x3f800000	1.0
146	0x3f800000	1.0
147	0x3f800000	1.0
148	0x3f800000	1.0
149	0x3f800000	1.0
150	0x3f800000	1.0
151	0x3f800000	1.0
152	0x3f800000	1.0
153	0x3f800000	1.0
154	0x3f800000	1.0
155	0x3f800000	1.0
156	0x3f800000	1.0
157	0x3f800000	1.0
158	0x3f800000	1.0
159	0x3f800000	1.0
160	0x3f800000	1.0
161	0x3f800000	1.0
162	0x3f800000	1.0
163	0x3f800000	1.0
164	0x3f800000	1.0
165	0x3f800000	1.0
166	0x3f800000	1.0
167	0x3f800000	1.0
168	0x3f800000	1.0
169	0x3f800000	1.0
170	0x3f800000	1.0
171	0x3f800000	1.0
172	0x3f800000	1.0
173	0x3f800000	1.0
174	0x3f800000	1.0
175	0x3f800000	1.0
176	0x3f800000	1.0
177	0x3f800000	1.0
178	0x3f800000	1.0
179	0x3f800000	1.0
180	0x3f800000	1.0
181	0x3f800000	1.0
182	0x3f800000	1.0
183	0x3f800000	1.0
184	0x3f800000	1.0
185	0x3f800000	1.0
186	0x3f800000	1.0
187	0x3f800000	1.0
188	0x3f800000	1.0
189	0x3f800000	1.0
190	0x3f800000	1.0
191	0x3f800000	1.0
192	0x3f800000	1.0
193	0x3f800000	1.0
194	0x3f800000	1.0
195	0x3f800000	1.0
196	0x3f800000	1.0
197	0x3f800000	1.0
198	0x3f800000	1.0
199	0x3f800000	1.0
200	0x3f800000	1.0
201	0x3f800000	1.0
202	0x3f800000	1.0
203	0x3f800000	1.0
204	0x3f800000	1.0
205	0x3f800000	1.0
206	0x3f800000	1.0
207	0x3f800000	1.0
208	0x3f800000	1.0
209	0x3f800000	1.0
210	0x3f800000	1.0
211	0x3f800000	1.0
212	0x3f800000	1.0
213	0x3f800000	1.0
214	0x3f800000	1.0
215	0x3f800000	1.0
216	0x3f800000	1.0
217	0x3f800000	1.0
218	0x3f800000	1.0
219	0x3f800000	1.0
220	0x3f800000	1.0
221	0x3f800000	1.0
222	0x3f800000	1.0
223	0x3f800000	1.0
224	0x3f800000	1.0
225	0x3f800000	1.0
226	0x3f800000	1.0
227	0x3f800000	1.0
228	0x3f800000	1.0
229	0x3f800000	1.0
230	0x3f800000	1.0
231	0x3f800000	1.0
232	0x3f800000	1.0
233	0x3f800000	1.0
234	0x3f800000	1.0
235	0x3f800000	1.0
236	0x3f800000	1.0
237	0x3f800000	1.0
238	0x3f800000	1.0
239	0x3f800000	1.0
240	0x3f800000	1.0
241	0x3f800000	1.0
242	0x3f800000	1.0
243	0x3f800000	1.0
244	0x3f800000	1.0
245	0x3f800000	1.0
246	0x3f800000	1.0
247	0x3f800000	1.0
248	0x3f800000	1.0
249	0x3f800000	1.0
250	0x3f800000	1.0
251	0x3f800000	1.0
252	0x3f800000	1.0
253	0x3f800000	1.0
254	0x3f800000	1.0
255	0x3f800000	1.0

flow.model.1.affine.params.layers.0.weight f4 [64, 1]
0	0x3e39324d	0.18085594
1	0x3e05e4be	0.1307554
2	0x3e9703ef	0.2949519
3	0xbf26bddb	-0.65133446
4	0xbc6fc3cb	-0.014634083
5	0x3f64d93f	0.8939399
6	0x3f477062	0.7790586
7	0x3ef1ee81	0.47252277
8	0xbc15e686	-0.009149199
9	0x3e6da258	0.2320646
10	0x3f47c23d	0.7803076
11	0x3e87d45a	0.265292
12	0x3ed6c8f9	0.41950205
13	0x3ed4bd65	0.41550747
14	0x3e9d64dc	0.30741012
15	0x3eadb338	0.33925796
16	0xbf09ecb6	-0.5387682
17	0xbf49a86f	-0.78772634
18	0xbf8a8156	-1.082072
19	0x3f3146bb	0.6924855
20	0xbed9a282	-0.42506796
21	0xbf609ffa	-0.87744105
22	0x3e6048a9	0.21902718
23	0xbdcfaa97	-0.10139959
24	0x3e3ec963	0.1863151
25	0xbe2e0e22	-0.16997579
26	0x3f2f01bf	0.6836204
27	0xbf5b60a8	-0.8569436
28	0xbf64efc4	-0.89428353
29	0x3f4527a6	0.77013624
30	0xbf066e10	-0.5251169
31	0x3e1d9353	0.15388231
32	0x3ee944e2	0.45560366
33	0x3cd32a48	0.025776997
34	0xbf001ef7	-0.5004725
35	0xbcba4294	-0.022736825
36	0xbf10442c	-0.5635402
37	0x3f6f4a45	0.934727
38	0x3cbe1cfd	0.023207182
39	0x3f219224	0.6311362
40	0x3f566c89	0.8375936
41	0x3eab428a	0.33449203
42	0x3e86283e	0.26202577
43	0x3ef20ea0	0.47276783
44	0xbf3a8cc5	-0.7287105
45	0x3f5882cf	0.845746
46	0xbdab9a31	-0.08379019
47	0x3f2e81c7	0.68166775
48	0xbe21ecdd	-0.15813012
49	0x3f0df930	0.55458355
50	0x3f25b29b	0.64725655
51	0x3dca5f87	0.09881502
52	0xbd807101	-0.06271554
53	0x3e8dab94	0.27669966
54	0xbf5d846f	-0.865302
55	0xbc3b62ec	-0.011437159
56	0xbde638c1	-0.11241294
57	0xbf5b6539	-0.8570133
58	0x3d339740	0.043845415
59	0x3dcfa647	0.10139137
60	0xbf881762	-1.0632136
61	0x3f301842	0.68787014
62	0x3ef34afc	0.47518146
63	0x3f653ac2	0.8954278

flow.model.1.affine.params.layers.0.bias f4 [64]
0	0xbe98e8e5	-0.29865184
1	0xbf1e1b18	-0.6176009
2	0x3f04ea54	0.51920056
3	0x3f4f0bfb	0.80877656
4	0xbefbbcd8	-0.49167514
5	0xbee93615	-0.45549074
6	0x3d6b1fc2	0.057403333
7	0x3f425687	0.7591328
8	0xbcc02d0d	-0.023458982
9	0xbf539d8a	-0.8266226
10	0xbe90a98e	-0.2825436
11	0xbef652f5	-0.48110166
12	0x3f29aadf	0.66276354
13	0xbf52966d	-0.8226078
14	0x3f27c1ce	0.655301
15	0x3e783b83	0.24241452
16	0x3af84baf	0.0018943454
17	0xbdf56e86	-0.11983971
18	0x3eec2520	0.46122074
19	0xbf284c3b	-0.6574132
20	0xbe971a01	-0.29512027
21	0x3f4a8b34	0.7911866
22	0xbe974aa5	-0.29549137
23	0x3e455582	0.192709
24	0x3f389554	0.72102857
25	0xbf316f63	-0.6931059
26	0x3d97f192	0.07419123
27	0x3df38915	0.11891381
28	0xbec550f0	-0.38538313
29	0x3f2d19ca	0.67617476
30	0x3f18f7ca	0.59753096
31	0xbe207611	-0.15670039
32	0xbc862c02	-0.016378406
33	0x3f081ccb	0.53168935
34	0xbe4c7838	-0.19967735
35	0x3ef32de8	0.4749596
36	0xbf136e9f	-0.5759067
37	0xbf30b553	-0.6902668
38	0x3f095793	0.5364925
39	0x3f0d0cde	0.5509776
40	0xbf2faaa6	-0.68619764
41	0xbe9fedd8	-0.31236148
42	0x3eaad025	0.33361927
43	0x3ee2d22f	0.44300982
44	0x3f0131d8	0.5046668
45	0x3f4ac21a	0.79202425
46	0xbea72a6a	-0.32649547
47	0x3df9ab60	0.1219089
48	0x3f3a5253	0.72781867
49	0xbf308215	-0.6894849
50	0x3f047925	0.5174735
51	0x3e25b19c	0.16181034
52	0x3e0a219b	0.13489382
53	0x3f66436f	0.89946645
54	0xbe918066	-0.28418273
55	0xbe139faa	-0.14416376
56	0xbf1ca8ef	-0.6119527
57	0x3f35f5cf	0.710782
58	0xbf23c909	-0.6397863
59	0x3f435c98	0.7631316
60	0xbf53b895	-0.82703525
61	0x3ee25399	0.44204405
62	0xbf172ccf	-0.5905275
63	0x3f3f6462	0.74762547

flow.model.1.affine.params.layers.1.weight f4 [64, 64]
0	0x3bf5578c	0.007487243
1	0xbe5935f8	-0.21211994
2	0x3dc2c9ed	0.095111705
3	0xbe6d3aea	-0.23167005
4	0xbc4a8b2b	-0.012362282
5	0x3e35a689	0.1773931
6	0x3d819b6b	0.06328472
7	0x3d163565	0.036672015
8	0xbe30a201	-0.172493
9	0x3de12f3b	0.109953366
10	0x3d99616f	0.07489287
11	0x3e27bf9d	0.16381688
12	0x3d8ef793	0.06980815
13	0x3e2c76b3	0.16842155
14	0x3e627bfb	0.22117607
15	0x3d2e4cea	0.04255382
16	0xbe6a439e	-0.22877356
17	0xbe805fba	-0.25073034
18	0xbddc7a61	-0.107655294
19	0x3e6ad18c	0.22931498
20	0xbe57fcb9	-0.210925
21	0xbe179090	-0.1480124
22	0x3e2d7f5e	0.16943118
23	0xbd0c05f3	-0.03418536
24	0x3e4c844a	0.1997234
25	0xbdbaaa37	-0.09114497
26	0x3e1c8a4c	0.15287131
27	0xbdf9daf9	-0.12199969
28	0xbcb4a097	-0.022049231
29	0x3e0ae507	0.1356393
30	0xbda927ba	-0.0825953
31	0x3df9f77b	0.12205406
32	0x3e6bb31b	0.23017542
33	0x3bef191b	0.007296694
34	0xbe2f08c1	-0.17093183
35	0x3c3a82bb	0.011383708
36	0xbdd08858	-0.101822555
37	0x3dd213fc	0.10257718
38	0x3ce90b97	0.02844791
39	0x3d1123b9	0.03543446
40	0x3e2ad5d6	0.16683134
41	0x3e667022	0.22503713
42	0x3e735d45	0.23766048
43	0x3e5e2b69	0.21696247
44	0xbe6da9bf	-0.23209284
45	0x3e70bb1c	0.23508877
46	0xbc450163	-0.012024256
47	0x3e0c86b1	0.13723256
48	0x3c37054f	0.011170699
49	0x3d2715e7	0.040792372
50	0x3ca7e45d	0.020494634
51	0x3e1af163	0.15131144
52	0xbce879e8	-0.028378442
53	0x3e586f10	0.21136117
54	0xbe4493b5	-0.19196971
55	0xbe3e0b28	-0.18558943
56	0xbdd01ccf	-0.10161745
57	0xbe4b04b9	-0.1982602
58	0xbe129149	-0.14313234
59	0x3e2b5c86	0.16734514
60	0xbe3532a2	-0.17695096
61	0x3e342fcd	0.1759636
62	0x3de833d6	0.11338012
63	0x3e7c1d6b	0.24620597
64	0xbe6f7df0	-0.23387885
65	0x3e496871	0.19668747
66	0xbbe1725f	-0.006880089
67	0x3c9d9954	0.019238152
68	0x3df6e52d	0.120554306
69	0xbddb824d	-0.10718212
70	0xbd04f181	-0.03245688
71	0xba5772d6	-0.0008218711
72	0x3cc4b40b	0.024011632
73	0xbe4f204a	-0.20227161
74	0xbe3a6b83	-0.18205075
75	0xbd25a739	-0.04044268
76	0xbe4893cc	-0.1958763
77	0xbe560341	-0.20899679
78	0x3caf91d6	0.021431845
79	0xbcdb3b9e	-0.026761826
80	0x3e3539df	0.17697857
81	0x3e4ba5cb	0.19887464
82	0xbc927c48	-0.017881528
83	0xbdfa6cd0	-0.122277856
84	0x3da52650	0.08063948
85	0x3e53c49a	0.20680466
86	0xbe2a7ebf	-0.16649912
87	0x3da998b8	0.08281082
88	0xbca622d4	-0.02028028
89	0x3e200b0b	0.15629213
90	0xbe30e7f8	-0.17275989
91	0xbc8e8c04	-0.017400749
92	0x3d341b63	0.04397143
93	0xbd52134a	-0.051287927
94	0x3e80109e	0.25012678
95	0xbd0e9be4	-0.034816638
96	0xbc9a6be9	-0.018850284
97	0xbd57e2e7	-0.052706625
98	0x3d73536f	0.05940574
99	0xbde4fb52	-0.11180748
100	0x3e4907d5	0.19631894
101	0xbd8434c9	-0.064553805
102	0xbd8794eb	-0.06620201
103	0xbc93afae	-0.018028107
104	0xba8d0e48	-0.0010761702
105	0xbd635dd6	-0.05550941
106	0xbdd49158	-0.103792846
107	0xbe15fb1e	-0.14646575
108	0x3c797307	0.015225179
109	0xbe1d5a95	-0.15366586
110	0x3e458a01	0.19290926
111	0x3c08a772	0.008340703
112	0xbe210aa7	-0.1572672
113	0xbcd2c2e6	-0.0257277
114	0xbdfcdf15	-0.12347237
115	0xbdfb6c4e	-0.12276517
116	0x3e05ffd5	0.13085873
117	0xbe456980	-0.19278526
118	0x3c8d19ac	0.017224155
119	0x3d9548c4	0.072892696
120	0x3d548dc1	0.051893
121	0x3e1dfedf	0.15429257
122	0x3d7c6104	0.06161596
123	0xbe4a70e7	-0.19769631
124	0xbc909b32	-0.017652128
125	0x3cf1d9ab	0.029522737
126	0xbd0e95f0	-0.03481096
127	0xbe5cc72d	-0.21560355
128	0xbe6f5501	-0.2337227
129	0x3c4876fc	0.012235399
130	0x3cb467be	0.022022124
131	0x3e23033c	0.15919203
132	0x3e072625	0.13198145
133	0xbca737df	-0.020412384
134	0xbd8f5e61	-0.07000423
135	0xbb0681ca	-0.0020524138
136	0xbc1b16ae	-0.0094658565
137	0xbd06f6c2	-0.03295017
138	0xbd0b6e96	-0.03404101
139	0xbd4b8bd8	-0.049693912
140	0xbc383e9a	-0.011245394
141	0xbdecbf77	-0.115599565
142	0xbe1a2c5e	-0.15055987
143	0xbe002ff0	-0.12518287
144	0xbb29936d	-0.0025875226
145	0x3dbc7a2d	0.09202991
146	0x3e1f33dc	0.15547127
147	0xbd8b13bf	-0.06790876
148	0x3db1e258	0.0868575
149	0x3e0dcaaa	0.13846841
150	0xbe52180c	-0.20516986
151	0x3c135fdf	0.008995025
152	0xbe4d197e	-0.20029256
153	0x3e5c9f12	0.21545056
154	0xbe51b5fe	-0.20479581
155	0x3e1a2b9e	0.15055701
156	0x3e395f68	0.18102801
157	0xbe01a799	-0.1266159
158	0x3d926405	0.071479835
159	0x3c3c8365	0.011505936
160	0xbe45fdc2	-0.19335082
161	0xbe5d0971	-0.21585633
162	0x3d953375	0.07285205
163	0xbddb832b	-0.10718378
164	0x3d23e6bf	0.04001498
165	0xbda6c324	-0.08142689
166	0xbcca147e	-0.024667975
167	0xbcc70e92	-0.02429894
168	0xbd605270	-0.05476612
169	0xbb3df652	-0.002898593
170	0xbe1909b3	-0.14945106
171	0xbda9a1e1	-0.08282829
172	0x3e08475b	0.1330847
173	0xbd50ce96	-0.050978266
174	0x3d3dc64b	0.046331685
175	0x3c293edd	0.010329929
176	0xbe3f2edf	-0.18670224
177	0xbe1a17e8	-0.15048182
178	0xbe58269c	-0.21108478
179	0xbd9c1a4b	-0.076222025
180	0xbbc2a278	-0.005939778
181	0xbb11ce01	-0.0022248032
182	0x3bf51a85	0.007479968
183	0x3dfe3ae2	0.12413575
184	0x3e4f05d7	0.20217071
185	0x3e51d463	0.20491175
186	0x3e07de26	0.13268337
187	0xbd3a7a13	-0.045526575
188	0x3de8418e	0.113406286
189	0xbc9cf68c	-0.019160531
190	0xbdcc84c2	-0.09986259
191	0xbe3d54f5	-0.1848944
192	0x3e4e6a26	0.2015768
193	0xbe66b3e6	-0.22529563
194	0x3e816818	0.2527473
195	0xbdac9ed7	-0.08428734
196	0xbd973827	-0.07383757
197	0x3e09e00b	0.13464372
198	0x3e3cd2ac	0.1843974
199	0x3e5d8c24	0.2163549
200	0xbe7f1f7f	-0.24914359
201	0x3e26311d	0.16229673
202	0x3db61df6	0.08892433
203	0xbcaedff6	-0.021347027
204	0x3cfd92e1	0.030953826
205	0x3e11cbed	0.14237948
206	0x3e69f2a5	0.22846468
207	0x3c5370cf	0.012905314
208	0xbdc2697c	-0.09492776
209	0xbda5542a	-0.08072694
210	0xbe7c4627	-0.24636136
211	0x3e22a218	0.15882146
212	0xbe4523d8	-0.19251955
213	0xbde4a7bb	-0.111648045
214	0x3d32bfeb	0.04364006
215	0xbcf216ac	-0.029551826
216	0x3c8688c9	0.016422646
217	0xbd86d59f	-0.06583714
218	0x3dac5c3b	0.08416029
219	0xbdc4a600	-0.096019745
220	0xbdf303cb	-0.11865958
221	0x3c71eb91	0.014765636
222	0xbe1a35e4	-0.1505962
223	0x3e0bb924	0.13644844
224	0x3e0a405d	0.13501115
225	0x3d8b2431	0.06794012
226	0xbd74901c	-0.059707746
227	0x3d91f148	0.07126099
228	0xbe4a3dbf	-0.19750117
229	0x3e3e4f11	0.18584849
230	0x3df12d3d	0.11776207
231	0x3e2e50f8	0.17023075
232	0x3e55ccf4	0.20878965
233	0x3da7f016	0.0820009
234	0x3e2ab3dc	0.16670173
235	0x3e6c6719	0.23086204
236	0xbde3f7c6	-0.111312434
237	0x3e757330	0.23969722
238	0xbd9d7323	-0.07687976
239	0x3e644e4d	0.22295494
240	0x3e6a01d5	0.22852261
241	0x3e2a5a01	0.16635896
242	0x3e291147	0.16510497
243	0x3e46880f	0.1938784
244	0xbd5fddb3	-0.05465479
245	0x3e0efabe	0.13962838
246	0xbde11038	-0.109894216
247	0xbe3769d9	-0.17911471
248	0xbe0aacb6	-0.13542446
249	0xbd8981ee	-0.06714235
250	0xbe1057b5	-0.14095958
251	0x3dba5f5b	0.09100219
252	0xbdcd54d5	-0.10025946
253	0x3e022dc8	0.12712777
254	0x3e1127ab	0.14175288
255	0x3dd5b695	0.104352154

flow.model.1.affine.params.layers.1.bias f4 [64]
0	0x3e581a7d	0.21103854
1	0xbd823c61	-0.063591726
2	0xbd029a6a	-0.031885542
3	0x3e2d59cb	0.16928785
4	0x3af41787	0.0018622734
5	0x3ccf8972	0.025334094
6	0xbd5cd284	-0.0539117
7	0xbdbb467a	-0.09144302
8	0xbc65a35d	-0.014016
9	0xbe5b0e6f	-0.21392225
10	0x3e477bc9	0.19480814
11	0xbc3e3ea6	-0.011611616
12	0x3e30148c	0.17195338
13	0xbde9944e	-0.1140524
14	0xbe90462d	-0.2817854
15	0x3eee0172	0.46485478
16	0xbcbee884	-0.023304231
17	0xbe89244d	-0.26785508
18	0xbe7628d7	-0.24039017
19	0xbe1623b4	-0.14662057
20	0xbe29f92c	-0.16598958
21	0x3e0cf9e7	0.13767205
22	0xbcaabfc6	-0.020843398
23	0xbd1fab1e	-0.03898155
24	0x3c42c597	0.011887929
25	0xbbd93120	-0.0066281706
26	0x3cc3bb5e	0.023893055
27	0xbe65783b	-0.22409146
28	0xbdf803fa	-0.121101335
29	0x3e13a740	0.1441927
30	0xbdbc5e70	-0.091977
31	0x3e2f8b69	0.17143025
32	0xbdb61056	-0.088898346
33	0xbc677b93	-0.0141285835
34	0x3e1d0742	0.153348
35	0xbd8a9263	-0.06766202
36	0x3e131fd0	0.14367604
37	0xbe42b38a	-0.19013801
38	0xbe07fb14	-0.13279372
39	0xbe9af202	-0.30262762
40	0x3ec53822	0.38519388
41	0xbe219e81	-0.1578312
42	0xbcca9511	-0.024729284
43	0x3cf69d5f	0.030104337
44	0xbdc73931	-0.09727705
45	0xbea5de99	-0.3239639
46	0x3e58e3d9	0.21180667
47	0xbde740f9	-0.112916894
48	0x3d3da41d	0.04629909
49	0x3db7e112	0.08978476
50	0xbd7fc45a	-0.062443115
51	0x3e1bd7d1	0.15219046
52	0x3c93d658	0.018046543
53	0xbe70722a	-0.2348105
54	0x3dfc8deb	0.12331756
55	0xbe6adce5	-0.22935827
56	0x3de562f0	0.112005115
57	0xbd0e8942	-0.034798868
58	0xbdd82eec	-0.10555825
59	0xbe81d1e8	-0.25355458
60	0xbe2df9a0	-0.16989756
61	0xbe5852aa	-0.21125284
62	0xbd903830	-0.07041967
63	0xbe771b31	-0.24131466
