Toy Experiment/results_affine_IN.pt (torch, 125711 bytes, 46 tensors)

encoder.0.weight f4 [8, 2]
0	0xbdfdc9f6	-0.123920366
1	0x3ea8bdb9	0.32957247
2	0xbf33e4f8	-0.70271254
3	0xbecf2be6	-0.4046318
4	0xbe11815a	-0.142095
5	0x3ea40e87	0.32042333
6	0xbd055466	-0.03255119
7	0x3f84eadb	1.0384172
8	0x3d00e1a3	0.031465184
9	0x3f161b93	0.58635825
10	0xbd8e01e7	-0.069339566
11	0xbe8c0de2	-0.27354342
12	0xbf03bfbc	-0.5146444
13	0xbf1e7975	-0.6190408
14	0xbe5a3490	-0.21309114
15	0x3e161a69	0.14658512

encoder.0.bias f4 [8]
0	0x3edb701c	0.4285897
1	0x3ea41dd0	0.32053995
2	0xbebeaff3	-0.37243614
3	0xbedf9e35	-0.4367539
4	0xbd6817b5	-0.056663234
5	0x3f3434c4	0.70393014
6	0xbe813e81	-0.25243
7	0x3ece75b2	0.4032417

encoder.1.weight f4 [8]
0	0x3f593b9b	0.84856576
1	0x3f5e167e	0.8675307
2	0x3f683e4f	0.90720075
3	0x3ef99541	0.48746684
4	0x3f6d9787	0.9280934
5	0x3f90df2a	1.1318104
6	0x3f90ae31	1.1303159
7	0x3f69c6c8	0.9131894

encoder.1.bias f4 [8]
0	0xbe16fff4	-0.14746076
1	0xbe05c787	-0.13064395
2	0xbdba4637	-0.09095424
3	0xbf0d9835	-0.55310374
4	0x3dd057de	0.10173009
5	0x3e077ad1	0.13230444
6	0x3e0845ad	0.13307829
7	0xbdf35c84	-0.1188288

encoder.1.running_mean f4 [8]
0	0x3e7ebab2	0.24875906
1	0x3df5a5aa	0.119944885
2	0xbf0eb5b2	-0.55745995
3	0xbf53407a	-0.8252026
4	0xbe81a9e0	-0.25324917
5	0x3f448d3f	0.76778024
6	0xbe91732d	-0.28408185
7	0x3e7cae20	0.24675798

encoder.1.running_var f4 [8]
0	0x3d284e7e	0.04109048
1	0x3e5a9c2b	0.21348636
2	0x3d1ffd7f	0.039060112
3	0x3ec63305	0.387108
4	0x3e00bc30	0.12571788
5	0x3cf37fed	0.029724086
6	0x3e6f340f	0.23359703
7	0x3c8f09d3	0.01746074

encoder.3.weight f4 [2, 8]
0	0xbe388fea	-0.18023649
1	0xbdbb7444	-0.09153035
2	0x3e685100	0.22687149
3	0xbed81a3d	-0.42207518
4	0xbea97b68	-0.33101964
5	0xbe62d997	-0.22153316
6	0xbe89851d	-0.2685937
7	0x3e5b5467	0.21418916
8	0xbd639374	-0.055560544
9	0xbd0078b6	-0.03136512
10	0xbde772c1	-0.113011844
11	0xbe4897ce	-0.19589159
12	0xbd1261d9	-0.035737846
13	0x3edf00f1	0.43555406
14	0x3e93c76b	0.2886308
15	0x3e9badb7	0.3040597

encoder.3.bias f4 [2]
0	0xbde7b0e2	-0.113130346
1	0xbd4ae708	-0.049536735

cls.0.weight f4 [2]
0	0x3f5c0a63	0.8595335
1	0x3fa160e7	1.2607697

cls.0.bias f4 [2]
0	0x3d1def61	0.038558368
1	0x3de08dcf	0.10964548

cls.0.running_mean f4 [2]
0	0xbf006635	-0.50155956
1	0x3ebfaa2a	0.37434512

cls.0.running_var f4 [2]
0	0x3d3480f6	0.0440683
1	0x3e609736	0.21932682

cls.1.weight f4 [8, 2]
0	0xbedfd3e6	-0.43716353
1	0xbf369a57	-0.71329254
2	0xbeb91899	-0.3615158
3	0xbf40a625	-0.75253516
4	0xbea859c7	-0.32880995
5	0x3f3e33e7	0.74297947
6	0xbecddade	-0.40206045
7	0x3e9d079a	0.30669862
8	0x3f1c00a8	0.609385
9	0x3f47f253	0.7810413
10	0xbe98cb9e	-0.29842848
11	0xbf2483a3	-0.6426336
12	0x3eae6d55	0.3406779
13	0xbf1de06e	-0.6167058
14	0x3f029732	0.51011956
15	0xbe5c7cb4	-0.21531945

cls.1.bias f4 [8]
0	0xbf1683a6	-0.5879463
1	0xbeb3e555	-0.35135904
2	0x3e9a45f4	0.30131495
3	0x3e753cf9	0.2394904
4	0xbebf3291	-0.37343267
5	0x3e6bb5b6	0.23018536
6	0x3eb91f30	0.36156607
7	0xbdbbe194	-0.09173885

cls.2.weight f4 [8]
0	0x402e199b	2.7203128
1	0x4032c432	2.7932248
2	0x3f6051bb	0.8762471
3	0x3f054002	0.52050793
4	0x4050c8e3	3.2622612
5	0x4051b385	3.276582
6	0x3fe310ed	1.773954
7	0x3f4b89eb	0.7950732

cls.2.bias f4 [8]
0	0x3efd27f4	0.49444544
1	0x3e1f5107	0.15558253
2	0x40025c83	2.0368965
3	0x3f6eca11	0.9327708
4	0xbf952334	-1.1651368
5	0x3e2046bc	0.15651983
6	0xbe996978	-0.2996328
7	0xbeae434f	-0.34035727

cls.2.running_mean f4 [8]
0	0xbf2f46f6	-0.6846765
1	0xbee6de74	-0.45091593
2	0x3ebf27e8	0.37335134
3	0x3e84a504	0.25907147
4	0xbe8a2be5	-0.26986614
5	0x3e16ac07	0.1471406
6	0x3e9c37ec	0.30511415
7	0xbdc67c92	-0.09691729

cls.2.running_var f4 [8]
0	0x3f0fc733	0.5616333
1	0x3f27f645	0.6561015
2	0x3f9ffa5b	1.2498277
3	0x3ed7b504	0.4213029
4	0x3f28eb4b	0.6598403
5	0x3ef5007c	0.47851932
6	0x3f71ddbb	0.9447896
7	0x3ecc565f	0.39909646

cls.4.weight f4 [1, 8]
0	0xbf8db5f7	-1.1071156
1	0xbf8b96d8	-1.0905409
2	0x3fbfc94f	1.498331
3	0x3ea3df42	0.3200627
4	0xc01ec0b9	-2.4805129
5	0xbfd7db6d	-1.6863838
6	0xbf18d1f5	-0.5969537
7	0xbe6904d4	-0.22755748

flow.model.0.unit_jacobian f4 [500, 1]
0	0x3f800000	1.0
1	0x3f800000	1.0
2	0x3f800000	1.0
3	0x3f800000	1.0
4	0x3f800000	1.0
5	0x3f800000	1.0
6	0x3f800000	1.0
7	0x3f800000	1.0
8	0x3f800000	1.0
9	0x3f800000	1.0
10	0x3f800000	1.0
11	0x3f800000	1.0
12	0x3f800000	1.0
13	0x3f800000	1.0
14	0x3f800000	1.0
15	0x3f800000	1.0
16	0x3f800000	1.0
17	0x3f800000	1.0
18	0x3f800000	1.0
19	0x3f800000	1.0
20	0x3f800000	1.0
21	0x3f800000	1.0
22	0x3f800000	1.0
23	0x3f800000	1.0
24	0x3f800000	1.0
25	0x3f800000	1.0
26	0x3f800000	1.0
27	0x3f800000	1.0
28	0x3f800000	1.0
29	0x3f800000	1.0
30	0x3f800000	1.0
31	0x3f800000	1.0
32	0x3f800000	1.0
33	0x3f800000	1.0
34	0x3f800000	1.0
35	0x3f800000	1.0
36	0x3f800000	1.0
37	0x3f800000	1.0
38	0x3f800000	1.0
39	0x3f800000	1.0
40	0x3f800000	1.0
41	0x3f800000	1.0
42	0x3f800000	1.0
43	0x3f800000	1.0
44	0x3f800000	1.0
45	0x3f800000	1.0
46	0x3f800000	1.0
47	0x3f800000	1.0
48	0x3f800000	1.0
49	0x3f800000	1.0
50	0x3f800000	1.0
51	0x3f800000	1.0
52	0x3f800000	1.0
53	0x3f800000	1.0
54	0x3f800000	1.0
55	0x3f800000	1.0
56	0x3f800000	1.0
57	0x3f800000	1.0
58	0x3f800000	1.0
59	0x3f800000	1.0
60	0x3f800000	1.0
61	0x3f800000	1.0
62	0x3f800000	1.0
63	0x3f800000	1.0
64	0x3f800000	1.0
65	0x3f800000	1.0
66	0x3f800000	1.0
67	0x3f800000	1.0
68	0x3f800000	1.0
69	0x3f800000	1.0
70	0x3f800000	1.0
71	0x3f800000	1.0
72	0x3f800000	1.0
73	0x3f800000	1.0
74	0x3f800000	1.0
75	0x3f800000	1.0
76	0x3f800000	1.0
77	0x3f800000	1.0
78	0x3f800000	1.0
79	0x3f800000	1.0
80	0x3f800000	1.0
81	0x3f800000	1.0
82	0x3f800000	1.0
83	0x3f800000	1.0
84	0x3f800000	1.0
85	0x3f800000	1.0
86	0x3f800000	1.0
87	0x3f800000	1.0
88	0x3f800000	1.0
89	0x3f800000	1.0
90	0x3f800000	1.0
91	0x3f800000	1.0
92	0x3f800000	1.0
93	0x3f800000	1.0
94	0x3f800000	1.0
95	0x3f800000	1.0
96	0x3f800000	1.0
97	0x3f800000	1.0
98	0x3f800000	1.0
99	0x3f800000	1.0
100	0x3f800000	1.0
101	0x3f800000	1.0
102	0x3f800000	1.0
103	0x3f800000	1.0
104	0x3f800000	1.0
105	0x3f800000	1.0
106	0x3f800000	1.0
107	0x3f800000	1.0
108	0x3f800000	1.0
109	0x3f800000	1.0
110	0x3f800000	1.0
111	0x3f800000	1.0
112	0x3f800000	1.0
113	0x3f800000	1.0
114	0x3f800000	1.0
115	0x3f800000	1.0
116	0x3f800000	1.0
117	0x3f800000	1.0
118	0x3f800000	1.0
119	0x3f800000	1.0
120	0x3f800000	1.0
121	0x3f800000	1.0
122	0x3f800000	1.0
123	0x3f800000	1.0
124	0x3f800000	1.0
125	0x3f800000	1.0
126	0x3f800000	1.0
127	0x3f800000	1.0
128	0x3f800000	1.0
129	0x3f800000	1.0
130	0x3f800000	1.0
131	0x3f800000	1.0
132	0x3f800000	1.0
133	0x3f800000	1.0
134	0x3f800000	1.0
135	0x3f800000	1.0
136	0x3f800000	1.0
137	0x3f800000	1.0
138	0x3f800000	1.0
139	0x3f800000	1.0
140	0x3f800000	1.0
141	0x3f800000	1.0
142	0x3f800000	1.0
143	0x3f800000	1.0
144	0x3f800000	1.0
145	0x3f800000	1.0
146	0x3f800000	1.0
147	0x3f800000	1.0
148	0x3f800000	1.0
149	0x3f800000	1.0
150	0x3f800000	1.0
151	0x3f800000	1.0
152	0x3f800000	1.0
153	0x3f800000	1.0
154	0x3f800000	1.0
155	0x3f800000	1.0
156	0x3f800000	1.0
157	0x3f800000	1.0
158	0x3f800000	1.0
159	0x3f800000	1.0
160	0x3f800000	1.0
161	0x3f800000	1.0
162	0x3f800000	1.0
163	0x3f800000	1.0
164	0x3f800000	1.0
165	0x3f800000	1.0
166	0x3f800000	1.0
167	0x3f800000	1.0
168	0x3f800000	1.0
169	0x3f800000	1.0
170	0x3f800000	1.0
171	0x3f800000	1.0
172	0x3f800000	1.0
173	0x3f800000	1.0
174	0x3f800000	1.0
175	0x3f800000	1.0
176	0x3f800000	1.0
177	0x3f800000	1.0
178	0x3f800000	1.0
179	0x3f800000	1.0
180	0x3f800000	1.0
181	0x3f800000	1.0
182	0x3f800000	1.0
183	0x3f800000	1.0
184	0x3f800000	1.0
185	0x3f800000	1.0
186	0x3f800000	1.0
187	0x3f800000	1.0
188	0x3f800000	1.0
189	0x3f800000	1.0
190	0x3f800000	1.0
191	0x3f800000	1.0
192	0x3f800000	1.0
193	0x3f800000	1.0
194	0x3f800000	1.0
195	0x3f800000	1.0
196	0x3f800000	1.0
197	0x3f800000	1.0
198	0x3f800000	1.0
199	0x3f800000	1.0
200	0x3f800000	1.0
201	0x3f800000	1.0
202	0x3f800000	1.0
203	0x3f800000	1.0
204	0x3f800000	1.0
205	0x3f800000	1.0
206	0x3f800000	1.0
207	0x3f800000	1.0
208	0x3f800000	1.0
209	0x3f800000	1.0
210	0x3f800000	1.0
211	0x3f800000	1.0
212	0x3f800000	1.0
213	0x3f800000	1.0
214	0x3f800000	1.0
215	0x3f800000	1.0
216	0x3f800000	1.0
217	0x3f800000	1.0
218	0x3f800000	1.0
219	0x3f800000	1.0
220	0x3f800000	1.0
221	0x3f800000	1.0
222	0x3f800000	1.0
223	0x3f800000	1.0
224	0x3f800000	1.0
225	0x3f800000	1.0
226	0x3f800000	1.0
227	0x3f800000	1.0
228	0x3f800000	1.0
229	0x3f800000	1.0
230	0x3f800000	1.0
231	0x3f800000	1.0
232	0x3f800000	1.0
233	0x3f800000	1.0
234	0x3f800000	1.0
235	0x3f800000	1.0
236	0x3f800000	1.0
237	0x3f800000	1.0
238	0x3f800000	1.0
239	0x3f800000	1.0
240	0x3f800000	1.0
241	0x3f800000	1.0
242	0x3f800000	1.0
243	0x3f800000	1.0
244	0x3f800000	1.0
245	0x3f800000	1.0
246	0x3f800000	1.0
247	0x3f800000	1.0
248	0x3f800000	1.0
249	0x3f800000	1.0
250	0x3f800000	1.0
251	0x3f800000	1.0
252	0x3f800000	1.0
253	0x3f800000	1.0
254	0x3f800000	1.0
255	0x3f800000	1.0

flow.model.0.affine.params.layers.0.weight f4 [64, 1]
0	0x3f491e73	0.78562087
1	0xbd4b1b22	-0.049586423
2	0xbf6bdc63	-0.9213316
3	0x3db355b6	0.087565824
4	0xbf2e1287	-0.6799702
5	0xbf4b8590	-0.79500675
6	0x3f3e6b3d	0.7438238
7	0x3f1d0676	0.61337984
8	0xbf37fa27	-0.7186608
9	0x3ea57680	0.3231697
10	0xbd96482e	-0.07337986
11	0xbd8653d1	-0.065589555
12	0xbea3ef8e	-0.32018703
13	0x3e90286e	0.28155845
14	0xbeec4c91	-0.46152166
15	0x3e5d2113	0.21594648
16	0x3f190264	0.5976927
17	0x3f1d769f	0.61509126
18	0x3f01cb12	0.50700486
19	0xbf636c2b	-0.88836926
20	0xbf0d96f1	-0.55308443
21	0x3ece6be0	0.40316677
22	0x3ea2c7ab	0.3179296
23	0xbf23ea59	-0.6402946
24	0xbee028ba	-0.43781072
25	0x3f4cdf8f	0.80028623
26	0x3f1214c9	0.57062966
27	0xbe948967	-0.2901108
28	0xbec6901b	-0.3878182
29	0xbf5915e0	-0.84799004
30	0x3da1bc5f	0.07897257
31	0xbf336e43	-0.7009012
32	0xbf2cd5a6	-0.675135
33	0xbe1956ea	-0.14974561
34	0x3cdbed91	0.026846679
35	0xbea26670	-0.3171878
36	0x3ee3272f	0.44365832
37	0xbf02f013	-0.51147574
38	0x3f76ff50	0.96483326
39	0x3f147b34	0.58000493
40	0xbf3e6d12	-0.7438518
41	0xbd9ce158	-0.076601684
42	0x3e0eebaa	0.13957086
43	0x3b7e1752	0.0038771224
44	0x3e96dad3	0.29463825
45	0x3e82eda3	0.25571927
46	0xbda2f890	-0.07957566
47	0xbec5952b	-0.3859037
48	0x3ebea6ef	0.37236735
49	0xbf5235c0	-0.82113266
50	0xbf2c6f43	-0.6735727
51	0xbeb0d838	-0.34539962
52	0xbf148a9d	-0.5802401
53	0xbe5938e8	-0.21213114
54	0xbf39126a	-0.7229372
55	0xbde28a17	-0.11061495
56	0x3eb4793f	0.35248753
57	0xbf0d5739	-0.55211216
58	0xbe3b80d1	-0.18310858
59	0x3f46daee	0.7767781
60	0x3bf54ab9	0.0074857143
61	0xbd8656f3	-0.06559553
62	0xbcc35484	-0.023844011
63	0x3eae3cf1	0.3403087

flow.model.0.affine.params.layers.0.bias f4 [64]
0	0x3f0cdaf8	0.5502162
1	0x3f6efc5d	0.93353826
2	0x3eedcf3b	0.46447167
3	0x3f916ff6	1.1362293
4	0xbe4d1840	-0.20028782
5	0xbf45dd60	-0.77290916
6	0xbf177eb5	-0.59177715
7	0x3f10c5de	0.5655192
8	0xbcbcec50	-0.023061901
9	0xbebdcabe	-0.37068743
10	0xbf2dd553	-0.6790363
11	0xbf5a3afd	-0.8524626
12	0xbf425cc8	-0.7592282
13	0xbe907d02	-0.28220373
14	0x3f199984	0.5999987
15	0x3edb9ba9	0.42892197
16	0xbf5fc270	-0.87406063
17	0x3f0acd3f	0.5421943
18	0xbf273b39	-0.6532474
19	0xbe058a92	-0.13041142
20	0xbea32fe1	-0.31872466
21	0xbe8ec24e	-0.27882618
22	0xbd2e9bcb	-0.042629045
23	0xbf465853	-0.7747852
24	0xbf3d354b	-0.73909444
25	0xbe8e87a7	-0.2783787
26	0xbd87abb1	-0.066245444
27	0xbeacf90c	-0.33783758
28	0x3e94b8d5	0.29047266
29	0xbf4844a0	-0.78229713
30	0x3c92ce1c	0.017920546
31	0x3f813ad7	1.0096081
32	0xbea4bd1f	-0.32175538
33	0x3f50b70e	0.8152932
34	0x3e86b467	0.2630951
35	0xbf4ffca6	-0.81244886
36	0x3f05232a	0.5200678
37	0xbcf6936b	-0.030099591
38	0xbea4a0e8	-0.32154012
39	0x3f38fb7e	0.72258747
40	0xbf39a417	-0.72516006
41	0x3df07ab8	0.11742157
42	0xbdf8bf2d	-0.12145839
43	0x3f180258	0.59378576
44	0x3ecedcfa	0.40402967
45	0x3eca2a9e	0.3948564
46	0x3e6bcd99	0.23027648
47	0xbe23fa85	-0.16013534
48	0xbe956d48	-0.29184937
49	0xbf3d65e7	-0.73983616
50	0x3ecd0013	0.4003912
51	0x3f34e9b9	0.7066913
52	0x3f185192	0.59499466
53	0xbf14aa24	-0.58072114
54	0x3e0566d4	0.13027507
55	0xbf1feaff	-0.6246795
56	0xbeda8d22	-0.426858
57	0xbeffd82c	-0.49969614
58	0x3e809a73	0.25117835
59	0xbec9ffbc	-0.39452922
60	0x3d4ddc6a	0.05025903
61	0xbd401751	-0.046897236
62	0x3f43ba2a	0.7645594
63	0xbf21a953	-0.63148993

flow.model.0.affine.params.layers.1.weight f4 [64, 64]
0	0xbe3e84b0	-0.18605304
1	0xbe726857	-0.23672615
2	0x3ba32b68	0.0049795397
3	0xbe598db5	-0.21245463
4	0x3e03ddb8	0.12877548
5	0x3e270e48	0.16314042
6	0x3da8620f	0.08221828
7	0xbdea9232	-0.11453666
8	0xbc9a429f	-0.018830596
9	0x3e38ae43	0.18035226
10	0x3e0a7c8e	0.13524076
11	0x3e28639e	0.16444251
12	0x3e29a1d4	0.16565639
13	0xbd02fc33	-0.031978797
14	0xbe4cd48c	-0.20002955
15	0xbd1d57d1	-0.038413826
16	0x3d6d299b	0.057901006
17	0xbdf7ad89	-0.12093646
18	0x3e91d32e	0.2848143
19	0x3daba825	0.083816804
20	0x3dc24fdc	0.09487888
21	0xbd6cf5a7	-0.05785146
22	0x3e49c5c3	0.19704346
23	0x3d1e4fc7	0.0386503
24	0x3dd61fee	0.10455309
25	0xbcabc3ba	-0.020967353
26	0xbcd869fe	-0.026417729
27	0x3dfd61c2	0.123721614
28	0xbd48f3d4	-0.049060658
29	0x3e04f450	0.12983823
30	0x3e8c39dd	0.27387896
31	0xbd8b836d	-0.06812177
32	0x3b080c05	0.0020759117
33	0xbde87968	-0.113512814
34	0xbe742927	-0.23843823
35	0x3dcc273c	0.09968421
36	0xbdb1e6ee	-0.086866245
37	0x3d9c2571	0.07624329
38	0x3e1fc3e2	0.15602067
39	0xbe2cb56a	-0.16866079
40	0x3df13f32	0.11779632
41	0x3c0d9063	0.0086403815
42	0x3d4320fd	0.047638882
43	0xbd97822d	-0.07397876
44	0xbe6dce77	-0.23223291
45	0xbe08d1f5	-0.13361342
46	0xbe3f4162	-0.18677285
47	0x3c35e9e1	0.011103124
48	0x3d96f4c3	0.07370903
49	0x3e5e61bc	0.2171697
50	0xbe2e733c	-0.17036146
51	0xbe766942	-0.2406359
52	0xbe4a303c	-0.19744962
53	0x3cd824c9	0.026384728
54	0x3d578a5e	0.05262219
55	0x3dcd8ae0	0.10036254
56	0x3da5a4f8	0.08088106
57	0x3d2a100d	0.041519213
58	0xbdc65f82	-0.096861854
59	0x3e1f4fd2	0.15557793
60	0x3e099940	0.13437366
61	0xbdc2a09b	-0.09503289
62	0xbe5841cd	-0.21118851
63	0x3e07cdce	0.13262102
64	0xbdaa5a95	-0.083180584
65	0xbc8e2b9e	-0.017354783
66	0x3e1dca31	0.15409161
67	0xbe378ddd	-0.1792521
68	0x3d7b48e0	0.061348796
69	0x3afc6e18	0.0019258885
70	0xbdbeabe7	-0.093101315
71	0xbe42d2bd	-0.19025703
72	0x3c0deb10	0.008662
73	0x3e6b3aa7	0.22971593
74	0x3d1f77af	0.0389325
75	0x3dd8dc42	0.10588886
76	0x3e1fa9b8	0.15592086
77	0xbdedd10f	-0.116121404
78	0x3d135619	0.03597078
79	0xbe6274e1	-0.22114898
80	0x3e61044b	0.21974294
81	0xbdcc4c06	-0.09975438
82	0x3e652e8a	0.22381034
83	0x3da02974	0.078204066
84	0x3e20b1d6	0.15692839
85	0xbe184267	-0.1486908
86	0xbe0094d7	-0.12556778
87	0x3d342340	0.04397893
88	0x3e264815	0.16238435
89	0xbda50b3f	-0.08058786
90	0xbdfb4350	-0.12268698
91	0x3dbc6868	0.091996014
92	0xbe49e2f3	-0.1971548
93	0x3e538280	0.2065525
94	0x3cdd8ae6	0.027043771
95	0xbd8d17f0	-0.06889331
96	0x3d9fe70c	0.078077406
97	0xbe38bf4a	-0.18041721
98	0xbdc7fde9	-0.097652264
99	0x3d620167	0.05517712
100	0xbdbafff7	-0.09130853
101	0x3e1420ba	0.14465609
102	0xbe5a0760	-0.21291876
103	0xbdcb5c39	-0.099296995
104	0x3e3182c9	0.17335047
105	0x3e2da698	0.16958082
106	0x3dd5bf13	0.10436835
107	0xbe63ec95	-0.22258218
108	0xbe0eb8e1	-0.13937713
109	0xbd9d1270	-0.07669532
110	0xbe29b1b2	-0.16571692
111	0x3e2b93d4	0.1675561
112	0xbd16faf5	-0.036860425
113	0x3d60a079	0.05484054
114	0x3df8759a	0.12131806
115	0xbd8c2020	-0.06842065
116	0xbde1e8bd	-0.110307194
117	0x3e05aeff	0.13055037
118	0x3e0af954	0.13571674
119	0x3cb2eaad	0.021840418
120	0x3e050c6d	0.12993021
121	0x3e53a0bd	0.20666786
122	0xbbf4adae	-0.0074669933
123	0xbd3f0075	-0.046631295
124	0x3e0c22bb	0.13685124
125	0xbd7ccafc	-0.06171702
126	0xbe394295	-0.18091805
127	0x3c87592b	0.01652201
128	0xbddc23ca	-0.10749014
129	0x3dff635a	0.12470122
130	0x3da2818e	0.07934867
131	0xbdb0f4b2	-0.08640422
132	0x3d4850f4	0.048905328
133	0x3dc152aa	0.09439595
134	0x3dffe6c2	0.124951854
135	0x3ddfd858	0.10929936
136	0x3dc65644	0.096844226
137	0xbceac2f0	-0.028657407
138	0xbd33aea0	-0.043867707
139	0x3dd23042	0.10263111
140	0x3d8f750a	0.07004745
141	0xbd9a0e30	-0.07522237
142	0x3de625fe	0.11237715
143	0x3d776090	0.060394824
144	0x3d8b8e00	0.06814194
145	0xbda0746a	-0.07834704
146	0x3d12e488	0.035862476
147	0xbd337cec	-0.043820307
148	0x3dc806fc	0.09766957
149	0xbcb84258	-0.022492573
150	0x3d4753f8	0.048664063
151	0x3cb5e280	0.02220273
152	0x3d59d6f8	0.053183526
153	0xbd2dfde0	-0.042478442
154	0x3d79a2f4	0.06094642
155	0xbdb2cefe	-0.08730887
156	0x3ce74688	0.028231874
157	0xbdad3520	-0.084573984
158	0xbdfc8dba	-0.1233172
159	0xbdcd9510	-0.10038197
160	0x3dca1ab6	0.09868376
161	0x3d8a8150	0.06762946
162	0x3df02ee8	0.11727697
163	0x3dcd1648	0.100140154
164	0xbde49ea0	-0.11163068
165	0xbdaeb3ce	-0.08530389
166	0xbca575e8	-0.020197824
167	0xbda64132	-0.08117904
168	0x3db1c3f8	0.08679956
169	0xbdc189ba	-0.094500974
170	0xbd79ce38	-0.06098768
171	0xbdf751c4	-0.120761424
172	0xbd9157c6	-0.070968196
173	0x3dd28de2	0.10280968
174	0x3dd19a42	0.102345005
175	0x3db74124	0.089479715
176	0x3dc5aa22	0.09651591
177	0x3de3a1ba	0.11114831
178	0xbd031ab0	-0.032007873
179	0x3d6147f4	0.05500026
180	0x3de41404	0.1113663
181	0x3d296114	0.041352347
182	0x3dffeaca	0.12495954
183	0x3d84c718	0.064832866
184	0x3d9f2458	0.07770604
185	0xbd33322c	-0.04374902
186	0x3d75abf4	0.05997844
187	0x3c6b5420	0.014363319
188	0xbcf48c88	-0.029852167
189	0xbd904f4a	-0.07046373
190	0xbd8fa556	-0.07013957
191	0xbdc4fcb2	-0.0961851
192	0x3e50ea26	0.2040182
193	0xbcffed4e	-0.031241085
194	0xbe098f30	-0.13433528
195	0xbe450fec	-0.19244355
196	0xbcc07518	-0.023493335
197	0xbd24448c	-0.040104434
198	0x3e048187	0.12940036
199	0x3d7a2151	0.06106693
200	0xbbab486b	-0.0052271388
201	0x3e2f558a	0.17122474
202	0x3cce8cd6	0.02521364
203	0x3e757f2b	0.23974292
204	0x3e5c2ff6	0.2150267
205	0x3d98ab39	0.07454533
206	0xbd4c240a	-0.049839057
207	0xbe43b59c	-0.19112247
208	0x3dcddd24	0.10051945
209	0x3e67a799	0.22622527
210	0x3e0047a0	0.12527323
211	0xbe55839a	-0.20850983
212	0xbe25c41e	-0.16188094
213	0x3db07d5a	0.08617659
214	0x3dc495ef	0.0959891
215	0x3e0739cb	0.1320564
216	0x3e715d2a	0.23570696
217	0x3e01d811	0.12680079
218	0x3d2fd457	0.042927112
219	0x3e01749a	0.12642136
220	0xbd7675ef	-0.060171064
221	0xbd6dd3b4	-0.058063224
222	0x3bbef863	0.00582795
223	0xbe11e565	-0.14247663
224	0xbe5a1c0b	-0.2129976
225	0xbe319b39	-0.17344369
226	0xbd99bb39	-0.07506413
227	0x3d005e39	0.031339858
228	0xbd96ba80	-0.07359791
229	0xbc658536	-0.014008811
230	0x3e0362f2	0.12830713
231	0xbe504938	-0.2034043
232	0xbe28c96f	-0.16483091
233	0xbdbe12a5	-0.092809
234	0x3ccb43c5	0.024812588
235	0xbd6d9706	-0.058005355
236	0xbe6f273e	-0.23354813
237	0xbe76040b	-0.2402498
238	0xbe775bbc	-0.24156088
239	0xbe14f371	-0.1454599
240	0x3e510fa7	0.20416127
241	0xbe74205e	-0.23840472
242	0xbc84cacc	-0.016209982
243	0xbe2e3199	-0.17011108
244	0xbdab00f0	-0.08349788
245	0x3e00d300	0.1258049
246	0xbe6e6913	-0.2328227
247	0x3e652487	0.22377215
248	0x3e3fe92e	0.18741295
249	0x3b88a1fe	0.0041697016
250	0xbd694824	-0.056953564
251	0x3d1a0274	0.037599996
252	0xbc81207b	-0.015762558
253	0xbde7f25b	-0.113255225
254	0xbd79293f	-0.06083035
255	0x3ca2da22	0.019879404

flow.model.0.affine.params.layers.1.bias f4 [64]
0	0xbe1d6aae	-0.15372726
1	0xbdc766bd	-0.09736393
2	0xbdce74ae	-0.10080849
3	0xbe1f8995	-0.15579827
4	0xbbb229a0	-0.005437091
5	0xbd7bc1f5	-0.06146427
6	0xbe413524	-0.18867928
7	0x3c594d40	0.013263047
8	0xbd1ee5e4	-0.03879346
9	0xbcee8d62	-0.029120151
10	0xbe4de719	-0.20107688
11	0xbdd9627a	-0.10614486
12	0xbbd4b102	-0.0064908275
13	0xbe40c7f9	-0.18826284
14	0xbe09fe7b	-0.13475983
15	0xbd08dfff	-0.033416744
16	0xbc8940e0	-0.016754568
17	0xbdd8ea35	-0.105915464
18	0x3d4ef800	0.05052948
19	0xbe36ac96	-0.17839274
20	0xbd1cb1c2	-0.03825546
21	0xbe06cfd9	-0.13165225
22	0xbc2a02e0	-0.010376662
23	0xbdbd59c9	-0.09245641
24	0xbddfaf5a	-0.109221175
25	0xbe8bdbf4	-0.27316248
26	0xbd1deaa9	-0.038553867
27	0x3cea8929	0.028629856
28	0xbe66bc06	-0.22532663
29	0xbe0f7315	-0.14008744
30	0xbe56f01d	-0.20990033
31	0xbcb5c485	-0.022188434
32	0xbcf8a9a3	-0.030354327
33	0xbe5a75c7	-0.21333991
34	0xbe026399	-0.12733306
35	0xbdaa2a2a	-0.083088234
36	0xbc367556	-0.0111363735
37	0xbdc07a86	-0.093983695
38	0x3dabe2da	0.08392878
39	0xbdf2404f	-0.11828672
40	0xbe0e7aba	-0.13914004
41	0x3ccbfad8	0.024899885
42	0xbd14e400	-0.03635025
43	0xbc84d15b	-0.01621311
44	0xbe520545	-0.20509823
45	0xbe3a1326	-0.18171367
46	0xbe335e35	-0.17516406
47	0xbca69cf0	-0.020338506
48	0xbddfbd3a	-0.10924764
49	0xbe5e6cac	-0.21721143
50	0xbe065516	-0.13118395
51	0xbd15ec4b	-0.0366023
52	0x3cc918e0	0.024547994
53	0xbd814614	-0.063121945
54	0xbd9a01e6	-0.07519893
55	0xbd4a1218	-0.04933366
56	0xbdcbd438	-0.09952587
57	0xbe3a6b82	-0.18205073
58	0xbdb2290e	-0.08699237
59	0xbe706642	-0.23476508
60	0x3cb01d61	0.021498384
61	0xbe12c47b	-0.14332764
62	0xbe6261a2	-0.22107556
63	0x3c1b9cee	0.009497864

flow.model.0.affine.params.layers.3.weight f4 [64, 64]
0	0x3cc6c4d8	0.024263784
1	0x3dc6486c	0.09681782
2	0xbce92c88	-0.028463617
3	0xbc8e69b8	-0.017384395
4	0x3d01264c	0.031530663
5	0xbd183ce4	-0.037167445
6	0xbd2e86e4	-0.04260911
7	0xbdfb2136	-0.12262194
8	0x3dc0db56	0.09416835
9	0x3de7affc	0.11312863
10	0xbdfd78a8	-0.12376529
11	0xbd296648	-0.04135731
12	0xbdc1a2a4	-0.09454849
13	0xbd4fd578	-0.05074069
14	0x3dc2e542	0.09516384
15	0x3d88f094	0.06686512
16	0xbc1ee890	-0.009699002
17	0x3d5aad14	0.053387716
18	0x3d18e770	0.03733009
19	0x3d8bce5c	0.06826469
20	0xbdcdb8c0	-0.10045004
21	0x3d1e434c	0.038638398
22	0xbdf274b2	-0.11838664
23	0xbda85cc4	-0.08220819
24	0xbd3ecc84	-0.04658176
25	0xbc478910	-0.012178674
26	0xbdf196a2	-0.11796309
27	0x3b4be040	0.0031109005
28	0x3ca37d00	0.019957066
29	0xbd4b3208	-0.04960826
30	0x3d2611a0	0.040544152
31	0x3ddfb2e2	0.10922791
32	0xbcaeea08	-0.02135183
33	0xbd885712	-0.06657232
34	0xbde2c5a6	-0.11072855
35	0xbdbaee92	-0.09127535
36	0xbd8d9724	-0.069135934
37	0xbdbd4114	-0.09240928
38	0xbd494b00	-0.04914379
39	0x3d8d06ca	0.068860605
40	0x3d203754	0.039115265
41	0x3de6bd2c	0.112665504
42	0x3dfe2b36	0.124105856
43	0xbd385fec	-0.045013353
44	0xbd48824c	-0.048952386
45	0x3c8c2118	0.017105624
46	0xbdcbd926	-0.09953527
47	0x3d8b3e46	0.06798987
48	0xbcb84c20	-0.022497237
49	0xbdd65b30	-0.104666114
50	0xbdc1467a	-0.094372705
51	0xbdb066c8	-0.08613354
52	0x3d0cb96c	0.03435652
53	0x3dc43df6	0.095821306
54	0x3dcad112	0.09903158
55	0xbd0cfb54	-0.034419373
56	0xbd94b2fa	-0.072606996
57	0xbd633e54	-0.055479363
58	0xbdaee0ea	-0.08538993
59	0xbd040134	-0.03222771
60	0xbde73454	-0.11289278
61	0x3d88d4d4	0.06681219
62	0xbdf0f22c	-0.117649406
63	0xbd9f3ef8	-0.07775682
64	0xbd4da113	-0.05020244
65	0x3cd9f8fe	0.026607987
66	0x3cf4cd60	0.029883087
67	0xbcd8caba	-0.026463855
68	0x3dfc57bc	0.123214215
69	0xbce4cbff	-0.027929304
70	0x3db1476d	0.086562015
71	0x3d924998	0.07142943
72	0xbb872de0	-0.004125342
73	0xbe226397	-0.15858303
74	0xbdb9e5f0	-0.0907706
75	0x3e17b3b1	0.1481464
76	0xbbf1491c	-0.0073634516
77	0xbd1e8b7b	-0.038707238
78	0xbd00fc39	-0.03149054
79	0xbd946f67	-0.07247811
80	0xbe0d9a40	-0.13828373
81	0xbda2d282	-0.079503074
82	0x3cf64b80	0.030065298
83	0xbe57d96e	-0.21079037
84	0xbdc7f0ed	-0.0976275
85	0xbe0dc37b	-0.13844101
86	0xbe213e74	-0.1574648
87	0x3e2c7e60	0.16845083
88	0xbd866210	-0.06561673
89	0xbdca9470	-0.098915935
90	0xbe1a1613	-0.15047483
91	0xbd08e1e4	-0.03341855
92	0xbb3772cb	-0.0027992006
93	0xbd9163b9	-0.07099099
94	0xbd8cbd8b	-0.0687209
95	0xbe4da9f1	-0.20084359
96	0xbd3b8d83	-0.045789253
97	0xbd33f08b	-0.04393057
98	0x3e34a446	0.1764079
99	0xbb9df2b6	-0.004820193
100	0xbdfe1106	-0.12405591
101	0xbbf5dce0	-0.007503137
102	0x3df79eda	0.120908454
103	0x3997aaa6	0.00028928107
104	0xbe694830	-0.22781444
105	0x3dcb1dd0	0.09917796
106	0x3d081818	0.033226103
107	0xbd9910b6	-0.074738905
108	0xbe5ed8d0	-0.21762395
109	0xbd891be0	-0.0669477
110	0xbdee6f09	-0.11642272
111	0xbaaaf944	-0.0013044258
112	0xbdf5f5f2	-0.12009801
113	0xbd0affe8	-0.033935457
114	0xbdbdbc25	-0.09264401
115	0xbda69436	-0.08133738
116	0x3db019b0	0.085986495
117	0x3b13fc80	0.0022580922
118	0xbe446a8b	-0.19181268
119	0xbda9cdec	-0.082912296
120	0xbe2e3be8	-0.1701504
121	0xbddaaa2c	-0.10676989
122	0xbd2fe203	-0.04294015
123	0x3dc63351	0.096777566
124	0xbd4a1340	-0.049334764
125	0x3e332834	0.17495805
126	0xbe8194a1	-0.25308707
127	0xbd3386ca	-0.043829717
128	0xbe09de1e	-0.13463637
129	0xbd07b1be	-0.033128493
130	0x3dc16fea	0.09445174
131	0xbdda9dfd	-0.10674665
132	0x3d21f5a8	0.039540917
133	0xbe436115	-0.19080003
134	0xbcfa346a	-0.030542571
135	0x3d95d5e6	0.073161885
136	0xbca0d408	-0.019632354
137	0xbd921fc5	-0.07134966
138	0xbe02293c	-0.12711042
139	0xbcb7d7ef	-0.022441832
140	0xbd8c8a90	-0.06862366
141	0xbced61c5	-0.028977284
142	0xbe6f5744	-0.23373133
143	0x3adc95aa	0.0016829271
144	0xbd969837	-0.073532514
145	0xbd7306a2	-0.059332497
146	0x3ce42d58	0.027853653
147	0xbd1babc5	-0.03800561
148	0xbb1ebd02	-0.0024221544
149	0xbe05e53b	-0.13075726
150	0xbe64048a	-0.22267357
151	0xbbae8398	-0.005325746
152	0xbe15fc20	-0.1464696
153	0xbe38b5bb	-0.18038075
154	0xbd30c9e1	-0.043161277
155	0xbd4e3a4e	-0.050348572
156	0xbdd3b439	-0.10337109
157	0xbe03064c	-0.12795371
158	0xbe13791c	-0.14401668
159	0xbbb411b7	-0.005495276
160	0xbd33ff6d	-0.043944765
161	0xbd3b0a64	-0.045664206
162	0xbd254046	-0.0403445
163	0xbe3dfb1e	-0.18552825
164	0xbdc086b6	-0.09400694
165	0xbddd7684	-0.10813621
166	0x3d94bb10	0.07262242
167	0xbe79ddc2	-0.24401
168	0xbe7ae3b0	-0.24500918
169	0xbdfd0d28	-0.12356025
170	0xbd303a6e	-0.043024473
171	0xbddb55db	-0.10709735
172	0xbdf564bc	-0.11982104
173	0xbdcd4324	-0.10022572
174	0xbe2b6ef6	-0.16741547
175	0xbe21dbde	-0.15806529
176	0xbdac7088	-0.08419901
177	0xbe1a3fbb	-0.15063374
178	0xbe49c07e	-0.19702336
179	0xbdef3f13	-0.11681952
180	0x3dc9240c	0.098213285
181	0xbdd3a21a	-0.10333653
182	0xbd702ddb	-0.05863748
183	0xbe5a3271	-0.21308304
184	0xbe300540	-0.17189503
185	0xbdc3ea94	-0.095662266
186	0xbdc9ef1b	-0.09860059
187	0xbc902c7e	-0.01759934
188	0xb8442000	-4.6759844e-05
189	0xbe2bbc2d	-0.16771002
190	0xbe2fec79	-0.17180051
191	0xbdee785f	-0.11644053
192	0x3c8ee308	0.017442241
193	0xbdc8b80c	-0.09800729
194	0xbd5b10e4	-0.053482905
195	0x3b527040	0.0032110363
196	0xbdace328	-0.08441764
197	0xbe6677c6	-0.22506627
198	0x3db6c864	0.0892494
199	0x3dec930e	0.11551486
200	0xbd206060	-0.03915441
201	0xbddba1cc	-0.1072422
202	0xbe2c2631	-0.16811444
203	0x3d4ea4f4	0.05045028
204	0xbdeca385	-0.115546264
205	0xbe298bee	-0.16557285
206	0xbde176d4	-0.11008993
207	0xbe170f5c	-0.14751953
208	0xbe1aaef7	-0.15105806
209	0xbd2256ef	-0.039633688
210	0xbd7de2ac	-0.06198375
211	0xbd3386c9	-0.043829713
212	0xbdad5d4c	-0.084650606
213	0x3bb548c4	0.005532356
214	0xbe858105	-0.26074997
215	0x3dfcbd8c	0.12340841
216	0xbe11c099	-0.14233626
217	0x3e396824	0.18106133
218	0xbe3b9145	-0.18317135
219	0xbe7771d5	-0.24164517
220	0xbdcc0ee0	-0.09963775
221	0x3d40f8ef	0.0471124
222	0xbd230e44	-0.039808527
223	0xbe0d3e15	-0.13793214
224	0x3dd581f6	0.10425179
225	0xbe730b36	-0.23734745
226	0x3d7f8c38	0.062389582
227	0x3e5d894c	0.21634406
228	0xbdf3b812	-0.11900343
229	0xbd9fa702	-0.07795526
230	0x3b8301e0	0.0039980263
231	0xbdb9d335	-0.09073488
232	0xbd8aa371	-0.06769455
233	0xbd1ba1d8	-0.037996143
234	0xbe26d763	-0.16293101
235	0xbd718bf0	-0.058971345
236	0xbdf79b58	-0.12090176
237	0xbdcf36e4	-0.101178914
238	0xbe79a7a5	-0.24380358
239	0xbe402752	-0.18765
240	0xbaa89a80	-0.0012863427
241	0xbce027c0	-0.027362704
242	0xbc0c27de	-0.008554427
243	0xbe777d25	-0.24168833
244	0x3dde0686	0.10841088
245	0x3de551e8	0.11197263
246	0xbc9ddc2b	-0.019270023
247	0x3df9f4b3	0.12204876
248	0x3dcd9af8	0.100393236
249	0x3d78c36c	0.060733244
250	0xbe62b168	-0.22137988
251	0xbd86ee88	-0.06588465
252	0x3b1a1080	0.002350837
253	0xbdb56c06	-0.088584945
254	0xbe271795	-0.1631759
255	0xbc9a4405	-0.018831262

flow.model.0.affine.params.layers.3.bias f4 [64]
0	0xbc9eb468	-0.019373134
1	0xbbbb9afd	-0.005725263
2	0xbe1a8c66	-0.1509262
3	0xbc108f17	-0.008823178
4	0xbe50e665	-0.20400389
5	0xbe8e7e9f	-0.2783098
6	0x3d4d5975	0.05013414
7	0xbe448ff2	-0.19195536
8	0xbea157da	-0.31512338
9	0xbe4ff921	-0.20309879
10	0xbe9908d8	-0.2988956
11	0xbd8b3e71	-0.06799019
12	0xbdcfad8d	-0.10140524
13	0x3dd84f60	0.105620146
14	0xbe133d2e	-0.14378807
15	0xbd44867e	-0.047979824
16	0x3e6ca6bc	0.23110479
17	0xbd36c823	-0.04462446
18	0xbd40f61e	-0.047109716
19	0xbd9b3b5b	-0.075796805
20	0x3e62395b	0.22092192
21	0xbe3560f3	-0.17712764
22	0xbe363d70	-0.17796874
23	0x3e2dfed5	0.16991742
24	0xbdda6550	-0.10663855
25	0x3c793446	0.015210217
26	0xbbdcd88c	-0.0067396816
27	0xbe194120	-0.1496625
28	0xbdc62372	-0.096747294
29	0xbdd5c99f	-0.10438847
30	0xbe08aa52	-0.13346222
31	0xbe227eb8	-0.15868652
32	0xbe3b7aa6	-0.18308505
33	0xbe00f1e8	-0.1259228
34	0xbe4a455c	-0.19753021
35	0x3d05ee96	0.032698236
36	0xbd37806f	-0.04480022
37	0x3ca08906	0.019596588
38	0xbe279beb	-0.16368072
39	0xbe3c03bb	-0.18360798
40	0xbdb03261	-0.08603359
41	0xbe9957d1	-0.2994981
42	0xbd2a9e3c	-0.04165481
43	0xbe8e5981	-0.2780266
44	0xbbc363fe	-0.0059628477
45	0xbdd4e005	-0.10394291
46	0xbe07f803	-0.13278203
47	0xbdabc4af	-0.08387124
48	0x3e13f931	0.14450528
49	0xbee0dfee	-0.43920845
50	0x3cfe6260	0.031052768
51	0xbe5dc6cf	-0.2165787
52	0xbc85fcb0	-0.016355842
53	0xbea4b559	-0.32169607
54	0xbe347bb8	-0.1762532
55	0xbe19c26f	-0.15015577
56	0xbb9ff04c	-0.0048809405
57	0xbd08c504	-0.033391014
58	0xbdaccc83	-0.08437445
59	0x3e327ffb	0.17431633
60	0xbdf2f0ae	-0.11862312
61	0xbe104edd	-0.14092584
62	0xbebe3dd1	-0.37156537
63	0xbc39290a	-0.011301288

flow.model.0.affine.params.layers.5.weight f4 [2, 64]
0	0x3da0ae54	0.078457505
1	0x3e32d136	0.1746262
2	0x3df70d93	0.12063136
3	0xbc5da6a1	-0.013528497
4	0xbdc96bbe	-0.09835003
5	0xbe0bd634	-0.13655931
6	0x3e73f3c1	0.23823453
7	0xbe64c057	-0.22338997
8	0xbe3ae797	-0.18252407
9	0xbdd99656	-0.106243774
10	0x3cecc605	0.028903017
11	0x3e598979	0.21243848
12	0x3e41a85a	0.18911877
13	0x3e4990f2	0.19684198
14	0x3e46920c	0.1939165
15	0x3e52e4a3	0.2059503
16	0xbf02693b	-0.5094182
17	0x3e4d5ab1	0.20054127
18	0xbd0991bc	-0.03358625
19	0xbb90e675	-0.004422004
20	0xbe68c8f2	-0.22732905
21	0x3e82e4ec	0.2556528
22	0x3da2fbb8	0.07958168
23	0x3e689f4f	0.22717021
24	0x3dda1a9b	0.10649606
25	0xbd85b0b4	-0.06527844
26	0x3df7d675	0.12101451
27	0x3e444631	0.19167401
28	0x3a900412	0.0010987541
29	0xbdb3b65f	-0.08775019
30	0x3e4a9981	0.1978512
31	0xbc880076	-0.016601782
32	0x3e65d222	0.2244344
33	0x3ddd5233	0.10806694
34	0xbe155fcb	-0.14587323
35	0xbe16195c	-0.14658111
36	0x39d653ee	0.00040879793
37	0x3ce6084c	0.028080128
38	0xbd8420b3	-0.064515494
39	0x3e021585	0.12703522
40	0xbd53019c	-0.051515207
41	0xbe0f7f24	-0.14013344
42	0xbde04572	-0.10950746
43	0xbdcfc071	-0.10144127
44	0xbd13632b	-0.035983246
45	0x3e73c744	0.23806483
46	0xbda362a9	-0.07977802
47	0x3e6bb8be	0.23019692
48	0x3e1eafb1	0.15496708
49	0xbccd5769	-0.025066094
50	0x3e478e2d	0.1948783
51	0x3e22092a	0.15823808
52	0x3d8c7682	0.06858541
53	0x3e0539fa	0.13010398
54	0x3e82e50a	0.25565368
55	0xbe0d5747	-0.13802825
56	0xbcfac9f2	-0.030613873
57	0xbd5d4eab	-0.0540301
58	0x3dbf6195	0.09344784
59	0x3e19eb6a	0.1503121
60	0x3e509a5d	0.20371385
61	0x3cc97e0a	0.024596233
62	0xbe0d0b8c	-0.13773936
63	0xbcf4ca1c	-0.02988153
64	0xbd530f50	-0.051528275
65	0xbcb2986e	-0.0218012
66	0x3d4a6c04	0.049419418
67	0xbe24ad09	-0.16081633
68	0xbd9c1d23	-0.07622745
69	0xbe2e0052	-0.1699231
70	0xbe13ee59	-0.14446391
71	0xbe264ce1	-0.16240264
72	0x3e76337b	0.24043076
73	0xbca117f6	-0.019664746
74	0x3db4435f	0.088019125
75	0xbdaac3b9	-0.083381124
76	0xbdb99d2c	-0.09063181
77	0xbdd4ec75	-0.10396663
78	0xbd0193f1	-0.03163523
79	0xba810d36	-0.0009845856
80	0xbc1aee3f	-0.009456216
81	0xbc6466c2	-0.013940515
82	0x3e157bc5	0.14597996
83	0x3de95db3	0.11394825
84	0xbe959ade	-0.29219717
85	0xbd16c9cb	-0.03681354
86	0x3d51c2ef	0.051211294
87	0xbde20b81	-0.110373504
88	0xbb0f4d35	-0.0021866087
89	0x3deb6bba	0.114951566
90	0xbd544a93	-0.051828932
91	0xbc7fac7e	-0.01560509
92	0xbd81008a	-0.06298931
93	0x3d8fd7b9	0.07023568
94	0x3cd78cdf	0.02631229
95	0xbd57d319	-0.052691553
96	0xba996f26	-0.0011706098
97	0x3d00191f	0.031273957
98	0x3c3bd31a	0.011463905
99	0x3e26809a	0.16259995
100	0x3e34e45b	0.17665236
101	0x3cbdcb68	0.02316828
102	0x3ddcd5c2	0.107829586
103	0x3c15517a	0.009113664
104	0x3d5dce63	0.054151904
105	0x3dd31e1e	0.10308479
106	0x3d65e9d8	0.056131214
107	0x3db0683a	0.0861363
108	0x3e0b94a1	0.13630916
109	0xbdacf853	-0.084458016
110	0x3e1f421a	0.1555256
111	0xbdadc5cc	-0.084849924
112	0xbddd2646	-0.10798316
113	0x3d80b4c0	0.06284475
114	0x3cf20152	0.029541645
115	0x3d7b4308	0.061343223
116	0x3d8cd5dc	0.06876728
117	0x3d639a0a	0.055566825
118	0xbc464515	-0.012101431
119	0x3dd21e5d	0.102596976
120	0x3e31cd7a	0.1736354
121	0x3d06ad75	0.032880265
122	0xbae642a1	-0.0017567464
123	0xbe00d8e6	-0.1258274
124	0xbbc542b0	-0.0060199127
125	0x3e42c6a7	0.19021092
126	0x3de89c1a	0.11357899
127	0x3e6619b4	0.22470742

flow.model.0.affine.params.layers.5.bias f4 [2]
0	0x3db7789b	0.089585505
1	0xbc931611	-0.017954858

flow.model.1.unit_jacobian f4 [500, 1]
0	0x3f800000	1.0
1	0x3f800000	1.0
2	0x3f800000	1.0
3	0x3f800000	1.0
4	0x3f800000	1.0
5	0x3f800000	1.0
6	0x3f800000	1.0
7	0x3f800000	1.0
8	0x3f800000	1.0
9	0x3f800000	1.0
10	0x3f800000	1.0
11	0x3f800000	1.0
12	0x3f800000	1.0
13	0x3f800000	1.0
14	0x3f800000	1.0
15	0x3f800000	1.0
16	0x3f800000	1.0
17	0x3f800000	1.0
18	0x3f800000	1.0
19	0x3f800000	1.0
20	0x3f800000	1.0
21	0x3f800000	1.0
22	0x3f800000	1.0
23	0x3f800000	1.0
24	0x3f800000	1.0
25	0x3f800000	1.0
26	0x3f800000	1.0
27	0x3f800000	1.0
28	0x3f800000	1.0
29	0x3f800000	1.0
30	0x3f800000	1.0
31	0x3f800000	1.0
32	0x3f800000	1.0
33	0x3f800000	1.0
34	0x3f800000	1.0
35	0x3f800000	1.0
36	0x3f800000	1.0
37	0x3f800000	1.0
38	0x3f800000	1.0
39	0x3f800000	1.0
40	0x3f800000	1.0
41	0x3f800000	1.0
42	0x3f800000	1.0
43	0x3f800000	1.0
44	0x3f800000	1.0
45	0x3f800000	1.0
46	0x3f800000	1.0
47	0x3f800000	1.0
48	0x3f800000	1.0
49	0x3f800000	1.0
50	0x3f800000	1.0
51	0x3f800000	1.0
52	0x3f800000	1.0
53	0x3f800000	1.0
54	0x3f800000	1.0
55	0x3f800000	1.0
56	0x3f800000	1.0
57	0x3f800000	1.0
58	0x3f800000	1.0
59	0x3f800000	1.0
60	0x3f800000	1.0
61	0x3f800000	1.0
62	0x3f800000	1.0
63	0x3f800000	1.0
64	0x3f800000	1.0
65	0x3f800000	1.0
66	0x3f800000	1.0
67	0x3f800000	1.0
68	0x3f800000	1.0
69	0x3f800000	1.0
70	0x3f800000	1.0
71	0x3f800000	1.0
72	0x3f800000	1.0
73	0x3f800000	1.0
74	0x3f800000	1.0
75	0x3f800000	1.0
76	0x3f800000	1.0
77	0x3f800000	1.0
78	0x3f800000	1.0
79	0x3f800000	1.0
80	0x3f800000	1.0
81	0x3f800000	1.0
82	0x3f800000	1.0
83	0x3f800000	1.0
84	0x3f800000	1.0
85	0x3f800000	1.0
86	0x3f800000	1.0
87	0x3f800000	1.0
88	0x3f800000	1.0
89	0x3f800000	1.0
90	0x3f800000	1.0
91	0x3f800000	1.0
92	0x3f800000	1.0
93	0x3f800000	1.0
94	0x3f800000	1.0
95	0x3f800000	1.0
96	0x3f800000	1.0
97	0x3f800000	1.0
98	0x3f800000	1.0
99	0x3f800000	1.0
100	0x3f800000	1.0
101	0x3f800000	1.0
102	0x3f800000	1.0
103	0x3f800000	1.0
104	0x3f800000	1.0
105	0x3f800000	1.0
106	0x3f800000	1.0
107	0x3f800000	1.0
108	0x3f800000	1.0
109	0x3f800000	1.0
110	0x3f800000	1.0
111	0x3f800000	1.0
112	0x3f800000	1.0
113	0x3f800000	1.0
114	0x3f800000	1.0
115	0x3f800000	1.0
116	0x3f800000	1.0
117	0x3f800000	1.0
118	0x3f800000	1.0
119	0x3f800000	1.0
120	0x3f800000	1.0
121	0x3f800000	1.0
122	0x3f800000	1.0
123	0x3f800000	1.0
124	0x3f800000	1.0
125	0x3f800000	1.0
126	0x3f800000	1.0
127	0x3f800000	1.0
128	0x3f800000	1.0
129	0x3f800000	1.0
130	0x3f800000	1.0
131	0x3f800000	1.0
132	0x3f800000	1.0
133	0x3f800000	1.0
134	0x3f800000	1.0
135	0x3f800000	1.0
136	0x3f800000	1.0
137	0x3f800000	1.0
138	0x3f800000	1.0
139	0x3f800000	1.0
140	0x3f800000	1.0
141	0x3f800000	1.0
142	0x3f800000	1.0
143	0x3f800000	1.0
144	0x3f800000	1.0
145	0x3f800000	1.0
146	0x3f800000	1.0
147	0x3f800000	1.0
148	0x3f800000	1.0
149	0x3f800000	1.0
150	0x3f800000	1.0
151	0x3f800000	1.0
152	0x3f800000	1.0
153	0x3f800000	1.0
154	0x3f800000	1.0
155	0x3f800000	1.0
156	0x3f800000	1.0
157	0x3f800000	1.0
158	0x3f800000	1.0
159	0x3f800000	1.0
160	0x3f800000	1.0
161	0x3f800000	1.0
162	0x3f800000	1.0
163	0x3f800000	1.0
164	0x3f800000	1.0
165	0x3f800000	1.0
166	0x3f800000	1.0
167	0x3f800000	1.0
168	0x3f800000	1.0
169	0x3f800000	1.0
170	0x3f800000	1.0
171	0x3f800000	1.0
172	0x3f800000	1.0
173	0x3f800000	1.0
174	0x3f800000	1.0
175	0x3f800000	1.0
176	0x3f800000	1.0
177	0x3f800000	1.0
178	0x3f800000	1.0
179	0x3f800000	1.0
180	0x3f800000	1.0
181	0x3f800000	1.0
182	0x3f800000	1.0
183	0x3f800000	1.0
184	0x3f800000	1.0
185	0x3f800000	1.0
186	0x3f800000	1.0
187	0x3f800000	1.0
188	0x3f800000	1.0
189	0x3f800000	1.0
190	0x3f800000	1.0
191	0x3f800000	1.0
192	0x3f800000	1.0
193	0x3f800000	1.0
194	0x3f800000	1.0
195	0x3f800000	1.0
196	0x3f800000	1.0
197	0x3f800000	1.0
198	0x3f800000	1.0
199	0x3f800000	1.0
200	0x3f800000	1.0
201	0x3f800000	1.0
202	0x3f800000	1.0
203	0x3f800000	1.0
204	0x3f800000	1.0
205	0x3f800000	1.0
206	0x3f800000	1.0
207	0x3f800000	1.0
208	0x3f800000	1.0
209	0x3f800000	1.0
210	0x3f800000	1.0
211	0x3f800000	1.0
212	0x3f800000	1.0
213	0x3f800000	1.0
214	0x3f800000	1.0
215	0x3f800000	1.0
216	0x3f800000	1.0
217	0x3f800000	1.0
218	0x3f800000	1.0
219	0x3f800000	1.0
220	0x3f800000	1.0
221	0x3f800000	1.0
222	0x3f800000	1.0
223	0x3f800000	1.0
224	0x3f800000	1.0
225	0x3f800000	1.0
226	0x3f800000	1.0
227	0x3f800000	1.0
228	0x3f800000	1.0
229	0x3f800000	1.0
230	0x3f800000	1.0
231	0x3f800000	1.0
232	0x3f800000	1.0
233	0x3f800000	1.0
234	0x3f800000	1.0
235	0x3f800000	1.0
236	0x3f800000	1.0
237	0x3f800000	1.0
238	0x3f800000	1.0
239	0x3f800000	1.0
240	0x3f800000	1.0
241	0x3f800000	1.0
242	0x3f800000	1.0
243	0x3f800000	1.0
244	0x3f800000	1.0
245	0x3f800000	1.0
246	0x3f800000	1.0
247	0x3f800000	1.0
248	0x3f800000	1.0
249	0x3f800000	1.0
250	0x3f800000	1.0
251	0x3f800000	1.0
252	0x3f800000	1.0
253	0x3f800000	1.0
254	0x3f800000	1.0
255	0x3f800000	1.0

flow.model.1.affine.params.layers.0.weight f4 [64, 1]
0	0xbae25cbf	-0.0017270072
1	0xbd564936	-0.052315913
2	0x3ef4215e	0.47681707
3	0xbeeff62c	-0.46867502
4	0xbe4adc99	-0.19810714
5	0x3f219ad6	0.63126886
6	0x3f038b42	0.51384366
7	0x3f2410cf	0.6408815
8	0xbd438bb0	-0.04774064
9	0x3e43d482	0.19124034
10	0x3f048858	0.51770544
11	0x3e9afb8d	0.30270043
12	0x3f2e4ea4	0.68088746
13	0x3ebfc547	0.37455198
14	0x3eb17ebe	0.3466701
15	0x3ec19c4e	0.37814564
16	0xbf13d176	-0.5774149
17	0xbf3df0bf	-0.74195474
18	0xbf6643e5	-0.8994735
19	0x3f26e554	0.65193677
20	0xbeedfe1c	-0.46482933
21	0xbf31e26e	-0.6948613
22	0x3d146969	0.03623334
23	0xbd77bd78	-0.060483426
24	0x3e670310	0.22559762
25	0xbeaf521a	-0.34242326
26	0x3f2ea348	0.682179
27	0xbf50f65c	-0.81625915
28	0xbf64373d	-0.89146787
29	0x3f3a78c5	0.7284053
30	0xbf0ffd3a	-0.5624577
31	0x3e1d181d	0.1534123
32	0x3e8bb085	0.2728311
33	0x3d8517b9	0.06498665
34	0xbf42ec2e	-0.7614163
35	0x3c5557d1	0.013021425
36	0xbf0fa157	-0.5610556
37	0x3f363ba0	0.7118473
38	0x3e7aa482	0.24476817
39	0x3f4e7692	0.80649674
40	0x3f12fc65	0.57416373
41	0x3f01ba5f	0.50675005
42	0x3e62d2a1	0.22150661
43	0x3edccd52	0.43125397
44	0xbf018b35	-0.5060304
45	0x3f1f497f	0.6222152
46	0xbdfbdf9c	-0.122985095
47	0x3f5cee25	0.8630088
48	0xbe1a340d	-0.15058918
49	0x3ea9acd9	0.33139685
50	0x3f1b61df	0.60696214
51	0x3d6bb8cb	0.05754928
52	0xbdd00ad6	-0.10158317
53	0x3f09ce97	0.53830856
54	0xbf8ffb33	-1.1248535
55	0xbe4471be	-0.19184014
56	0xbe967aff	-0.29390714
57	0xbf2cabaf	-0.6744947
58	0xbe0f48dc	-0.13992637
59	0x3dadf1a6	0.084933564
60	0xbf616a29	-0.8805261
61	0x3f68d6b7	0.9095263
62	0x3ef30f86	0.4747278
63	0x3f5ad85f	0.85486406

flow.model.1.affine.params.layers.0.bias f4 [64]
0	0xbeacb302	-0.33730322
1	0xbf12c268	-0.5732789
2	0x3f056c2d	0.5211819
3	0x3f58e7b7	0.8472857
4	0xbef8a6fd	-0.48564902
5	0xbee83c03	-0.45358285
6	0x3d8b0d08	0.06789595
7	0x3f3f5e48	0.74753237
8	0xbe7dc0e9	-0.2478062
9	0xbf85890a	-1.0432446
10	0xbe8fd3ea	-0.28091365
11	0xbf25ce2f	-0.64767736
12	0x3f2aba1d	0.66690236
13	0xbf180bf4	-0.5939324
14	0x3f56ecaa	0.8395487
15	0x3ef05db9	0.46946505
16	0xbe3defba	-0.1854848
17	0xbeba6dc0	-0.36411858
18	0x3eebcfb0	0.4605689
19	0xbedcd858	-0.43133807
20	0xbf048dfe	-0.5177916
21	0x3f3fe4c6	0.74958456
22	0xbe815fd3	-0.2526842
23	0xbd099c8b	-0.033596557
24	0x3f680f0a	0.9064795
25	0xbf3b043c	-0.73053336
26	0x3e861a10	0.2619176
27	0xbd867544	-0.065653354
28	0xbf1e3fdd	-0.618162
29	0x3f720f04	0.9455416
30	0x3f4dd52e	0.8040341
31	0x3d88c7bc	0.06678721
32	0xbc738b70	-0.014864787
33	0x3f41b1cd	0.7566193
34	0xbe5290bf	-0.20563029
35	0x3f2cb262	0.6745969
36	0xbf449242	-0.7678567
37	0xbf2ff764	-0.68736863
38	0x3f1417cf	0.5784883
39	0x3f1c247f	0.6099319
40	0xbf2e2dda	-0.68038714
41	0xbe815ca6	-0.25265998
42	0x3f0ec3a3	0.5576727
43	0x3f217a66	0.6307739
44	0x3f00a61a	0.5025345
45	0x3f4bfad2	0.79679596
46	0xbf0d6628	-0.55234003
47	0x3e0007a8	0.1250292
48	0x3f68d08b	0.9094321
49	0xbf2f7920	-0.685442
50	0x3f3da14b	0.7407424
51	0x3ec7190d	0.388863
52	0xbdbde2d2	-0.09271778
53	0x3f66f752	0.9022113
54	0xbe9639c1	-0.29340938
55	0xbe1c5e01	-0.15270235
56	0xbf1d7ad2	-0.61515534
57	0x3f359da9	0.70943695
58	0xbf212dd2	-0.6296054
59	0x3f88106d	1.0630013
60	0xbf5e170c	-0.86753917
61	0x3ee3c7a8	0.44488263
62	0xbecfa00a	-0.40551788
63	0x3f818dd6	1.012141

flow.model.1.affine.params.layers.1.weight f4 [64, 64]
0	0x3e5d930c	0.21638125
1	0x3e53debf	0.2069044
2	0xbdac2a85	-0.084065475
3	0xbed7f18c	-0.42176473
4	0x3eaf7cb4	0.34274828
5	0x3e059087	0.13043414
6	0x3b5d311f	0.0033751202
7	0xbe12d852	-0.14340332
8	0x3e67f16a	0.22650686
9	0x3ea8d651	0.3297601
10	0x3ce06606	0.027392399
11	0x3ec88aa6	0.3916828
12	0xbdabddbd	-0.083919026
13	0x3eb7fcea	0.35935146
14	0xbe00c7db	-0.12576239
15	0xbe293820	-0.16525316
16	0xbe22200f	-0.15832542
17	0xbe2a478a	-0.16628852
18	0xbd76c900	-0.060250282
19	0x3e3aa70c	0.18227786
20	0xbcdd84b1	-0.027040811
21	0xbdce8090	-0.10083115
22	0x3ec59c31	0.38595727
23	0x3d875a7b	0.06609055
24	0xbe4493f2	-0.19197062
25	0x3e64286c	0.22281045
26	0x3d9f6d1e	0.07784484
27	0xbd80532c	-0.06265864
28	0x3db09426	0.08622007
29	0xbdaad927	-0.083422
30	0xbe8c3fa8	-0.27392316
31	0x3d4915d4	0.049093083
32	0x3e33f5ba	0.17574206
33	0xbed3fcd3	-0.41403827
34	0xbdd9061d	-0.10596869
35	0xbed472b8	-0.41493773
36	0x3e02ef62	0.1278663
37	0x3d637a71	0.05553669
38	0xbea28be3	-0.3174735
39	0xbd9e77a6	-0.07737665
40	0x3df42e60	0.11922908
41	0x3e3686c3	0.17824845
42	0xbde7339a	-0.11289139
43	0xbcf905d7	-0.030398292
44	0xbe3d3c39	-0.18480004
45	0x3c918be1	0.017766895
46	0x3ec4ba52	0.384234
47	0x3d9faeeb	0.07797035
48	0xbedc4003	-0.43017587
49	0x3e6b7eff	0.22997664
50	0xbe3feb07	-0.18742
51	0xbe835854	-0.25653327
52	0x3dc4bef5	0.09606735
53	0xbd92c165	-0.07165793
54	0xbe0247b8	-0.12722671
55	0xbd83e77e	-0.06440638
56	0x3e63b2a9	0.22236122
57	0xbe1ac754	-0.151151
58	0x3e843f1e	0.25829405
59	0xbe7fe290	-0.2498877
60	0xbc92cb1b	-0.017919114
61	0x3dba7672	0.09104623
62	0x3d881cfc	0.06646153
63	0x3d40365b	0.046926837
64	0x3cefe2b2	0.029282901
65	0x3e73e334	0.2381714
66	0x3e320b47	0.17387114
67	0xbe7948a3	-0.24344115
68	0x3e2e2f43	0.17010216
69	0x3d99fe34	0.075191885
70	0x3e1931aa	0.14960352
71	0x3e38728e	0.18012449
72	0xbe212800	-0.15737915
73	0x3d7cce6c	0.061720297
74	0x3989c025	0.00026273835
75	0x3e63f5fa	0.22261801
76	0xbc71e16e	-0.014763219
77	0x3d5b9a97	0.053614225
78	0x3e4f126f	0.20221876
79	0x3e1e8399	0.15479888
80	0xbba356fe	-0.0049847355
81	0x3c8b4b52	0.017003689
82	0xbe4cfb8a	-0.2001783
83	0x3d761343	0.060076963
84	0xbdceb92b	-0.10093912
85	0x3cc71fcb	0.024307152
86	0x3dc551cb	0.096347414
87	0xbdcb8404	-0.09937289
88	0x3e233c24	0.1594091
89	0xbcac028c	-0.020997308
90	0x3c1614ed	0.0091602625
91	0xbe4c3d22	-0.19945195
92	0xbe0d120a	-0.13776413
93	0x3e053628	0.1300894
94	0xbc4df577	-0.01257073
95	0x3e16c9ad	0.1472537
96	0x3e273c64	0.16331631
97	0x3dfb1f86	0.12261872
98	0xbdfaa636	-0.122387335
99	0x3d6981d4	0.05700858
100	0x3c7495c9	0.01492829
101	0x3df17824	0.11790493
102	0xbd6ff4e2	-0.058583148
103	0x3e274f97	0.16338955
104	0x3e39ce3e	0.18145081
105	0x3e01d871	0.12680222
106	0x3d9e2cde	0.077234015
107	0x3d0f115d	0.03492867
108	0xbe2b403c	-0.16723722
109	0x3ce35a52	0.027753029
110	0x3c4d0001	0.012512208
111	0x3e42cc69	0.19023289
112	0xbe4beaee	-0.19913837
113	0x3e72ad7c	0.23698992
114	0x3d6d8393	0.057986807
115	0x3d6d2f2d	0.05790632
116	0xbd519215	-0.051164705
117	0xbc54532a	-0.012959281
118	0xbe289086	-0.16461381
119	0xbdd8454a	-0.10560091
120	0xbdf99e2d	-0.12188373
121	0xbce6f91f	-0.028194962
122	0x3dd60f0f	0.10452091
123	0xbcf0e682	-0.02940679
124	0xbe4bfc0d	-0.19920368
125	0x3e583c56	0.21116766
126	0x3e17266b	0.14760749
127	0xbd0c005c	-0.03418003
128	0xbc3baf71	-0.011455403
129	0x3c463760	0.012098163
130	0x3e7a48ae	0.24441788
131	0xbcbd2a2e	-0.023091402
132	0x3e068ed0	0.13140416
133	0x3e25c7af	0.16189454
134	0x3de60d4c	0.11233005
135	0x3e619fc9	0.2203361
136	0xbe448713	-0.19192152
137	0x3e41ba80	0.189188
138	0x3e17d4c7	0.14827262
139	0x3e07b5d8	0.13252962
140	0x3e583392	0.21113423
141	0x3d88955c	0.06669113
142	0x3d9339e3	0.071887754
143	0x3d6a4838	0.05719778
144	0xbe3d5e16	-0.18492922
145	0xbdb8f7d1	-0.09031642
146	0xbcdbde43	-0.026839381
147	0x3dea4a39	0.11439938
148	0xbdc39f8c	-0.095519155
149	0xbd3384ae	-0.043827705
150	0xbcbb58ed	-0.022869552
151	0xbe3184eb	-0.1733586
152	0x3cb659ce	0.02225962
153	0xbbea63f3	-0.007153028
154	0xbcb7edab	-0.022452196
155	0xbd0225f5	-0.03177448
156	0xbaae240b	-0.0013285888
157	0x3d647187	0.05577233
158	0xbde2dff4	-0.11077872
159	0x3e468240	0.19385624
160	0xbc3483b9	-0.011017733
161	0x3bea1ecb	0.007144784
162	0xbde036a1	-0.1094792
163	0x3dee9a16	0.11650483
164	0xbe11cad4	-0.14237529
165	0x3dce9608	0.1008721
166	0x3e55ff5e	0.20898196
167	0x3e21dac8	0.15806115
168	0x3e0296ed	0.12752886
169	0x3e37b054	0.17938358
170	0x3d9577c3	0.07298233
171	0x3dcbe8b2	0.099564925
172	0xbd499741	-0.049216513
173	0x3e068fe9	0.13140835
174	0xbe3466c4	-0.17617327
175	0x3e45477d	0.19265552
176	0xbe3eed5d	-0.18645234
177	0x3d024209	0.031801257
178	0xbceb1edf	-0.028701244
179	0x3e15c8c6	0.1462737
180	0xbe40d1d9	-0.1883005
181	0x3e61876c	0.22024316
182	0xbe330c7a	-0.17485228
183	0xbdc93092	-0.09823717
184	0xbca9122d	-0.02063855
185	0x3cb94247	0.022614611
186	0x3e07a2ac	0.13245648
187	0x3e365838	0.1780709
188	0xbd8d3e18	-0.06896609
189	0x3e2719d7	0.16318451
190	0x3da8d7e4	0.08244303
191	0xbb249493	-0.0025112971
192	0x3e785300	0.24250412
193	0x3d1eb678	0.038748235
194	0x3e581b48	0.21104157
195	0xbdff6460	-0.12470317
196	0x3e4bd110	0.1990397
197	0x3dc1fb42	0.09471752
198	0x3e1392f0	0.14411521
199	0x3e330cfd	0.17485423
200	0xbe550cb3	-0.20805626
201	0x3e512298	0.20423353
202	0x3d4868ba	0.048928
203	0x3ca00fda	0.019538809
204	0xbc29bc01	-0.010359765
205	0x3e122721	0.14272739
206	0x3e3f37fa	0.18673697
207	0xbce4ee5c	-0.02794569
208	0xbd5f62c3	-0.054537546
209	0xbd24cd2a	-0.040234722
210	0xbe534daa	-0.20635095
211	0x3df3742c	0.118873924
212	0xbe1b5531	-0.15169217
213	0xbd932ac6	-0.07185893
214	0x3dac7a33	0.08421745
215	0x3c2e149f	0.010625034
216	0xbcd9927b	-0.026559105
217	0xbca630fe	-0.020287033
218	0x3d3316c3	0.04372288
219	0xbd6446f3	-0.055731725
220	0xbd9fc6f1	-0.07801617
221	0xbcd75138	-0.026283845
222	0xbe43a429	-0.19105591
223	0x3dc4ef31	0.09615935
224	0x3dc23bf4	0.094840914
225	0x3ca34d98	0.01993446
226	0xbc9ce671	-0.019152852
227	0x3c809e07	0.015700353
228	0xbe203811	-0.15646388
229	0x3e1585c2	0.14601806
230	0xbddb3a67	-0.10704499
231	0x3e045b34	0.12925416
232	0x3e2d16e5	0.16903265
233	0x3d2c2c17	0.042034235
234	0x3e003df0	0.12523627
235	0x3e426187	0.18982516
236	0xbd9265be	-0.07148312
237	0x3e4b763d	0.19869323
238	0xbd0e0fb6	-0.034682952
239	0x3e3ae3c6	0.18250951
240	0xbd13a3ed	-0.036045004
241	0x3e53c75d	0.2068152
242	0x3dfe4058	0.12414616
243	0x3e1b9ee3	0.15197329
244	0xbc6a5e0b	-0.014304648
245	0x3dc66b04	0.0968838
246	0xbd8e197f	-0.06938457
247	0xbe0a53e5	-0.13508566
248	0xbdb031ea	-0.0860327
249	0xbcdffcfd	-0.027342314
250	0x3dff4af1	0.12465466
251	0x3d0f24da	0.034947254
252	0xbd735678	-0.059408635
253	0x3db0f4ce	0.08640443
254	0x3dd0a307	0.10187345
255	0x3d81c139	0.063356824

flow.model.1.affine.params.layers.1.bias f4 [64]
0	0xbe6034ef	-0.21895193
1	0xbdd91bee	-0.1060103
2	0xbd019470	-0.0316357
3	0xbdc44db9	-0.09585137
4	0x3c1261af	0.008934422
5	0xbdafcedc	-0.08584377
6	0xbd5cd284	-0.0539117
7	0xbda3a3fd	-0.07990263
8	0xbc5bf45e	-0.013424961
9	0xbe52ffb7	-0.2060536
10	0x3d6371d0	0.055528462
11	0x3cee2359	0.02906959
12	0x3e2f3e61	0.1711364
13	0xbdbe1b05	-0.09282497
14	0xbe3400b7	-0.17578398
15	0xbdf1e78c	-0.11811742
16	0x3c9b8a70	0.01898691
17	0xbe3ec156	-0.1862844
18	0xbe1fa4b0	-0.15590167
19	0xbe964c41	-0.29355052
20	0xbd87123b	-0.06595274
21	0x3cd90ab0	0.026494354
22	0xbcad19ec	-0.021130525
23	0x3e35ef9a	0.17767182
24	0x3c55790b	0.013029347
25	0xbbd93120	-0.0066281706
26	0xbe2cd629	-0.1687857
27	0xbde73f56	-0.11291377
28	0xbd8f3f8a	-0.06994541
29	0xbdd5b6c1	-0.10435248
30	0xbdc8bcbf	-0.098016255
31	0x3ed303da	0.41213876
32	0xbe059ddb	-0.13048498
33	0xbd9ec1cd	-0.07751808
34	0xbe61a3ef	-0.22035192
35	0xbdd7488a	-0.105118826
36	0xbd934932	-0.07191695
37	0xbe6b5903	-0.22983174
38	0xbe358083	-0.17724805
39	0xbe623171	-0.22089173
40	0x3d846177	0.064639024
41	0xbe93c2c2	-0.28859526
42	0xbd145527	-0.03621402
43	0x3e621ffc	0.22082514
44	0xbd691bea	-0.056911387
45	0xbe4d30c9	-0.20038141
46	0xbdaa2113	-0.0830709
47	0xbae3f100	-0.0017390549
48	0x3bba66f6	0.0056885434
49	0xbe74df91	-0.23913409
50	0xbd4d4786	-0.05011704
51	0xbd78875c	-0.060675964
52	0x3cb74faa	0.022376854
53	0xbd514384	-0.05108978
54	0x3e14a9da	0.14517918
55	0xbe695103	-0.2278481
56	0xbe0d862e	-0.13820717
57	0xbd0d493b	-0.034493666
58	0x3bb82440	0.0056195557
59	0xbedcf552	-0.43155915
60	0xba790179	-0.00094988156
61	0xbe75f2c0	-0.24018383
62	0xbe2d67a7	-0.16934071
63	0xbd4eaf26	-0.050460003
